vanilla_gan/19-02-22_10-29/discriminator.pt (torch_old, 1835 bytes, 5 tensors)

layers.0.weight f4 [16, 1]
000000 32 89 67 be 20 a1 14 3e 93 11 05 3f 44 af 8c 3e
       -0.2261093 0.1451459 0.5197994 0.27477467
000010 45 53 0d bf f9 69 fd 3c 40 80 91 3e 00 85 c3 be
       -0.55205184 0.03093432 0.2841816 -0.38187408
000020 e2 21 0c bf 23 eb 0d bf 44 34 5f 3e 1d 80 89 be
       -0.547392 -0.55436915 0.21797282 -0.26855555
000030 33 6b 40 3e a8 24 48 be 4a 12 7b bf c0 63 39 be
       0.18790893 -0.19545233 -0.9807478 -0.18104458

layers.0.bias f4 [16]
000000 82 67 77 3f 36 54 4f bf 45 d2 8e bf 63 92 c4 bf
       0.96642315 -0.8098787 -1.1157919 -1.5357174
000010 6f 48 dc 3f 13 7e f1 be 43 82 cb bf 34 56 8b be
       1.7209605 -0.471665 -1.5899128 -0.27214205
000020 f0 da 48 bf a9 df dc 3f 43 ef 9b bf 3d f4 8c 3f
       -0.7845907 1.7255756 -1.2182392 1.1012036
000030 d3 4c 86 bf 78 f6 27 be 92 1c 59 bf f8 38 4f 3f
       -1.0492195 -0.16402614 -0.8480922 0.809463

layers.1.weight f4 [8, 16]
000000 53 46 d7 bf 74 68 85 40 ab 07 0c 3c 6d 43 d5 3f
       -1.6818336 4.1690006 0.00854675 1.6661202
000010 4d 1c 5f bf be aa 01 be df 7e 93 40 26 e9 6f 3e
       -0.8715256 -0.12662789 4.609237 0.23428783
000020 e2 bf 64 be b0 b1 4b bf 26 4f 9a 40 3d aa dd bf
       -0.22338822 -0.79568005 4.8221617 -1.7317578
000030 0d 7b 8e 40 34 47 d6 bd fc 28 9f 3d 6a 80 f3 bf
       4.452521 -0.104628 0.07771489 -1.9023564
000040 e3 07 d8 bf 54 dd 84 40 f1 62 05 3c 40 1c d5 3f
       -1.6877407 4.1520176 0.008141265 1.6649246
000050 16 a4 47 bf 52 75 32 bd 47 f8 94 40 00 02 67 bc
       -0.7798475 -0.043568917 4.6553073 -0.014099598
000060 80 67 95 3b c9 47 46 bf e1 ea 98 40 b0 ba d5 bf
       0.0045594573 -0.77453285 4.7786717 -1.6697598
000070 e7 e4 8d 40 4a e4 4e be ee ce 70 3e 79 5d f6 bf
       4.434192 -0.20204273 0.23516437 -1.9247276
000080 cb 1f f7 bf 5f d5 87 40 a6 52 03 3c c4 4e d8 3f
       -1.9306577 4.2447963 0.00801531 1.6899037
000090 cf 9f 56 bf b7 05 89 3d 98 57 9b 40 34 6e 66 be
       -0.838376 0.06690543 4.8544426 -0.22502977
0000a0 a6 d3 72 3e ee f0 1a bf ce 43 a2 40 31 9f f5 bf
       0.2371355 -0.6052388 5.070777 -1.9189206
0000b0 c9 40 93 40 80 fd 5d bc c0 c9 33 3c bb 68 f2 bf
       4.6016583 -0.013549209 0.010973394 -1.8938211
0000c0 b4 b5 ae bf 34 16 44 c0 2b 5e 16 3c e8 c4 85 bf
       -1.3649201 -3.0638552 0.009177725 -1.0450716
0000d0 07 ce 76 3f fe 5f 1e 3e ba 64 59 c0 34 bf 99 bd
       0.9640812 0.15466306 -3.3967729 -0.07507172
0000e0 18 62 27 bd 9d 95 86 3f e5 e2 69 c0 fb 4e ab bf
       -0.040865034 1.0514408 -3.6544735 -1.3383478
0000f0 86 01 4f c0 78 aa ec bd 68 83 d0 3d bc 77 6a bf
       -3.234468 -0.11555952 0.10181314 -0.9158895
000100 6b 61 db be b4 04 4d c0 46 7c 2c 38 a1 b4 8b bf
       -0.42847762 -3.203412 4.1123734e-05 -1.0914499
000110 bb d1 e5 3f 0e b3 bb bd 75 5b 62 c0 28 b5 7b bd
       1.795463 -0.09165011 -3.536832 -0.06145206
000120 02 f3 53 3e 40 1b e0 3f 6d 12 6a c0 2e b1 05 bf
       0.20698169 1.7508316 -3.6573746 -0.5222348
000130 22 9e 58 c0 b4 68 ad bd 26 81 58 3e 16 43 c2 be
       -3.3846517 -0.08467236 0.21143016 -0.37941808
000140 41 67 5c bf 1f a4 49 c0 9a 53 0f 3b 9d 92 89 bf
       -0.8609505 -3.1506422 0.0021869899 -1.0747868
000150 97 5d ba 3f 0f 22 63 3e 93 bc 60 c0 0c 7d da 3d
       1.4559811 0.22180961 -3.5115097 0.10668382
000160 30 0a c8 bc c7 5c ce 3f 83 ea 6e c0 41 1d 95 bf
       -0.02441892 1.6122063 -3.7330635 -1.1649553
000170 03 35 55 c0 00 81 6f 3b e8 66 f8 bd c7 8a e4 be
       -3.3313606 0.0036545396 -0.12129003 -0.4463713
000180 74 04 70 3e cb 72 35 c0 0a 53 6b 3e 23 9a bf bf
       0.23439199 -2.8351314 0.22980896 -1.4968914
000190 f9 a0 ba 3f ba c5 38 3e ae 2d 59 c0 5c 98 12 be
       1.4580375 0.18044177 -3.393413 -0.14315933
0001a0 6c 83 95 bd 5f d6 c3 3f 3e 88 63 c0 c6 69 50 3e
       -0.07300457 1.5299796 -3.5551906 0.2035285
0001b0 0b 68 47 c0 bc f3 b5 bd b0 df a1 bd 95 c4 79 3e
       -3.1157253 -0.08884379 -0.07903993 0.24391396
0001c0 ea b2 e6 be 86 37 4f c0 e7 11 06 39 e0 f7 8d bf
       -0.45058376 -3.237764 0.00012785905 -1.109127
0001d0 f9 c7 f0 3f ee c3 1e be fe 1a 66 c0 f2 92 39 be
       1.8811027 -0.15504429 -3.5953975 -0.18122461
0001e0 a4 c3 95 bd 37 a7 d0 3f c3 c5 6d c0 69 ec 1d bf
       -0.07312706 1.630103 -3.7151954 -0.6168886
0001f0 3d b4 5d c0 00 e0 c1 ba 80 f8 f1 bc 6c b6 d7 be
       -3.4641259 -0.0014791489 -0.02953744 -0.42131364

layers.1.bias f4 [8]
000000 dc f2 f6 bc 46 31 f0 bc 79 98 ea bc 5e 6d e2 3d
       -0.030145101 -0.02932037 -0.028637158 0.110560164
000010 08 f9 10 3e 12 15 02 3e 1a 06 f8 be 21 c0 1d 3e
       0.14157498 0.1270335 -0.48442155 0.15405323

output.weight f4 [1, 8]
000000 9c 71 be 40 06 34 c2 40 d8 5d b6 40 31 6d a4 bf
       5.9513683 6.0688505 5.6989555 -1.2845823
000010 43 14 88 bf 67 87 92 bf be 7c ac bf 9a 76 77 bf
       -1.0631183 -1.1447572 -1.3475568 -0.96665347
