vanilla_gan/19-02-22_10-29/generator.pt (torch_old, 2544 bytes, 7 tensors)

layers.0.weight f4 [8, 1]
00000000: f849 683f 2adf 983e f4fa bc3e 6876 55be
00000010: 7fb0 a53f d892 a1be c0a1 1cbd 481b 073e
0.9073787 0.2985776 0.36910212 -0.2084595 1.2944487 -0.31557345 -0.038240194 0.13194

layers.0.bias f4 [8]
00000000: 94e4 7abf 706a 603f 2249 7cbf 55dc 723f
00000010: 2ea1 01be a41f 7abf 909c 90bd dcee a6be
-0.9800503 0.8766241 -0.9854909 0.9486745 -0.12659141 -0.9770453 -0.07061112 -0.3260411

layers.1.weight f4 [16, 8]
00000000: 5a10 1b3e 52de 9abe a73c 8a3e 3d8d 1fbe
00000010: fa74 333e 10c0 c63c 35a1 a93e eae6 3a3e
00000020: 828f 5a3e 8d66 db3e 8a11 063e 1b80 a83e
00000030: 7034 373f 30f1 d7bc 2620 723e 84be aebd
00000040: 1880 6ebd b00f 373d c8c2 433d 40a7 45bd
00000050: 0026 af3c 3017 0dbd a160 18be f624 30be
00000060: 25d9 853e 0110 77be c26d 4e3e 8b8d 46be
00000070: b57e 02be 03b5 923e d05c 5abd c76c a83e
00000080: e6ae b4be 8e20 343e 8086 453b 088c aebe
00000090: ecc8 84be d64c 2d3e 411f a13e 4035 943b
000000a0: 2141 b03e 24c6 a23d daac 413e 4f10 debe
000000b0: a643 e8bc eedd 07be 0aff 283e 0556 16be
000000c0: 3857 ac3d 0b7c 773e a0e3 06be c558 a03e
000000d0: f75e 353f 23d8 08be 0ce1 92bd f0e7 ffbd
000000e0: b28b afbe 30df 75be 4ff2 a7be 6781 bc3d
000000f0: c8e0 adbe 3d7c 64be c299 84be 6ad4 2c3e
00000100: 6bf6 8d3e ddb0 90be 8889 d73d f485 57be
00000110: 41ab b7be 670a a9be a565 a63e cb69 3dbe
00000120: eeec 223e d30c aebe 7a15 303e 68b7 0e3d
00000130: 267c 4c3e 383a 063e 1011 f03c c0ab 91bc
00000140: e8d5 dabd e3c8 873e be02 433e 9da5 f13d
00000150: 5587 613f cf66 ac3e 7557 973e 7dde 953e
00000160: 1cd8 e23d e4b9 803d 5e3a 6f3e c3f1 8b3e
00000170: 1510 b73e 8c63 82bd 99ef 4cbe 1c9a fbbd
00000180: 20c1 1fbd 2545 053f 28bc 31be 9866 4d3e
00000190: 86fa ce3e 149c 9a3d 8405 26be 00fd 063b
000001a0: f9ed b0be 5bd5 713e b6a6 343e 6728 783d
000001b0: 36fc 353f 4a7d 793e fdfc ab3e 1459 7ebe
000001c0: 2a96 6a3e cc6a 393e 4d1b 973e 6931 cabc
000001d0: d267 003e a024 6bbd a807 a2be a29c 523e
000001e0: be7d fbbd 9dd2 b5bc 6a64 25be 10f2 c63d
000001f0: f833 94bd 74a7 acbd be67 e0bd 1a89 063e
0.15142956 -0.30247742 0.269994 -0.15581222 0.17525092 0.024261504 0.33130804 0.18252149
0.21343806 0.42851678 0.13092628 0.32910237 0.7156439 -0.026360124 0.23645076 -0.08532432
-0.05822763 0.044692695 0.04779318 -0.048255205 0.021380424 -0.03444594 -0.14880611 -0.172016
0.2614223 -0.24127199 0.20159057 -0.19389932 -0.12743647 0.28653726 -0.05331117 0.3289549
-0.35289687 0.17590544 0.0030139983 -0.3409121 -0.2593454 0.16923842 0.31469157 0.0045229495
0.3442469 0.079479486 0.18913594 -0.43371817 -0.02835257 -0.13268253 0.1650354 -0.14681251
0.08415073 0.24168412 -0.1317277 0.31317726 0.7084803 -0.133637 -0.071718305 -0.124954104
-0.34286267 -0.2401092 -0.32802054 0.09204369 -0.33960557 -0.22313018 -0.25898558 0.16877905
0.27727064 -0.28259936 0.10524279 -0.21047193 -0.35872844 -0.3301575 0.32499424 -0.18497388
0.15910694 -0.3399416 0.17195693 0.03484288 0.19969234 0.13108146 0.029305011 -0.017782092
-0.10685331 0.26520452 0.19044015 0.11799166 0.88097125 0.33672187 0.29558912 0.29271308
0.11076376 0.06285456 0.23362109 0.27332887 0.35754457 -0.06366643 -0.20013274 -0.122852534
-0.039002538 0.5205863 -0.17356932 0.20058668 0.4042551 0.07549301 -0.16213042 0.0020597577
-0.3455656 0.23616545 0.1764172 0.060585406 0.7108797 0.243642 0.33591452 -0.24838668
0.22908846 0.18107146 0.29513016 -0.024681764 0.12539604 -0.057407975 -0.31646466 0.20567563
-0.12279843 -0.022195155 -0.16151586 0.097141385 -0.07236475 -0.08430377 -0.10957287 0.13138238

layers.1.bias f4 [16]
00000000: 426a 6fbe 6097 d43e 9cf9 cbbd fc8c cd3d
00000010: 427a 45be 813a 1f3e 7897 a63e 8be8 a93d
00000020: 2dee 8e3e 2b2f 96be 467d 873e 455d b73e
00000030: 8158 863e 635a 763e 6826 b1be 62a4 9fbd
-0.23380378 0.4152174 -0.099597186 0.10036656 -0.19284919 0.15549661 0.32537436 0.08296307
0.2791609 -0.2933286 0.26462764 0.35813347 0.26239398 0.24057917 -0.34599614 -0.077950254

layers.2.weight f4 [8, 16]
00000000: ccc2 543e a00a 67bd b69f 16be d05d b03d
00000010: 289c 28be c8a9 74be 8011 2cbb 10ec 0fbd
00000020: 7257 0d3e a001 abbc bca4 903d 2609 013e
00000030: f0ad a03c d0a4 4fbe 00e0 4cb8 c08e ee3c
00000040: 2694 143e faf3 0e3d 54ea 363e d4a5 493e
00000050: f49e 9abd c522 853d 3cb8 45be edd9 1cbe
00000060: a050 5a3d 3c17 963d 7424 82bd 93b9 063e
00000070: 0520 86be 0469 8fbe 0bd6 edbc 0853 7e3d
00000080: 807b a63b d034 103f b87d c5bd 144a d43d
00000090: 006b fc3d 982c b5bd 046b ca3e 597d fa3d
000000a0: 2d91 89bd e4fe a5bd 50bb 2b3f 6cf9 4b3e
000000b0: 1c4c de3e ccbb 8e3e 942d 09be 06a0 a7bd
000000c0: ac8f bcbd b04d f7bd 5816 74be b6e1 463e
000000d0: 50cd 17bd 9cc1 cdbd 804e c5bb 82a2 493e
000000e0: 46f0 7abe ee87 39be 3ec1 7bbe ecd5 433e
000000f0: 0839 603d 408a dd3b 8cad 2b3e aadf 3c3e
00000100: 1e4b 033e c0fc 4dbd ee66 323e 4cb9 803d
00000110: 806e 453e 18b9 fcbd 3a3a 2abe 806c e0bc
00000120: 4aa2 7ebe 5e20 3bbe d4f9 173e 7cae eb3d
00000130: 8098 0e3d c030 c63b 2818 573d 68a4 0dbe
00000140: 52ab 10be 242e c3bc d609 06be 008f 38bb
00000150: b818 043d f671 5cbe 7af4 74bd 0b8a 583e
00000160: 9f00 eabd 80ac ba3c b26d 88be fd23 89be
00000170: 6ad0 7abe b022 36be 8aa3 b23d 3058 5a3d
00000180: 6035 123e aae9 e23e 520a 3ebe 648e c23d
00000190: 409e a8bb c57b 78bd 14eb f23e e69f e0bd
000001a0: b622 13bd 6a2a 313e 6950 713e f7bf 0f3f
000001b0: 2a53 263e 7ba0 2a3f 4db9 c5bb e3bb 58be
000001c0: f05f a93d 779a f7bc 0c5b b7bd fe3b 4b3e
000001d0: d61e 113e 26c2 13be a6ea 293d 7479 4d3e
000001e0: 17b4 fe3d 443f 323e a42a d2bd 4da1 f23c
000001f0: 6f5b 4dbe 8d16 1cbd 328b 713e 801f 8ebb
0.20777434 -0.056406617 -0.14709362 0.08611643 -0.16465819 -0.23892891 -0.0026255548 -0.035137236
0.13802889 -0.020874798 0.070626706 0.12601146 0.01961419 -0.20277715 -4.8846006e-05 0.029120803
0.14509639 0.034900643 0.17862827 0.19692165 -0.07549849 0.065007724 -0.19308561 -0.15317507
0.053299546 0.0732865 -0.06354609 0.13156728 -0.26196304 -0.28009808 -0.029032728 0.062090904
0.0050806403 0.56330585 -0.096431196 0.10365692 0.12325096 -0.08846396 0.3953477 0.122309394
-0.06717143 -0.08105257 0.6708269 0.19919366 0.43417442 0.27877653 -0.13396293 -0.08184819
-0.09207091 -0.120753646 -0.23836648 0.1942204 -0.037061036 -0.10046694 -0.006021321 0.19690898
-0.2450572 -0.1811826 -0.24585435 0.19124573 0.05474189 0.0067608654 0.16765422 0.18444696
0.12821624 -0.05028987 0.17422077 0.062853426 0.19280434 -0.12339991 -0.16623774 -0.027395487
-0.24866596 -0.18274066 0.14841396 0.1150789 0.034813404 0.006048292 0.05251327 -0.13832247
-0.14127854 -0.023825713 -0.1308969 -0.0028161407 0.032250136 -0.21527848 -0.059803464 0.21146409
-0.114259 0.022787333 -0.2664619 -0.2678527 -0.24493566 -0.1778667 0.08722599 0.05330676
0.14278173 0.44318897 -0.18558624 0.09499815 -0.005145818 -0.06066491 0.47444975 -0.10967998
-0.035921775 0.17301336 0.2356583 0.5615229 0.16242662 0.66651124 -0.0060340525 -0.21165423
0.08270252 -0.030225022 -0.08952913 0.19847104 0.14171919 -0.1442953 0.041483544 0.20065862
0.12436693 0.17406946 -0.10262039 0.02961793 -0.2005441 -0.038107444 0.23588255 -0.004337251

layers.2.bias f4 [8]
00000000: 80aa 773b 1678 013e 6bd5 493e a24d 0cbe
00000010: 6898 8dbd 5874 453e 2b16 8f3e 166d ef3d
0.0037790835 0.12643465 0.19710319 -0.1370149 -0.06913835 0.19282663 0.279466 0.11690728

output.weight f4 [1, 8]
00000000: ded4 38be cb22 8fbe 024e 2b3f fc1a a33d
00000010: f011 2cbd 755f 9ebe af32 1a3f 4ad4 ccbb
-0.18049952 -0.27956232 0.66915905 0.07964131 -0.042009294 -0.30932203 0.6023359 -0.0062508928
