vanilla_gan/19-02-22_09-58/discriminator.pt (torch_old, 1451 bytes, 5 tensors)

layers.0.weight f4 [10, 1]
000000 16 76 38 bf 84 51 b6 3e 0c 90 d4 be 8c 16 c4 3e
       -0.72055185 0.35609066 -0.4151615 0.38298452
000010 25 83 5b 3f 1a 1b b6 3e b6 58 54 bf 18 09 cb 3e
       0.85746986 0.35567552 -0.8294786 0.39655375
000020 0b fc d9 3e 24 e5 48 bf
       0.42575106 -0.7847464

layers.0.bias f4 [10]
000000 f1 9f 97 3f 80 b2 86 bf ea b9 36 3f df a8 89 bf
       1.1845685 -1.0523224 0.7137743 -1.075466
000010 50 08 b3 bf 59 a1 81 bf 74 1f 78 bf cd d3 93 bf
       -1.3986912 -1.0127364 -0.96922994 -1.1549011
000020 df 36 a4 bf 11 00 9e 3f
       -1.2829245 1.234377

layers.1.weight f4 [5, 10]
000000 e3 b3 8c be 2c 89 5b 40 ad b0 33 bf fe 34 56 40
       -0.27480993 3.4302473 -0.7019146 3.3469844
000010 8b ca aa 3c 8c 60 0a 40 25 3f 9e be 86 c9 c2 3f
       0.020848533 2.1621428 -0.3090755 1.521775
000020 90 b5 48 40 4a c9 00 bf 5f 5e 9b be 26 b7 4d 40
       3.1360817 -0.5030714 -0.30345437 3.2143035
000030 78 6e 2e bf 47 88 5a 40 f9 7d 8d 3c f7 be 0a 40
       -0.6813731 3.4145677 0.017271983 2.1679056
000040 25 ea 82 be 7d 7d bf 3f ce a1 44 40 af e9 e6 be
       -0.25569263 1.4960171 3.0723758 -0.4510016
000050 4d 86 df be 41 4e 39 40 7c 4e 46 bf df a6 20 40
       -0.4365715 2.8954012 -0.7746351 2.510185
000060 f6 c9 81 3e 18 2d 9b 3f f7 7c 85 be e8 c6 59 3f
       0.25349396 1.2123137 -0.26071903 0.8506913
000070 6f ef 23 40 ba 00 16 bf 12 9e 43 bf 9e 0c 50 c0
       2.5614889 -0.5859486 -0.7641307 -3.25077
000080 8b 45 81 bf 0c d9 51 c0 e9 a2 1b 3e 46 a9 ca bf
       -1.0099348 -3.2788725 0.15198864 -1.5832908
000090 e6 e9 ac bd ef d6 75 bf b7 b7 36 c0 c6 3c 5e bf
       -0.0844305 -0.9603109 -2.854963 -0.8681148
0000a0 c3 4e f2 be 11 f0 53 40 aa 6a 7d bf 47 50 69 40
       -0.47325715 3.3115275 -0.9899088 3.6455247
0000b0 33 a3 9f 3c 1d ac 0c 40 88 93 ee 3d c4 63 ca 3f
       0.019487 2.198005 0.11649233 1.5811696
0000c0 6a ea 5e 40 b0 f8 57 bf
       3.4830575 -0.8436384

layers.1.bias f4 [5]
000000 0b f5 22 bd 7d 81 0b bd cc fb 08 bf 5a 9c d0 3d
       -0.039784472 -0.034059037 -0.5350921 0.10186072
000010 2d 2c 1a bd
       -0.037639786

output.weight f4 [1, 5]
000000 14 ed 94 40 28 a7 96 40 d6 a3 92 40 89 c0 a7 bf
       4.65394 4.707905 4.5824995 -1.3105632
000010 bb b4 8c 40
       4.397062
