vanilla_gan/19-02-22_09-58/generator.pt (torch_old, 2544 bytes, 7 tensors)

layers.0.weight f4 [8, 1]
0	0x3d49cfa0	0.049270272
1	0x3f7a516a	0.9778048
2	0x3ed92ef9	0.4241865
3	0xbe311aa8	-0.17295325
4	0x3fb7f58e	1.4371812
5	0xbf5b9674	-0.8577645
6	0x3ea0a708	0.31377435
7	0xbea14b3c	-0.31502712

layers.0.bias f4 [8]
0	0xbee10644	-0.43950093
1	0x3f2d2c64	0.6764586
2	0x3e95525d	0.291644
3	0xbeece3b0	-0.46267462
4	0x3ee817db	0.453307
5	0x3f6165e3	0.8804609
6	0xbefa2314	-0.48854887
7	0x3f819eb9	1.0126563

layers.1.weight f4 [16, 8]
0	0xbea790c7	-0.32727644
1	0xbed64eef	-0.41857097
2	0x3e359bd3	0.17735223
3	0x3ea88fe3	0.32922277
4	0x3dcbdf67	0.0995472
5	0x3f42f836	0.7615999
6	0x3e52dce2	0.20592073
7	0x3f166901	0.58753973
8	0xbdc10d6c	-0.09426388
9	0x3e58dc7a	0.21177855
10	0x3e2fbc3a	0.17161646
11	0xbea686a3	-0.32524595
12	0xbe8ca771	-0.27471498
13	0x3e905627	0.2819073
14	0xbdb40850	-0.08790648
15	0xbe802b3e	-0.2503299
16	0x3e23377a	0.15939131
17	0x3e4d40ae	0.20044205
18	0x3e54f248	0.20795548
19	0x3e1f8d9e	0.15581366
20	0xbed697a3	-0.41912565
21	0x3f59ec1f	0.8512592
22	0xbd48e218	-0.049043745
23	0x3e8c8a7c	0.27449405
24	0xbe9e748d	-0.30948296
25	0xbe8ce177	-0.27515766
26	0x3e7d6557	0.2474569
27	0x3da4ce24	0.08047131
28	0x3daa1e94	0.083066136
29	0xbe6ee9dd	-0.233314
30	0xbba3c080	-0.004997313
31	0x3deed297	0.116612606
32	0xbe9730af	-0.2952933
33	0xbe87099e	-0.26374525
34	0x3e9b9b09	0.3039172
35	0x3e55b3d6	0.20869383
36	0x3d9fc44c	0.078011125
37	0x3e6bbfaa	0.23022333
38	0x3e8de3c9	0.2771285
39	0xbeb3d297	-0.35121605
40	0xbe9e28e4	-0.30890572
41	0x3e9d4c2e	0.30722183
42	0x3e613ba7	0.21995412
43	0x3da7402c	0.08166537
44	0x3ecb146b	0.39664015
45	0xbebc57ef	-0.36785838
46	0xbe9c25ab	-0.30497488
47	0x3eb1116b	0.345836
48	0xbcb49660	-0.02204436
49	0xbda3cb80	-0.07997799
50	0xbdaab49e	-0.08335231
51	0xbd581230	-0.05275172
52	0x3da8d9f0	0.08244693
53	0xbe4faaba	-0.20279971
54	0xbd3b5200	-0.0457325
55	0x3ea56897	0.32306358
56	0x3d2acd98	0.041699976
57	0x3e6aae46	0.22918043
58	0xbd738e10	-0.059461653
59	0xbc34d2c0	-0.011036575
60	0xbd7ff140	-0.062485933
61	0xbe9bd2b9	-0.30434206
62	0xbe6ae94c	-0.22940558
63	0xbe4421d1	-0.19153525
64	0xbbcf5fc0	-0.006328553
65	0xbea17f6b	-0.31542525
66	0x3db0ac30	0.08626592
67	0x3e1d854a	0.15382877
68	0x3e211c2a	0.157334
69	0xbeb11658	-0.3458736
70	0xbe48cf2c	-0.1961028
71	0x3e662cfe	0.224781
72	0xbeab0aa2	-0.3340655
73	0xbd4b4680	-0.04962778
74	0x3e4d2a4a	0.20035663
75	0xbe7d7086	-0.24749956
76	0xbe872967	-0.26398775
77	0x3e02ed88	0.12785923
78	0xbe9332d9	-0.2874973
79	0xbe09b32c	-0.13447255
80	0x3ce3eb60	0.027822196
81	0xbe6fd22b	-0.23420016
82	0xbdfa3371	-0.12216843
83	0xbe0564e5	-0.1302677
84	0xbd6806c5	-0.05664708
85	0x3d861c4a	0.065483645
86	0xbe236f77	-0.15960489
87	0x3e163ba5	0.1467119
88	0x3c72a800	0.014810562
89	0x3ed386fe	0.41313928
90	0x3ecaa727	0.39580652
91	0x3e8e97e1	0.2785025
92	0x3e4a68bb	0.19766514
93	0xbe672b64	-0.22575146
94	0xbdba2b7c	-0.09090325
95	0x3e875bf6	0.26437348
96	0x3e96594f	0.29365012
97	0x3eff8fa3	0.49914274
98	0x3ecd5e11	0.4011083
99	0x3e7e4f1e	0.24834868
100	0x3e1acda4	0.15117508
101	0xbf40e93a	-0.75355875
102	0xbdc922a0	-0.09821057
103	0xbeeed35f	-0.46645638
104	0x3ea1bf41	0.31591228
105	0x3eaa50e3	0.33264837
106	0x3eaf3c08	0.34225488
107	0x3e17187e	0.14755437
108	0x3e6bed06	0.23039636
109	0xbe1d949f	-0.15388726
110	0x3bae5940	0.005320698
111	0xbe764530	-0.2404983
112	0x3e4d9b3e	0.20078751
113	0xbea612f5	-0.32436338
114	0xbd826d2d	-0.0636848
115	0x3c92b3b0	0.017907947
116	0xbe947454	-0.28995
117	0x3dd5695a	0.10420485
118	0x3e753986	0.23947725
119	0x3e876b09	0.2644885
120	0xbe7cd518	-0.24690664
121	0xbd509808	-0.05092624
122	0x3e44dcc6	0.19224843
123	0xbe1141c9	-0.14185251
124	0xbe56316c	-0.2091729
125	0xbe5b162c	-0.21395177
126	0xbe128bc0	-0.14311123
127	0xbcce4a40	-0.02518189

layers.1.bias f4 [16]
0	0x3bf8542d	0.007578394
1	0xbdeabf7a	-0.114623025
2	0x3e1f8977	0.15579782
3	0x3d0d08c8	0.034432203
4	0xbd45f390	-0.048327982
5	0x3d32ff5c	0.04370056
6	0xbe5d5d77	-0.21617685
7	0xbe9a18a7	-0.30096933
8	0xbe44b3ca	-0.19209209
9	0xbe35a1b8	-0.17737472
10	0x3d2f4d31	0.042798225
11	0xbdb8df1a	-0.09026928
12	0xbd9516a3	-0.07279708
13	0x3e35cf54	0.1775487
14	0x3d86b712	0.06577887
15	0x3d3917d0	0.045188725

layers.2.weight f4 [8, 16]
0	0xbe2838c6	-0.16427907
1	0x3e095804	0.13412482
2	0xbda8f23c	-0.082493275
3	0xbd8bb5e4	-0.06821802
4	0xbcc92750	-0.024554878
5	0xbbab3c00	-0.0052256584
6	0xbde65abc	-0.11247775
7	0xbe6ea482	-0.23304942
8	0xbe5b4c1a	-0.21415749
9	0x3e50cfcc	0.20391768
10	0xbd22d780	-0.039756298
11	0xbe1fb654	-0.15596896
12	0xbe589eea	-0.21154371
13	0x3df015c4	0.117229015
14	0x3e310224	0.17285973
15	0x3e32e6e6	0.17470893
16	0x3d59a238	0.05313322
17	0xbdad15dc	-0.08451435
18	0xbe054d58	-0.13017786
19	0x3ddf6730	0.10908353
20	0x3e1d2820	0.15347338
21	0xbe3eddb0	-0.18639255
22	0x3da56a70	0.08076942
23	0x3db28d90	0.08718407
24	0x3e6e2ab0	0.23258471
25	0x3bb62e80	0.0055597425
26	0x3d0606b0	0.03272122
27	0x3e79414e	0.24341318
28	0xbdaec700	-0.0853405
29	0xbe748fb4	-0.23882943
30	0x3e006952	0.12540177
31	0xbe389406	-0.18025216
32	0xbf3c4ee9	-0.7355791
33	0xbe113b40	-0.14182758
34	0xbf1d9471	-0.6155463
35	0xbdadef95	-0.08492962
36	0xbe72e5f2	-0.2372053
37	0x3ed09c6b	0.40744337
38	0xbc7c0690	-0.015382424
39	0xbe01a9de	-0.12662455
40	0x3d6a1548	0.0571492
41	0x3e52d13e	0.20587632
42	0xbdf6c7e4	-0.12049845
43	0x3ee196d2	0.4406038
44	0x3ec7749f	0.38956162
45	0x3e0e30b5	0.13885768
46	0xbd7d2311	-0.06180102
47	0x3dbac50c	0.09119615
48	0x3e431a88	0.1905309
49	0x3e2d7aa4	0.16941315
50	0x3cd5ef22	0.026115004
51	0x3e741986	0.23837861
52	0x3d0d5248	0.034502298
53	0xbd49b2a9	-0.04924265
54	0xbddd9174	-0.108187586
55	0x3e3d967c	0.18514436
56	0xbd16b550	-0.036794007
57	0xbe46fec8	-0.19433129
58	0x3e4b8376	0.19874367
59	0x3d5ce075	0.053924996
60	0xbd642b00	-0.05570507
61	0xbe1d9ff0	-0.15393043
62	0xbe11b2c2	-0.14228347
63	0x3e4879ce	0.19577715
64	0xbf0bba1f	-0.54580873
65	0x3d211350	0.03932506
66	0xbef3c160	-0.4760847
67	0xbe5138c5	-0.20431812
68	0x3e655666	0.2239624
69	0x3ee0b729	0.4388974
70	0x3ab1d545	0.0013567588
71	0xbe17c00a	-0.14819351
72	0xbe35caaa	-0.17753091
73	0x3db373d8	0.0876233
74	0xbd8d295b	-0.068926536
75	0x3e338cce	0.17534181
76	0x3f0750b0	0.52857494
77	0x3eabc3d3	0.3354784
78	0x3e7a547c	0.2444629
79	0x3e7a1a84	0.24424177
80	0xbf410ac8	-0.75407076
81	0x3dc5c5a4	0.096568376
82	0xbf2161f0	-0.63040066
83	0x3c987e8b	0.018615028
84	0xbe2385b4	-0.15968972
85	0x3e8a3d90	0.27000093
86	0xbdfcb930	-0.12340009
87	0x3de9a3f8	0.11408228
88	0x3e6aa4f0	0.22914481
89	0x3de0f6b8	0.10984558
90	0x3e217789	0.15768255
91	0x3e1ac866	0.15115508
92	0x3f098edf	0.5373363
93	0x3edec016	0.43505925
94	0xbe2df909	-0.1698953
95	0xbe19ef68	-0.15032732
96	0xbd613490	-0.054981768
97	0xbe37f422	-0.17964223
98	0xbdcfd1f0	-0.10147464
99	0xbe3e3698	-0.18575513
100	0xbe45ea0e	-0.19327566
101	0x3e70ea5e	0.23526904
102	0x3d993480	0.07480717
103	0x3e6989a6	0.22806415
104	0xbd9305d0	-0.07178843
105	0xbd8025f4	-0.06257239
106	0xbe4bb3da	-0.19892827
107	0xbe76f7b8	-0.24117935
108	0xbe7b45a0	-0.24538279
109	0xbe627d40	-0.22118092
110	0xbde97b70	-0.11400497
111	0xbde66060	-0.11248851
112	0x3e4026c4	0.18764788
113	0x3e7736e4	0.24142033
114	0xbdbe0505	-0.09278301
115	0x3db880f4	0.09008971
116	0x3b5be280	0.0033551753
117	0x3d4c521c	0.049882993
118	0x3d5a2668	0.053259283
119	0xbddef6e8	-0.108869374
120	0xbdf43c2c	-0.119255394
121	0x3d8817b0	0.06645143
122	0x3dd9e378	0.10639089
123	0x3e4c2c1f	0.19938706
124	0xbe3219e6	-0.17392692
125	0xbe2a91a4	-0.1665712
126	0x3cc35ca0	0.023847878
127	0x3d05b758	0.032645553

layers.2.bias f4 [8]
0	0xbe1b4cde	-0.15166041
1	0xbc801640	-0.01563561
2	0x3e14df26	0.1453825
3	0xbde22e99	-0.11044044
4	0x3ddfd56f	0.10929381
5	0x3e3f63e0	0.18690443
6	0xbe4710da	-0.19440022
7	0xbe301ddb	-0.17198889

output.weight f4 [1, 8]
0	0x3c8c25b0	0.017107815
1	0xbe0e1831	-0.13876416
2	0x3f2814bd	0.65656644
3	0x3e74dbdd	0.23911996
4	0x3ea1b7f1	0.3158565
5	0x3f027b1b	0.50969094
6	0xbe5dfef2	-0.21679285
7	0xbea35259	-0.31898764
