vanilla_gan/19-02-22_10-10/discriminator.pt (torch_old, 1451 bytes, 5 tensors)

layers.0.weight f4 [10, 1]
00000000: fc00 b9be 3af5 993e bcc5 df3e d37c e9be
00000010: 92bb ab3e 8a10 cabe e1f0 03bf 0246 7dbf
00000020: e90a 713e 0861 7bbe
-0.36133564 0.30069906 0.43705547 -0.45603046 0.33541542 -0.39465743 -0.5153943 -0.9893495
0.23539318 -0.24548733

layers.0.bias f4 [10]
00000000: da54 7abf ac85 b2bf a9c1 c6bf f16e ae3f
00000010: a4dd 7bbf 41dd 963f 9ed4 c53f 10c4 a3bd
00000020: 7f30 8bbf 808c 3e3c
-0.97785723 -1.3947043 -1.552785 1.3627607 -0.9838507 1.1786271 1.5455511 -0.0799638
-1.0874175 0.0116301775

layers.1.weight f4 [5, 10]
00000000: f958 90be e102 ad40 2c5b 1b3f 41c5 47bf
00000010: ee13 413c cb96 8ebe 6b32 68bf 900d 873c
00000020: 29e5 9d3f 6f93 99be 0265 c0bd 1b5a 7dbf
00000030: c3f0 98be b97d 323f 26f5 4fbf 3d2d 2d3f
00000040: baff 763f c19c 86be eecf 3abf b665 4e3e
00000050: 5634 503e 1219 18c0 0c30 0f3d 6079 0040
00000060: e519 883c aed2 b13f 5749 1340 80c9 04bd
00000070: 6ba8 99bf 7b3a 92be cf1a 2fbe caa3 46c0
00000080: cae4 393d 9d16 fb3f a4bd b33c 20fd c33f
00000090: 6b0f f33f ff37 8d3e 8355 b1bf 7c0d 67be
000000a0: 45e3 843e ba9d 28c0 d344 0e3d da52 fc3f
000000b0: 7b11 913c f0b1 ec3f 9148 0440 fe04 393e
000000c0: 40a1 a2bf 2603 90be
-0.2819288 5.4066014 0.6068599 -0.7803536 0.011784537 -0.2784942 -0.9070193 0.01648596
1.2335559 -0.29995295 -0.09394266 -0.98965615 -0.29871187 0.6972309 -0.8123344 0.67647153
0.9648396 -0.2629147 -0.72973526 0.20155987 0.20332465 -2.3765302 0.03495793 2.0074081
0.01661391 1.3892419 2.3013513 -0.032418728 -1.2004522 -0.28560242 -0.1710007 -3.103747
0.045384206 1.9616276 0.021941014 1.5311623 1.898908 0.27581784 -1.3854221 -0.22563738
0.25954643 -2.6346269 0.034733605 1.9712784 0.01770853 1.8491802 2.066929 0.1806831
-1.270546 -0.28127402

layers.1.bias f4 [5]
00000000: 59bd 0fbf 9cfd 283d b45f 033d 7e2b 413d
00000010: 95df 1d3d
-0.56148297 0.041257486 0.03207369 0.047160618 0.038543303

output.weight f4 [1, 5]
00000000: 26eb d140 0de9 39bf eaaa f6bf 2edf a9bf
00000010: 2f34 d6bf
6.5599546 -0.7262123 -1.9270909 -1.3271234 -1.6734675
