vanilla_gan/19-02-22_10-10/generator.pt (torch_old, 2544 bytes, 7 tensors)

layers.0.weight f4 [8, 1]
000000 8c bd 96 be 03 78 43 be ef 13 48 3f de c1 92 3f
       -0.29441488 -0.1908875 0.78155416 1.1465414
000010 7a 41 15 3f 1b 9d f6 3e 59 75 2e 3f b0 17 72 3e
       0.58303034 0.48166737 0.6814781 0.23641849

layers.0.bias f4 [8]
000000 6a 33 48 bf 19 37 0a 3f dc 05 86 3e 1f 34 85 3f
       -0.7820345 0.5399032 0.26176345 1.0406531
000010 44 9f 87 3f 75 b9 2c 3e 07 62 9e be c0 88 56 bf
       1.0595479 0.16867621 -0.30934164 -0.83802414

layers.1.weight f4 [16, 8]
000000 40 e3 6a 3d 7b 6d 86 3e 76 94 ed bd 4f 92 a0 be
       0.05734563 0.26255402 -0.11600582 -0.31361625
000010 75 b6 93 be 94 a8 f8 bd 8e c5 de bd 6c 76 4b be
       -0.2885014 -0.12141529 -0.10877524 -0.19869393
000020 54 66 b0 bd 12 f6 35 3e b6 a7 46 3e 52 e1 8e be
       -0.086132675 0.1776965 0.19399914 -0.2790628
000030 75 b5 55 be 1b a2 8f be 1e 79 73 be 60 23 0e bc
       -0.20870002 -0.28053364 -0.23776671 -0.008675426
000040 fa a1 3b 3e 24 00 8c bd 56 a5 85 be 0a f1 cb 3e
       0.18323508 -0.06835964 -0.26102704 0.39832336
000050 c5 24 32 3e 9e be 2c be 21 a1 24 3e 80 83 c5 bd
       0.17396839 -0.1686959 0.16077091 -0.09644222
000060 f8 8d d8 3d 27 0c 5d be d0 35 78 bd a0 93 4d be
       0.105739534 -0.21586667 -0.060598195 -0.20075846
000070 58 79 6b 3d b4 18 f3 3d f0 5f 30 bd 8c 31 93 3d
       0.05748877 0.11869946 -0.043060243 0.07187185
000080 47 fe 84 3e 1f 47 14 3c 74 28 98 be a6 ff 67 be
       0.25975248 0.00905016 -0.29718363 -0.22656116
000090 34 d0 13 3e 72 23 33 3e a3 ba aa 3e 28 dc 4b 3d
       0.14434892 0.1749399 0.33345518 0.049770504
0000a0 00 88 35 bb 6d 9c 87 3e 2b 65 a3 3e 65 b7 a5 be
       -0.002769947 0.2648653 0.31913123 -0.3236648
0000b0 95 fa 22 be 30 72 c8 bd ae d2 52 3e b0 b6 44 be
       -0.15915902 -0.097874045 0.2058818 -0.19210315
0000c0 5f e0 90 3e 34 f2 9f bd 18 25 13 3d 93 0b a6 be
       0.28296182 -0.078098685 0.035924047 -0.32430705
0000d0 0e 55 ef bd 5b 1f 74 be df 18 b2 3e 0a 8d dc bd
       -0.11686145 -0.23840086 0.347846 -0.107690886
0000e0 d0 31 c8 3d 25 04 1f 3f 18 e5 df 3d eb 57 05 3f
       0.09775126 0.621157 0.10932368 0.5208728
0000f0 31 f9 d7 3d 02 81 80 3d b7 af 31 3e f8 57 13 be
       0.10545576 0.06274606 0.17352186 -0.14389026
000100 d5 86 14 be eb a3 89 3e ce e3 88 be b6 d3 a9 3e
       -0.1450456 0.26882872 -0.267363 0.33169335
000110 3f 76 ba 3e 87 f6 99 3e 00 6d a7 3e 04 58 82 bd
       0.3641834 0.30070898 0.32700348 -0.06364444
000120 30 fc 28 3d 67 a3 d8 bb f7 2e 2e 3e 82 92 d9 3e
       0.04125613 -0.006611276 0.17010103 0.4249459
000130 87 28 c2 3d ee c2 ce 3d c4 2f c7 3e 2b 62 99 be
       0.09480386 0.10095774 0.3890363 -0.2995771
000140 d4 02 07 be 6e 1a 1f 3e b7 0a a1 bd d6 4d 76 3e
       -0.13184673 0.15537426 -0.07863372 0.2405313
000150 fe 14 d2 3e 9d d3 a6 3e f6 89 99 3e 48 62 aa bd
       0.4103164 0.32583323 0.29988068 -0.08319527
000160 20 c3 ea bd 66 fa 15 3f ae 22 db 3e 19 26 8f 3d
       -0.114629984 0.585852 0.42799896 0.069896884
000170 ce f2 15 3f ee cf ff 3e b0 3a 9b 3e a9 7d 9b 3e
       0.58573616 0.49963325 0.30318213 0.3036931
000180 c0 cf 91 bc 7a dc 04 3f 3a a9 94 3e ed f5 05 3f
       -0.017799258 0.5189892 0.2903536 0.5232838
000190 3f ca e5 3e a0 b0 e0 3e 0e 6b 2e 3f c6 53 32 3e
       0.44880864 0.43884754 0.681321 0.1741477
0001a0 c8 bb 61 bd f8 1c 14 3d 3c b0 99 be 56 11 69 be
       -0.055110723 0.03616044 -0.3001727 -0.2276052
0001b0 20 b2 fb 3c ae 2a 69 3e ae 94 a4 be d1 a4 aa 3e
       0.030724585 0.22770187 -0.32144684 0.3332887
0001c0 03 c0 05 be e9 9c 87 be 78 aa ff 3d fe 29 94 be
       -0.13061528 -0.264869 0.12483686 -0.28938287
0001d0 08 ef a3 3d 58 31 50 be 11 77 2f be 91 85 9e 3e
       0.08004576 -0.20331323 -0.17135264 0.30961278
0001e0 5f 22 a7 3e 30 d1 90 3c 1b fd 87 3e fe cf 58 be
       0.3264341 0.017677873 0.26560292 -0.21173093
0001f0 70 32 dd 3c 70 32 36 bd 64 64 a2 be 00 c6 be 3c
       0.02700159 -0.044481695 -0.31717217 0.023287773

layers.1.bias f4 [16]
000000 e2 27 86 be 94 d9 f5 3d 51 bc b4 3e 78 6f 89 bd
       -0.26202303 0.1200439 0.35299924 -0.06710714
000010 49 4b bf 3d e0 35 97 bc c2 6c 2a 3e e4 87 15 3f
       0.093405314 -0.018458307 0.1664305 0.5841048
000020 00 f2 01 3e 09 6d 88 3e 51 15 b7 3e ce 85 58 3e
       0.12689972 0.26645687 0.3575845 0.21144792
000030 55 43 9e bd 88 f5 7c bd b0 83 cb 3c 53 30 31 be
       -0.07727686 -0.061757594 0.024843067 -0.1730359

layers.2.weight f4 [8, 16]
000000 3c 95 ee bd 5c 41 c1 3d 8a fa cd 3e 08 40 d9 bd
       -0.11649558 0.094362944 0.4023021 -0.10607916
000010 11 0b fc 3d 78 3f 16 3e 5c 12 a7 bd 24 90 92 3e
       0.12306798 0.14672649 -0.08157799 0.28625596
000020 4e 57 c0 3e 38 ca 97 3e fb e4 9d 3e 23 56 5e 3e
       0.37566608 0.29646468 0.3083876 0.21712546
000030 4f 6f ea 3e 10 e4 83 bc 08 66 06 3d 2e 7b 4e be
       0.45788047 -0.01609996 0.03281215 -0.20164177
000040 f6 cf 01 3e 00 8e 64 bd 8e 6d 99 3d ac 9d 01 3e
       0.12676987 -0.055799484 0.07491599 0.12657803
000050 2c da 5a be b8 d7 4a be 98 a0 b8 3d fc d4 ee 3e
       -0.21372288 -0.19808853 0.09015006 0.4664687
000060 3a 1e 4f 3e 79 4b f6 3e 82 e7 27 3e 8e cf e5 3e
       0.20226374 0.48104456 0.16396907 0.44884914
000070 ef 7e cf 3e 0c 6c a2 3d e8 8a 81 bd 50 a9 cd 3d
       0.4052653 0.079307646 -0.063253224 0.100420594
000080 c4 37 4c be e0 9e 9d 3c 4b 48 e3 3e 9e 13 7d 3e
       -0.19943148 0.019240797 0.44391093 0.24714515
000090 4c c7 d4 bd a8 8d 40 be f4 f1 aa 3d 0f cf a2 b9
       -0.10389575 -0.18804038 0.0834693 -0.00031053319
0000a0 82 8d e6 3e a2 a3 32 3e 7d f7 19 3e 37 f3 79 3e
       0.45029837 0.17445233 0.15035816 0.24409185
0000b0 44 ab 1e 3e a0 31 46 bc f0 5f 2c bd 74 bb 8b bd
       0.1549502 -0.012096792 -0.04208368 -0.06822863
0000c0 e2 30 34 3e f0 80 bf bd 30 ac 14 bd 44 24 34 be
       0.17596772 -0.09350765 -0.036297023 -0.17591959
0000d0 ac 30 11 be 34 5f aa 3d ec cd ea bd b2 6d 58 be
       -0.14178723 0.0831894 -0.11465058 -0.21135595
0000e0 a0 1f f2 bc 58 56 05 be 60 c6 3d 3c 9c 60 d4 bd
       -0.029556096 -0.13021219 0.011582941 -0.10369989
0000f0 c0 32 60 bd 0a 76 55 be 9c 34 fd bd 5a 0f 78 be
       -0.0547359 -0.2084581 -0.1236355 -0.24224606
000100 fe 33 0e be 92 30 09 be 38 4f 45 be 08 f0 10 bd
       -0.13887021 -0.13397434 -0.19268501 -0.03538516
000110 b4 37 b4 bd fc a8 bb 3d ca 5f 75 be 80 1e 1c bc
       -0.08799687 0.091630906 -0.23962322 -0.009528756
000120 1e d7 6e be 70 15 73 be b0 9b a8 3c 00 84 24 bc
       -0.23324248 -0.23738647 0.02058205 -0.010041237
000130 1e af 30 be 88 13 43 3e c8 56 11 bd 46 9d 41 3e
       -0.17254302 0.1905042 -0.03548315 0.18907651
000140 4c f3 0d 3e de 85 63 3e 36 ec 8a 3d de d4 3d 3e
       0.13862342 0.22219035 0.06783335 0.18538234
000150 e8 e8 87 be 70 d9 67 3e 20 ff 1d 3d d4 89 29 be
       -0.2654488 0.2264154 0.038573384 -0.16556484
000160 92 cc 1e 3e 74 6c 29 be 42 eb a5 3d b9 07 6b 3c
       0.15507725 -0.16545278 0.081015125 0.014345103
000170 bc a8 a2 bc c4 c1 a1 3d f0 28 5b 3d 38 e9 6e 3d
       -0.01985585 0.07898286 0.053505838 0.058327883
000180 ba 3c 61 be e4 91 de 3d 1c 25 be 3d 30 54 58 3d
       -0.21995822 0.1086767 0.09284422 0.052814662
000190 c4 c1 e0 3d 30 1a b3 bc 3c c8 5c 3e 24 8c 31 be
       0.10974458 -0.021863073 0.21560758 -0.17338616
0001a0 d0 36 34 bd 0e e9 24 be c8 e6 86 bd 62 43 72 be
       -0.043997586 -0.16104528 -0.06586987 -0.23658517
0001b0 78 b0 76 be 28 ff 2d bd 5c d8 16 be 3c ff 3d 3e
       -0.24090755 -0.042479664 -0.14730972 0.18554395
0001c0 80 53 1f be d8 7a c5 bd da c9 b4 3d e0 62 0d bc
       -0.15559196 -0.09642571 0.08827563 -0.008629531
0001d0 a3 09 58 3e d8 2b ad 3d 3e 79 45 be 88 dd 7e 3d
       0.21097426 0.08455628 -0.19284531 0.062222987
0001e0 5d c8 4b be 1f 1a 85 bd 98 fd 16 be 1d 28 2d bd
       -0.19900651 -0.06499123 -0.14745176 -0.042274583
0001f0 4e 91 62 bd 10 19 79 3d 44 7c 3a 3e d0 9d d3 bd
       -0.055314355 0.060814917 0.18211466 -0.10332835

layers.2.bias f4 [8]
000000 6f 02 fe 3d 3a dd a9 3e f8 ac e8 3e 04 07 41 be
       0.12402808 0.33176595 0.45444465 -0.18850332
000010 ee ac 2c be 7d e2 d0 3d 28 b8 27 3d ba 40 ae 3d
       -0.16862842 0.10199449 0.04094711 0.08508439

output.weight f4 [1, 8]
000000 3a 6c 8d 3e 6d bc d4 3e 78 37 6b 3e ca ed 61 3e
       0.27621633 0.41550007 0.22970378 0.22063366
000010 7e 99 36 3e a0 91 63 be 0c 79 90 bd ba bc 9d be
       0.1783199 -0.2222352 -0.07054338 -0.3080805
