vanilla_gan/19-02-26_22-27/discriminator.pt (torch_old, 3224 bytes, 7 tensors)

layers.0.weight f4 [16, 1]
00000000: 37d6 363d d328 fb3d 5ee2 a5bd 46b1 1cbe
00000010: 5698 8d3d fc7d 6d3d 544a 433b 59f5 9d3d
00000020: 89a1 29bd 8fb2 a83d b330 f13d f094 febd
00000030: dc21 4fbd 4a58 6bbd e78b 03be a8b9 073c
0.044637885 0.12263646 -0.08099817 -0.15302 0.069138214 0.057981476 0.0029798942 0.07712812
-0.041413818 0.08237182 0.11776867 -0.12430751 -0.0505694 -0.057457246 -0.12846337 0.00828401

layers.0.bias f4 [16]
00000000: 6267 36bf f094 6bbf ba0c 333f 6a1d ac3f
00000010: 7024 31bf 5b99 10bf 6f7e c33d ffa6 23bf
00000020: a8cc 1fbf e91c 2cbf 56a7 8fbf 007f 6a3f
00000030: 4e10 383f 3f8c 253f d1ff 873f 8582 1e3f
-0.712515 -0.92024136 0.69941294 1.3446476 -0.69196224 -0.56484 0.095456 -0.6392669
-0.62421656 -0.67231613 -1.1222942 0.91600037 0.7189988 0.64667124 1.0624944 0.61917907

layers.1.weight f4 [16, 16]
00000000: d86e ca3e 4205 013e c407 0fbf 3b7d 37be
00000010: ae40 0e3f 3528 363f 7a71 c73d e1f9 243f
00000020: 2298 863e 0331 143f acb7 1e3e 0a0f 00bf
00000030: 3fb2 18bf b6d1 31bf 681c b1bd 3f3b 9dbe
00000040: fa69 76bf 05be d5be d250 0e3f 75cf b73e
00000050: 8c23 f6be 2ca0 2f3c 409b b03e 1ec0 25bf
00000060: ed10 1cbe 3b93 94be bf96 a6be af7e 063f
00000070: 56ef 7a3f 2ffb 223f 7238 be3e d89c 093f
00000080: bcd1 513f 2bf1 0f3f 367c 16be e37d cfbe
00000090: ced4 393e b2fa 093d fdc3 16be ff1b 0c3e
000000a0: e1cb b53e edf9 f43d ce89 f93e e696 ecbe
000000b0: b246 1dbf 1019 4dbe d61f 0abf 37d2 f4be
000000c0: e7eb 6ebf 26fc 8abe 1d9a f63e 09cc ac3e
000000d0: 1065 86be 523e 9dbd 672f 843d 20e0 e4be
000000e0: 8b7f a93d 8ea9 45be 5d2f 66be 1d3d 223f
000000f0: b863 833f f36e 003f 7b25 873e 5286 c93e
00000100: 4d7e 7c3e ab01 90bc 2b52 5abf 83d3 0fbd
00000110: af72 4d3f 5608 713f ef28 9fbd f647 403f
00000120: 2adb 9e3e 07a5 633f 4441 8dbc 2a32 b0be
00000130: effd b8be c2fb 57bf c077 51bd 2b2c 58be
00000140: bd17 c4be d66b 3bbe 72bf 093f e5a0 413e
00000150: 850c b4be e099 08bf 0386 0fbe 96e2 1bbf
00000160: e10a f33d fdaf fdbe e1f6 3dbe 35f9 9a3e
00000170: 55cb 063f 2e00 093f d4fd 433e 223f a23e
00000180: 15fd 923f 7df3 df3e 43e7 a3be 5fd2 6fbe
00000190: a271 ac3e 7dff b2bc 63bb fdbe ef3a e33e
000001a0: 3deb c03e ebb2 773d 039b 9e3e 3055 36bf
000001b0: 883a 8fbf e392 dfbe 7ee8 a3be 4473 57bf
000001c0: 2302 93be 2321 4abf a46b 963e 6194 103f
000001d0: 260f 71be 914f 0cbe 9203 70bd 9856 7ebe
000001e0: f834 70be 995b a9be 5bb0 3abf 151a ba3e
000001f0: f963 733e eb65 ae3e 4084 353f b1cb a9bc
00000200: 265d 1ebf 5431 20bf 0aef 293e 7091 f83e
00000210: a367 71be 70af a3bd 692f 713d d1f1 32be
00000220: 8d32 d9be 2e04 0bbe d327 13bf 45f6 133f
00000230: b1e9 093f a86e 293e 328d 113f 063c 5c3e
00000240: d230 6abf d52d d2be 8149 103f 800b ac3e
00000250: d43b 04bf 0648 cdbd fe33 253e 87de ebbe
00000260: 76a7 08be e95d 4abe 6d6f 93be 378b 193f
00000270: 2e29 703f bbc7 173f 3b9e 863e e262 cb3e
00000280: 27b5 a43e 3295 203d 9a78 0fbf fc01 c4bd
00000290: fbf3 043f 91fc 133f e70d 643d d9de 1a3f
000002a0: 919b c53e 43c8 f83e f7c1 903d b928 02bf
000002b0: 6b05 febe 3d1d 10bf 7c2f 0abd 9ad6 92be
000002c0: cd3b b53e 2d46 c43d c5c8 00bf d309 12be
000002d0: c0cf d03e 24ef d93e 4fd9 b7bd b298 043f
000002e0: ef13 123e 8c94 113f 3bf4 d43d c54f cabe
000002f0: ee93 ddbe 05d0 08bf e204 fdbd 9a13 95be
00000300: 690d 75be ce3e 2fbd abb4 073f 3642 ba3d
00000310: 2114 f3be 4602 febe 6cd6 96bd 2c86 f7be
00000320: adb1 febe ffa8 d4be a33b bebd 7b90 083f
00000330: f8e0 c43e 0201 153f f288 ac3d 8682 453e
00000340: 9a5d 873e ac64 f33e c6cc 85be acb0 8ebe
00000350: 5c89 553e 187f 833c 1715 70be 2fa8 1b3e
00000360: c6ff fa3d b1b7 8b3e 513e aa3e ced9 c6be
00000370: 2a29 44be 217f 08be 0102 c2be 2f83 52be
00000380: 84be 3d3f 01d7 e03e ed32 76be 2a07 37be
00000390: b7b0 463e 9a9d 3a3d 2ad2 95be d432 7a3e
000003a0: 070a 553e 04f2 f3bc 794a 683e fbff febe
000003b0: eb39 29bf 06d7 78be 42dc babe 3fb9 16bf
000003c0: 2085 4fbc e7c7 013f 08af eabd 47a5 a5be
000003d0: 50cf 133e 123c 53bb ac7f 903d 7500 8b3d
000003e0: 71ee e7bd 5201 7d3d f1cd c03e 430a a7be
000003f0: be09 3e3d c63c 033d af5e c3be e1d9 7e3e
0.39537692 0.12599662 -0.55871224 -0.17918865 0.55567443 0.711551 0.09738441 0.64443785
0.26287943 0.57887286 0.15499753 -0.5002295 -0.5964698 -0.6946062 -0.08647996 -0.30709264
-0.9625546 -0.41746536 0.5559207 0.35900465 -0.48073995 0.01071934 0.34493446 -0.6474627
-0.15240832 -0.29018578 -0.32536885 0.52537054 0.9802145 0.63664526 0.3715244 0.5375495
0.81960654 0.5622737 -0.1469582 -0.4052573 0.18147585 0.033686347 -0.14723201 0.13682555
0.3550711 0.11961732 0.4873795 -0.46208876 -0.61436 -0.20029092 -0.5395483 -0.4781663
-0.9332871 -0.271455 0.48164454 0.33749416 -0.2624898 -0.07677902 0.06454354 -0.44702244
0.0827628 -0.19302961 -0.22479005 0.633745 1.0264807 0.50169295 0.26395783 0.3936029
0.24657555 -0.01757892 -0.8528163 -0.035113823 0.8025312 0.94153345 -0.07771479 0.75109804
0.31026584 0.88923687 -0.017243035 -0.34413272 -0.36131236 -0.84368527 -0.051139593 -0.21110599
-0.3829936 -0.18302855 0.5380775 0.18909033 -0.35165802 -0.53359795 -0.14015965 -0.6089262
0.11867309 -0.4954833 -0.18551208 0.30268255 0.5265401 0.535159 0.19139796 0.31688792
1.1483485 0.43740454 -0.32012376 -0.23420094 0.33680445 -0.021850342 -0.49557027 0.443809
0.37679473 0.060473364 0.3097764 -0.71223736 -1.1189737 -0.43666753 -0.32013315 -0.84160256
-0.28712568 -0.7895681 0.29378998 0.5647641 -0.23540935 -0.13702227 -0.058597155 -0.2483772
-0.23457706 -0.33077696 -0.7292535 0.36348024 0.23768605 0.34062132 0.7090492 -0.02072701
-0.61860883 -0.6257527 0.16595092 0.4854846 -0.2357469 -0.079924464 0.058883104 -0.17475058
-0.4242138 -0.13575813 -0.5748264 0.5779765 0.5387221 0.16546118 0.5685607 0.21507272
-0.91480744 -0.41050592 0.5636216 0.33602524 -0.5165379 -0.10023503 0.16133115 -0.46068212
-0.13345131 -0.19762386 -0.2879595 0.5997805 0.93812835 0.5928914 0.26292595 0.3972388
0.32169458 0.039204784 -0.560434 -0.09570691 0.51934785 0.5780726 0.05567732 0.6049629
0.3859525 0.48590288 0.07068246 -0.5084339 -0.4961351 -0.56294614 -0.03373669 -0.28679353
0.35397187 0.095836975 -0.5030635 -0.1426156 0.407835 0.42565262 -0.08976995 0.51795495
0.14265417 0.5686729 0.10398146 -0.39513984 -0.43276924 -0.5344241 -0.12354447 -0.29116517
-0.23930897 -0.042784505 0.5301005 0.0909466 -0.47476295 -0.4961111 -0.073651165 -0.48344553
-0.4974493 -0.41535184 -0.092887186 0.5334546 0.38452888 0.5820466 0.08424558 0.19288072
0.264386 0.47537744 -0.26132792 -0.27869165 0.2085318 0.016051814 -0.23445545 0.15200876
0.12255816 0.27288583 0.3325067 -0.38838047 -0.19156328 -0.13329746 -0.37892154 -0.20557855
0.7411883 0.43914035 -0.24042864 -0.17873827 0.19403349 0.045560457 -0.29261905 0.24433452
0.20804606 -0.029778488 0.22684659 -0.49804673 -0.66104 -0.24300775 -0.36496168 -0.58876413
-0.012666017 0.5069565 -0.11459166 -0.3235266 0.14434552 -0.003223185 0.070556015 0.067871965
-0.11324776 0.061768837 0.3765712 -0.32625017 0.04639601 0.03204038 -0.38158175 0.24887802

layers.1.bias f4 [16]
00000000: 16c3 c03e 6c61 113f 6a69 373e 2100 563f
00000010: 1ff0 d13d 702a 95be cc19 3fbe 04c0 3a3d
00000020: 29bb 0ebe cfaf 4f3f 2136 923d feef 233e
00000030: 85d4 51bc c6e4 d5be a3ab febe 27b2 50be
0.3764884 0.5678928 0.17911306 0.83593947 0.102508776 -0.2913394 -0.18662184 0.045593277
-0.13938583 0.8112764 0.071392305 0.16009519 -0.012807016 -0.41776103 -0.49740323 -0.2038046

layers.2.weight f4 [8, 16]
00000000: 8f17 c9bd 75aa abbd c6c1 4f3e b302 3d3d
00000010: 611b 953c b561 4cbd 79b9 eb3c 88aa ebbe
00000020: 982c 8fbe 96a4 b83c 06e8 fbbc a20d 393d
00000030: 28e5 9d3b b163 103e f12c 0cbd 8b66 0a3f
00000040: 2695 813d be90 3f3f 5d0e 67be af95 2d3f
00000050: 4a20 cdbd 4d9f 6c3d bec7 23bf 23db 283e
00000060: c8e7 7b3e 1638 443f 0f9a a4bc 5e3c 76be
00000070: 8580 103c f86c a3be 86c6 02bf eb52 85be
00000080: 28ea 853d 8c4d 1a3f b40e 32bf f799 9c3e
00000090: fff9 bcbd 7feb 913d 3727 22bf 1ef6 e03e
000000a0: 857d 243f 8467 ff3e 9155 26bd a1ec aebd
000000b0: 08e3 7d3d 2d30 d9be 2e2f c2be 7751 98be
000000c0: fd5d 243d 6a6c 1b3f 6235 45be 0607 5c3f
000000d0: 3fc1 1e3e 0513 523d 1edf 03bf aba6 cc3c
000000e0: 5a2f 163e 28b7 4c3f 0cf6 40bd fe0f e6bd
000000f0: 25c6 cf3c e2d3 0dbe e09e e8be 35a7 41be
00000100: 41f7 ebba be17 423f bb6b 64be c69c 343f
00000110: 692b e0bd 184e 073e 7ea2 24bf c6a7 153e
00000120: 18ea 8c3e e1a4 453f 845a 19be 87a5 e7bd
00000130: b230 ee3d 33a3 b7be 33dc f3be 0c79 7ebe
00000140: db6b 4d3d 9b11 0dbf d6be 643f 27a2 a3be
00000150: da2b b93d abbb 26be 2fcf 433f efcd d4be
00000160: 2685 3ebf 7b81 e7be 98cb 093e 1be1 1d3e
00000170: e1fc cfbd 0ced 263f b349 4a3f 20b8 8d3e
00000180: 4020 c5bd 26a6 333f ee32 acbe ad22 233f
00000190: e6b9 d7be 332b a3be a4fe f3be 8649 293f
000001a0: d786 df3e 20d7 2f3f 53ce 80be 2e1f 8dbd
000001b0: 825b 0f3e 6039 8fbf 5652 31bf 26cc 1cbf
000001c0: 44f2 63bf f01f 8b3e 2f61 6abe 1234 413e
000001d0: 5cdc 1abf 306a 893f 5cde 90be 37f4 6fbd
000001e0: 5ecd 993d ec1d 2f3e 0aed 23bf 22e4 37bf
000001f0: bdab 123f 2520 25bd 4ac4 18be 6d2f b23e
-0.098189466 -0.083821215 0.20288762 0.046145152 0.018201532 -0.04989787 0.028774964 -0.46028543
-0.2796371 0.022539418 -0.030750286 0.045179017 0.0048185773 0.14100529 -0.034222547 0.5406272
0.06327276 0.74830234 -0.22564073 0.67806524 -0.10015924 0.05776911 -0.6397666 0.16489844
0.24600136 0.7664808 -0.020092992 -0.24046466 0.008819704 -0.31919074 -0.5108417 -0.26039824
0.065388024 0.6027458 -0.69553685 0.30586216 -0.092273705 0.071249954 -0.6334109 0.43937773
0.6425403 0.49883664 -0.040608946 -0.08541227 0.061984092 -0.42419568 -0.3792662 -0.29749653
0.040128697 0.607123 -0.19258645 0.85948217 0.15503405 0.05128767 -0.51512325 0.024981817
0.146665 0.79966974 -0.04710965 -0.11233519 0.025363037 -0.13850358 -0.45433712 -0.1891144
-0.0018002765 0.7581748 -0.22306721 0.7055172 -0.1094578 0.13213384 -0.64310443 0.14614782
0.2752235 0.7720471 -0.14975935 -0.11310869 0.11630382 -0.358667 -0.47628936 -0.24850863
0.050151687 -0.5510499 0.8935369 -0.3195965 0.09041567 -0.16282527 0.7648801 -0.41563365
-0.7442192 -0.45215973 0.13456571 0.15417902 -0.10155655 0.65205455 0.79018706 0.2767954
-0.09625292 0.701754 -0.33632606 0.63724786 -0.42134017 -0.31868896 -0.47655213 0.6612781
0.43657562 0.6868763 -0.25157413 -0.06890713 0.13999751 -1.1189384 -0.6926626 -0.61249006
-0.89041543 0.27172804 -0.22888635 0.1886752 -0.6049249 1.0735531 -0.28294647 -0.05858251
0.07509874 0.17101258 -0.6403357 -0.7183248 0.572933 -0.04031386 -0.14918628 0.34801808

layers.2.bias f4 [8]
00000000: 66cf 073f 17c9 8a3e 27b3 91be 2d63 183e
00000010: f811 3f3e bb51 343e 6438 4e3e 59d0 023e
0.5305084 0.27106544 -0.28456995 0.14881583 0.18659198 0.17609303 0.20138699 0.12774791

output.weight f4 [1, 8]
00000000: a777 dabb 6b10 9138 b8ac 423b 9043 2e3a
00000010: 256d 4539 83fb 67bb 9fa0 833b 7411 1938
-0.0066670957 6.917197e-05 0.0029705 0.0006647641 0.00018828044 -0.0035397715 0.0040169503 3.6494297e-05
