vanilla_gan/19-02-26_22-27/generator.pt (torch_old, 5891 bytes, 7 tensors)

layers.0.weight f4 [16, 1]
0	0xbf1f91a0	-0.6233158
1	0xbd7ccf78	-0.061721295
2	0xbf2fd575	-0.68685085
3	0xbd8b9560	-0.068156004
4	0xbf3b07b8	-0.7305865
5	0x3e9e8e44	0.30967915
6	0x3f250e16	0.6447462
7	0xbeab6114	-0.33472502
8	0x3ec437d3	0.3832384
9	0x3e192fc8	0.14959633
10	0x3eb039f4	0.34419215
11	0xbf636e97	-0.8884062
12	0x3f0005dd	0.50008947
13	0xbe86e283	-0.2634469
14	0xbeb7b0db	-0.35877118
15	0xbfa24ea7	-1.2680253

layers.0.bias f4 [16]
0	0xbf651e68	-0.8949952
1	0xb8d47052	-0.00010129869
2	0xba45f461	-0.0007551369
3	0xbd7b2440	-0.061313868
4	0xbc7e8e80	-0.015536904
5	0xbf784e2e	-0.9699429
6	0xbf252d69	-0.64522415
7	0xbf6f09b4	-0.9337418
8	0xbec4e741	-0.38457683
9	0xbeccd6d0	-0.4000764
10	0xbf517aee	-0.818282
11	0xbba7a4b5	-0.00511607
12	0xbf007669	-0.5018068
13	0xb957aca7	-0.00020568316
14	0x3c9d24be	0.01918256
15	0xbb8f3c17	-0.004371177

layers.1.weight f4 [32, 16]
0	0xbdf8f6e4	-0.12156466
1	0x3e1f5a5d	0.15561815
2	0xbe18f911	-0.14938761
3	0xbe61dde8	-0.22057307
4	0xbdbcab00	-0.09212303
5	0x3e76c0cc	0.24096984
6	0xbde82d82	-0.11336805
7	0x3dc2aa64	0.09505156
8	0xbf06c670	-0.5264654
9	0xbe2db5ee	-0.16963932
10	0x3e20df3a	0.15710154
11	0xbebbc2b9	-0.36672
12	0xbf1504be	-0.5821036
13	0xbf036872	-0.51331246
14	0xbeac964e	-0.33708423
15	0xbcaf2605	-0.021380434
16	0xbbdd6600	-0.006756544
17	0xbd0ee080	-0.03488207
18	0xbd13a27c	-0.03604363
19	0xb99f0c00	-0.00030335784
20	0xbdfdda34	-0.123951346
21	0xbdd23f0c	-0.102659315
22	0xbddda66d	-0.10822759
23	0x3dbfa3f8	0.093574464
24	0xbda8c20e	-0.08240138
25	0x3cb9c030	0.02267465
26	0x3e1a2384	0.1505261
27	0xbe2020d5	-0.15637524
28	0xbccd598c	-0.025067113
29	0xbea36249	-0.31910923
30	0xbecbb277	-0.39784595
31	0xbe5002e3	-0.20313601
32	0x3de28bcc	0.110618204
33	0xbe30b20d	-0.17255421
34	0x3d04032f	0.0322296
35	0xbe576790	-0.210356
36	0x3ddfb59c	0.10923311
37	0x3db99064	0.090607435
38	0xbe997d5b	-0.2997845
39	0xbe21bac0	-0.15793896
40	0xbe88e33a	-0.2673586
41	0x3daa247c	0.0830774
42	0xbdaa051c	-0.08301756
43	0xbe10cf19	-0.14141501
44	0x3d6b2d60	0.05741632
45	0xbec07336	-0.375879
46	0xbccaf9bf	-0.024777291
47	0x3a755aaa	0.00093595183
48	0xbdc63bf0	-0.09679401
49	0xbb68debe	-0.0035533155
50	0x3e80fb28	0.25191617
51	0x3d60d830	0.054893672
52	0xbe306632	-0.17226484
53	0xbda4a450	-0.080391526
54	0xbdfc8802	-0.12330629
55	0xbe06d0a6	-0.1316553
56	0xbdc0daa6	-0.09416704
57	0x3e5934f6	0.21211609
58	0xbdf11804	-0.11772159
59	0xbe828026	-0.25488394
60	0xbc49bd16	-0.012313148
61	0xbd418bfa	-0.047252633
62	0xbe8f107b	-0.2794226
63	0xbe887c84	-0.26657498
64	0x3d6a6e90	0.057234347
65	0xbe5e2d8b	-0.21697061
66	0x3edae8bc	0.42755687
67	0xbe11343e	-0.14180085
68	0xbe40c972	-0.18826845
69	0x3e18110c	0.14850253
70	0xbd9d8515	-0.07691399
71	0xbe52cd16	-0.20586047
72	0x3e8b7407	0.2723696
73	0x3e2af766	0.16695938
74	0xbe1b0938	-0.15140235
75	0x3f74a6fa	0.95567286
76	0xbe23690d	-0.15958042
77	0x3e202389	0.15638556
78	0x3c89d3f3	0.016824698
79	0x3ece4934	0.40290225
80	0xbe39621c	-0.18103832
81	0x3e8cc807	0.2749636
82	0xbe0996bc	-0.13436407
83	0xbdb0e1d8	-0.08636826
84	0xbd9a4d30	-0.075342536
85	0x3cf26550	0.029589325
86	0xbe50bfbb	-0.2038564
87	0xbd572fa8	-0.052535683
88	0xbee2d9db	-0.44306836
89	0xbe33ed3c	-0.17570966
90	0x3e5346fe	0.2063255
91	0x3e07b570	0.13252807
92	0xbdb5bdec	-0.08874115
93	0x3d4a0bba	0.04932759
94	0x3ee2b299	0.44276884
95	0x3df36731	0.118849166
96	0xbdb92c4c	-0.09041652
97	0xbd8bcff8	-0.06826776
98	0x3e87dcad	0.2653555
99	0x3ca9b450	0.020715863
100	0xbe3adea4	-0.18248993
101	0x3e2357b8	0.15951431
102	0xbc59d853	-0.013296205
103	0x3cd289a0	0.02570039
104	0x3e77f409	0.24214186
105	0xbdcd5d98	-0.10027617
106	0xbd821748	-0.06352097
107	0x3ebe259d	0.37138072
108	0xbe4b4473	-0.1985033
109	0x3e17437f	0.14771841
110	0xbcb5a88d	-0.022175098
111	0x3da9fc66	0.08300094
112	0x3e551fb8	0.20812881
113	0xbd98ff19	-0.07470531
114	0x3d734206	0.059389137
115	0xbd60b1e0	-0.054857135
116	0x3e1217e4	0.14266926
117	0xbd9dfd18	-0.077142894
118	0xbd61be76	-0.05511328
119	0x3e071adc	0.1319384
120	0xbe42aa9b	-0.19010393
121	0x3e4a90d4	0.1978181
122	0x3e43c184	0.19116789
123	0x3c3c796e	0.0115035605
124	0x3ccadc81	0.024763348
125	0xbd9de348	-0.07709366
126	0x3e23d87f	0.16000555
127	0xbd8d8590	-0.06910241
128	0xbe350e2c	-0.17681187
129	0xbd8a0979	-0.06740088
130	0x3e5cf497	0.21577679
131	0x3e4c2b40	0.19938374
132	0xbd4254c0	-0.047444105
133	0x3e7398b6	0.23788723
134	0xbe59dba6	-0.21275195
135	0xbe64571a	-0.22298852
136	0xbec67e2b	-0.38768134
137	0x3e45c570	0.19313598
138	0xbda09eb0	-0.07842767
139	0xbe349290	-0.17634034
140	0x3c4276e0	0.011869162
141	0xbcabfb06	-0.02099372
142	0xbea986cc	-0.33110654
143	0xbe5c7b36	-0.21531376
144	0xbda72a90	-0.08162415
145	0xbe04d5c7	-0.12972175
146	0x3d4593c9	0.048236642
147	0xbd890cbc	-0.06691882
148	0x3e2c1cc6	0.16807851
149	0xbdce8a34	-0.10084954
150	0xbe086f53	-0.13323717
151	0x3dd61634	0.10453454
152	0xbd12f7d7	-0.03588089
153	0xbd80bd18	-0.06286067
154	0x3e4de6bc	0.2010755
155	0x3dc77152	0.09738411
156	0x3e0bedb4	0.13664895
157	0x3e24c1c0	0.16089535
158	0xbda86264	-0.082218915
159	0x3e7bfc82	0.24608043
160	0xbe5cb09e	-0.21551749
161	0xbe13c75a	-0.14431515
162	0x3d6750d2	0.05647356
163	0x3d3152c0	0.043291807
164	0x3c90ced0	0.01767674
165	0xbe0e5d72	-0.13902834
166	0x3e0a60b2	0.13513449
167	0x3e1b5366	0.15168533
168	0x3e5cf9b3	0.21579628
169	0x3dc286cc	0.09498367
170	0xbe2623a6	-0.16224536
171	0x3dbb4294	0.09143558
172	0xbe36b84c	-0.17843741
173	0xbe02ec5c	-0.12785476
174	0x3de61bdc	0.112357825
175	0x3e3cb51e	0.18428466
176	0xbdef047c	-0.11670777
177	0x3e6dfd52	0.23241165
178	0x3e2990c4	0.1655913
179	0xbd816914	-0.0631887
180	0xbe582dbe	-0.211112
181	0x3e7b47ce	0.2453911
182	0xbdd336d4	-0.10313192
183	0xbd1556f8	-0.036459893
184	0xbd7ce806	-0.061744712
185	0xbd1fa3d0	-0.038974583
186	0x3ddc2db4	0.10750905
187	0xbccaead2	-0.024770174
188	0xbddfee07	-0.10934072
189	0xbbc3b0ae	-0.0059719896
190	0xbe3d2e51	-0.184747
191	0xbe383cc3	-0.17991929
192	0x3d96fb6c	0.07372174
193	0x3df91a7c	0.121632546
194	0x3eb9ca5c	0.362872
195	0x3e658bb0	0.22416568
196	0xbe3781f4	-0.17920667
197	0xbd8d19b4	-0.06889668
198	0xbe848d31	-0.2588897
199	0x3e746bea	0.23869291
200	0x3e697905	0.22800072
201	0xbc8137e0	-0.015773714
202	0x3dd3dd08	0.10344893
203	0x3ead9498	0.3390243
204	0x3cc9a372	0.02461407
205	0xbdd97f8b	-0.1062003
206	0xbe683549	-0.22676577
207	0x3e8fc7ad	0.28082028
208	0xbbb2c040	-0.005455047
209	0xbe35468a	-0.1770269
210	0xbe052611	-0.13002802
211	0xbcbcbe10	-0.023039848
212	0xbda827b0	-0.08210695
213	0x3e58b1b4	0.21161538
214	0xbc958ae9	-0.018254714
215	0x3d892b38	0.066976964
216	0xbdb9a134	-0.0906395
217	0x3e0ff71a	0.14059106
218	0x3e6b9b36	0.23008427
219	0x3d815fe3	0.06317117
220	0xbe6cd8d3	-0.23129587
221	0xbe8c42e9	-0.27394798
222	0x3e026ced	0.12736864
223	0xbdc9ec99	-0.098595805
224	0xbe6c1ff8	-0.2305907
225	0x3e8c9ae2	0.27461916
226	0xbc614642	-0.013749661
227	0x3e2fba08	0.17160809
228	0xbcae95a0	-0.021311581
229	0xbddfd5d8	-0.10929459
230	0xbe53a590	-0.20668626
231	0x3ddea28c	0.10870847
232	0x3d05eef6	0.032698594
233	0xbdd7e6b8	-0.10542053
234	0x3e6adf78	0.22936809
235	0x3e45469d	0.19265218
236	0xbdcec88a	-0.100968435
237	0x3de7f8b9	0.11326737
238	0xbe5a3e17	-0.21312748
239	0x3e358ec3	0.1773024
240	0x3d4ac828	0.04950729
241	0xbdbb3961	-0.091418035
242	0x3de168cf	0.11006319
243	0xbcad1b30	-0.021131128
244	0xbe631588	-0.22176182
245	0xbe02424a	-0.127206
246	0x3cb3d36b	0.021951398
247	0x3e6a96de	0.22909114
248	0xbe70967d	-0.23494907
249	0xbdfc0ac4	-0.12306741
250	0xbad03f00	-0.0015887916
251	0x3e42a315	0.19007523
252	0x3e11bbed	0.14231844
253	0x3e57f864	0.21090847
254	0xbe4ec621	-0.20192768
255	0x3d9d7873	0.076889895

layers.1.bias f4 [32]
0	0xbc0339f8	-0.008009426
1	0xbcab8ee8	-0.020942166
2	0xbcdccedb	-0.026954105
3	0xbe1f52ad	-0.15558882
4	0x3f603f6b	0.8759677
5	0x3d896297	0.06708258
6	0x3f13e32d	0.5776852
7	0xbd55d2fa	-0.052203156
8	0xbd17a08c	-0.037018344
9	0x3efcc3a0	0.49368
10	0x3f2228e8	0.6334367
11	0x3e793e4b	0.24340169
12	0x3ed83bab	0.42233023
13	0xbd69151e	-0.056904905
14	0x3e5053d3	0.20344476
15	0xbb312003	-0.0027027137
16	0xbce056bf	-0.027385114
17	0xbc5e9aac	-0.013586681
18	0xbd018108	-0.031617194
19	0xbd150fe0	-0.036392093
20	0x3e6f3efa	0.23363867
21	0xbd4f1236	-0.050554477
22	0xbd7039ae	-0.058648758
23	0xbe14847b	-0.14503662
24	0xbd277049	-0.040878568
25	0x3cb138b7	0.021633489
26	0xbcac8098	-0.021057412
27	0xbc855a8a	-0.016278524
28	0x3ea4b169	0.32166603
29	0x3eb525ad	0.35380307
30	0xbd04cf2d	-0.03242414
31	0x3e2d30ea	0.1691319

layers.2.weight f4 [16, 32]
0	0x3da43466	0.08017807
1	0xbd49f673	-0.049307298
2	0x3d0c2aa8	0.034220368
3	0x3c8eeaa3	0.017445868
4	0xbe9957c3	-0.2994977
5	0xbe3a80a7	-0.1821314
6	0x3f164ea7	0.58713764
7	0x3d38ebb8	0.045146674
8	0xbcbd7d98	-0.023131177
9	0x3dd9ad1c	0.10628721
10	0x3eb8d37a	0.36098844
11	0x3d16fb84	0.036860958
12	0x3eb4d01d	0.35315028
13	0xbd503d11	-0.050839487
14	0x3e6c2312	0.23060253
15	0x3b692290	0.003557358
16	0x3e1f7f5e	0.1557593
17	0xbda36b4a	-0.07979448
18	0x3e4bfc84	0.19920546
19	0x3dfca9bb	0.12337061
20	0x3e8642c1	0.26222804
21	0x3e2c9c70	0.16856551
22	0x3c92fa72	0.017941687
23	0x3dcd8632	0.10035361
24	0xbe02d12b	-0.12775104
25	0xbd4caaf8	-0.049967736
26	0x3dcb5a8b	0.09929379
27	0xbd5b55da	-0.05354867
28	0x3e68bb71	0.22727753
29	0x3e1e7a94	0.15476447
30	0x3a7bff4c	0.00096129323
31	0x3bce055a	0.006287259
32	0xbbc108ee	-0.005890957
33	0xbdc2ce81	-0.09512044
34	0xbe1901f9	-0.14942159
35	0xbe2f429a	-0.1711525
36	0x3f1cff8a	0.6132742
37	0xbe116cd5	-0.14201672
38	0x3dbcaeb6	0.09213011
39	0xbd95c147	-0.07312255
40	0xbd479655	-0.048727352
41	0xbe0bba73	-0.13645343
42	0x3e053e72	0.13012102
43	0xbe03db75	-0.12876685
44	0xbe19f3ba	-0.1503438
45	0x3f6b2e99	0.9186798
46	0xbe2e906d	-0.17047282
47	0xbdc6e4ab	-0.09711584
48	0xbe851273	-0.25990638
49	0xbde354f8	-0.11100191
50	0x3e3aa7c5	0.18228061
51	0x3dbebf7f	0.09313869
52	0x3cc2c2fb	0.023774615
53	0x3e11d9ca	0.14243236
54	0x3f1e0bf3	0.61736983
55	0xbecd6aa7	-0.40120432
56	0xbe4b9053	-0.19879274
57	0x3ed03a86	0.4066965
58	0x3ce26e08	0.027640358
59	0xbe96e4db	-0.29471478
60	0x3f83eb34	1.0306153
61	0x3eddb7ea	0.43304378
62	0xbe4db3cb	-0.20088117
63	0x3db7f0b6	0.08981459
64	0xbca2d6c7	-0.019877804
65	0xbd9f1989	-0.07768542
66	0xbcb9aaef	-0.022664515
67	0x3d58eecd	0.052962113
68	0xbebd1f03	-0.36937723
69	0xbdbfda46	-0.09367804
70	0x3ed89c9d	0.42306986
71	0x3c87d770	0.01658222
72	0x3e56a1ea	0.20960203
73	0x3f04733c	0.51738334
74	0x3f094e71	0.5363532
75	0x3ea3e29c	0.32008827
76	0x3f04ebe3	0.51922435
77	0x3c7d4ca6	0.015460169
78	0x3ecb250d	0.39676705
79	0x3ca2b8af	0.019863455
80	0x3da97344	0.08273938
81	0xbca1d95b	-0.019756963
82	0xbe42bca5	-0.19017275
83	0xbdb785fa	-0.08961101
84	0x3ed9cd0d	0.42539254
85	0xbd9c381f	-0.07627892
86	0xbdd203f2	-0.10254659
87	0x3d9ccda0	0.07656407
88	0xbb4c1be8	-0.0031144563
89	0xbe3ad93e	-0.18246934
90	0x3e0ed535	0.1394852
91	0x3e48b19c	0.19599003
92	0x3eab11b0	0.33411932
93	0x3e54d6f3	0.20785122
94	0x3cfd4695	0.030917445
95	0x3ece70c1	0.403204
96	0xbe20a922	-0.15689519
97	0xbe006491	-0.12538363
98	0xbd1a493d	-0.0376675
99	0x3d181067	0.037125017
100	0x3ea3f3f4	0.3202206
101	0xbeb4c272	-0.353046
102	0xbe970d66	-0.2950241
103	0xbca6a85e	-0.020343956
104	0xbe4fe626	-0.20302638
105	0xbec3f9c3	-0.3827649
106	0xbeb4bfbf	-0.3530254
107	0xbde203da	-0.11035891
108	0xbe866f01	-0.26256564
109	0xbe897589	-0.26847485
110	0xbe5ac687	-0.21364795
111	0xbe9c946e	-0.30581993
112	0xbe91fc63	-0.28512868
113	0xbe6caa0b	-0.23111741
114	0xbe307575	-0.17232306
115	0xbb691e42	-0.0035571014
116	0xbead136a	-0.33803874
117	0xbe18eba5	-0.14933641
118	0xbe129126	-0.14313182
119	0xbeba2393	-0.36355266
120	0xbe174daa	-0.1477572
121	0x3e872f97	0.26403496
122	0xbea29147	-0.31751463
123	0xbe9a2427	-0.30105707
124	0xbeca84ff	-0.39554593
125	0xbec2266f	-0.37919948
126	0xbda03430	-0.07822454
127	0xbec542db	-0.3852757
128	0xbdebf385	-0.11521057
129	0x3b87e558	0.004147213
130	0xbe1e10cf	-0.154361
131	0x3d60c024	0.05487074
132	0xbebca364	-0.36843407
133	0xbd9805d7	-0.07422989
134	0x3f105880	0.5638504
135	0xbdf713d7	-0.12064331
136	0xbc8dc277	-0.017304642
137	0x3eb51715	0.35369173
138	0x3f2a4f07	0.66526836
139	0x3e9e0992	0.30866677
140	0x3edd61b8	0.43238616
141	0xbe925474	-0.28580058
142	0x3e448642	0.1919184
143	0x3e82c41a	0.2554024
144	0xbd5e464a	-0.05426625
145	0x3e19dbc3	0.15025239
146	0xbe1962f8	-0.1497916
147	0xbe5899d9	-0.21152438
148	0x3e7027e3	0.23452716
149	0x3c8722fd	0.016496176
150	0xbe17ec30	-0.14836192
151	0xbdcf7d49	-0.10131318
152	0x3e849910	0.25898027
153	0x3cba76aa	0.022761662
154	0x3e095ab1	0.13413502
155	0xbd859185	-0.06521896
156	0x3d5d0e90	0.053968966
157	0x3e139907	0.14413844
158	0x3eb521a1	0.3537722
159	0x3eb2122a	0.34779483
160	0x3cd7a1cb	0.026322266
161	0xbe450f09	-0.19244017
162	0xbce2b4e2	-0.027674142
163	0xbe4034b3	-0.18770103
164	0xbd3e5eff	-0.046477314
165	0xbe1663c1	-0.1468649
166	0xbe4fb994	-0.20285636
167	0x3d25c81c	0.040474042
168	0xbe1315b4	-0.14363748
169	0xbd16686c	-0.03672068
170	0xbc3070c1	-0.01076907
171	0xbe19782c	-0.14987248
172	0xbe24cbb7	-0.16093336
173	0x3d2c7d65	0.042111773
174	0xbd44b445	-0.04802348
175	0x3c2c6ced	0.010524017
176	0xbd79f649	-0.06102589
177	0x3cd6bc93	0.026212966
178	0x3bcb3e03	0.0062024607
179	0x3b3b2f66	0.0028562187
180	0xbda59e16	-0.08086793
181	0xbc4fa019	-0.012672448
182	0xbd193361	-0.037402514
183	0xbdbb6592	-0.091502324
184	0xbcf5968b	-0.029979011
185	0xbd3ec328	-0.046572834
186	0xbdc46087	-0.09588724
187	0xbe076094	-0.13220435
188	0xbe613a12	-0.21994808
189	0xbd1e2dd8	-0.03861794
190	0x3d3c13c5	0.04591729
191	0xbd2b3950	-0.041802704
192	0xbcdba2e3	-0.026811069
193	0x3d1333c6	0.035938047
194	0x3d8a9cc1	0.0676818
195	0xbd94c7fd	-0.07264707
196	0xbe160bac	-0.1465289
197	0xbe601b00	-0.218853
198	0xbe98645c	-0.29764068
199	0xbe79edff	-0.24407195
200	0xbdad83b4	-0.08472386
201	0xbd2cadf0	-0.042158067
202	0xbdc7ff4c	-0.09765491
203	0xbe7981f5	-0.24365981
204	0xbe87a866	-0.26495665
205	0xbe91cd19	-0.2847679
206	0xbe6f7fdf	-0.23388623
207	0xbe877b2e	-0.26461166
208	0xbe5f578f	-0.21810745
209	0xbe8088db	-0.25104412
210	0x3e2e4a67	0.1702057
211	0xbe4810e5	-0.19537695
212	0xbe7ba26a	-0.24573675
213	0x3c71cccd	0.014758301
214	0x3d1a14c3	0.037617456
215	0x3e20b88e	0.15695402
216	0xbdb02e3a	-0.08602567
217	0x3eaf8bf6	0.3428647
218	0xbe50f31c	-0.20405239
219	0xbdcaf304	-0.09909633
220	0xbe5c90da	-0.21539631
221	0xbe9a3583	-0.3011895
222	0xbe683c21	-0.22679187
223	0x3c0f4c91	0.008746282
224	0xbe013935	-0.12619479
225	0x3d983927	0.07432776
226	0xbdd26a22	-0.102741495
227	0xbbae231a	-0.005314243
228	0x3dcd3099	0.10019035
229	0xbe8f7795	-0.2802092
230	0xbec563c4	-0.38552678
231	0xbdeda22a	-0.11603196
232	0xbe73167d	-0.23739047
233	0xbe21ffb7	-0.15820204
234	0x3da5666c	0.08076176
235	0xbe35e2d0	-0.17762303
236	0xbe297e99	-0.165522
237	0xbea70d2c	-0.32627237
238	0x3d88fa48	0.06688362
239	0xbc16f3f5	-0.009213437
240	0xbe2dc193	-0.16968374
241	0xbdb26330	-0.08710325
242	0xbdb5b31b	-0.08872052
243	0xbd352f13	-0.044234347
244	0xbdcff738	-0.10154575
245	0x3d08070b	0.03320984
246	0xbe798614	-0.24367553
247	0xbd61416a	-0.054994024
248	0xbe151438	-0.14558494
249	0xbc3d87da	-0.011568034
250	0xbe4805d1	-0.19533469
251	0x3cd00f40	0.025397897
252	0xbee664c8	-0.44998765
253	0xbf1d5859	-0.6146293
254	0xbd9ebeb8	-0.077512205
255	0xbd8109b4	-0.06300679

layers.2.bias f4 [16]
0	0x3f13b46c	0.57697177
1	0xbcd34783	-0.025790935
2	0x3f4ca4b3	0.7993881
3	0xbd655a18	-0.055994123
4	0x3f4c1c17	0.7973036
5	0xbd10af98	-0.03532371
6	0x3c87c11f	0.01657158
7	0xbe01219a	-0.12610474
8	0xbc504930	-0.012712762
9	0xbdc2c004	-0.0950928
10	0x3e5b6e8f	0.21428894
11	0x3e9b3b2b	0.3031858
12	0x3eac68c8	0.33673692
13	0xbe4292ed	-0.1900136
14	0xbebae31a	-0.3650139
15	0x3f36cb06	0.7140354

output.weight f4 [1, 16]
0	0x3e4c0fd0	0.19927907
1	0x3eb32e89	0.3499644
2	0x3eb97530	0.3622222
3	0x3d5e333b	0.054248076
4	0x3ec87610	0.39152575
5	0xbe12077e	-0.1426067
6	0xbdd321ad	-0.103091575
7	0xbb73a31f	-0.0037176085
8	0x3e2dbe10	0.16967034
9	0xbe708bb7	-0.23490797
10	0x3e7192f7	0.23591219
11	0x3e0ad330	0.13557124
12	0x3e09533f	0.13410662
13	0x3c2d042e	0.010560079
14	0xbd734ec8	-0.059401304
15	0x3e87b24b	0.26503214
