vanilla_gan/19-02-23_23-00/discriminator.pt (torch_old, 3224 bytes, 7 tensors)

layers.0.weight f4 [16, 1]
-0.24158175 -0.17332579 -0.27117077 0.13844128 0.30600312 0.3128385 -0.13353774 0.14551349
-0.20717393 -0.252767 -0.20842554 0.34614816 -0.16726491 0.30232373 -0.1523161 0.13595521
00000000: 3561 77be 517c 31be e5d6 8abe 8dc3 0d3e
00000010: 71ac 9c3e 5e2c a03e 1ebe 08be 7d01 153e
00000020: 6725 54be ad6a 81be 816d 55be 553a b13e
00000030: 7e47 2bbe 2dca 9a3e c0f8 1bbe d837 0b3e

layers.0.bias f4 [16]
1.1091632 0.6604505 1.2482578 -0.05097088 -1.2119447 -1.2358214 0.6140274 0.039762694
0.7545346 1.1628662 0.956347 -1.5911332 0.7642457 -1.1948906 -0.02740597 -0.047682792
00000000: 0ff9 8d3f 4913 293f e9c6 9f3f d7c6 50bd
00000010: 0121 9bbf 652f 9ebf e630 1d3f 35de 223d
00000020: 2e29 413f cdd8 943f 28d3 743f 41aa cbbf
00000030: 9ba5 433f 2df2 98bf 7c82 e0bc 084f 43bd

layers.1.weight f4 [16, 16]
-0.93165046 -1.1446043 -0.8845488 0.06352675 1.9598868 1.6753236 -1.496834 0.064714976
-0.4951304 -0.9203822 -0.9959438 0.7448527 -1.2173872 1.5591367 -0.058534533 0.06640171
0.9097478 1.1585394 0.82601994 -0.05316076 -1.9076284 -1.6892929 1.1202009 -0.055267256
0.5040505 1.0185835 1.0225891 -0.7806848 1.3264239 -1.5967165 0.044482816 -0.069843784
2.8636403 0.0906585 3.1077733 -0.0119646415 -0.08997731 -0.08429069 2.3599875 -0.014866706
0.0460766 2.1383154 2.9236555 -2.694167 1.3283061 -0.08123887 0.007228277 -0.009605399
-1.159565 -1.1348963 -1.0760752 0.06340784 1.9742485 1.6131904 -1.4968331 0.059199847
-0.50884724 -0.9192154 -1.0739533 0.8882303 -1.2974544 1.5461928 -0.051391684 0.06909819
2.5830905 0.024903232 2.6677034 -0.005300283 -0.008604715 -0.011014592 2.2474122 0.0021453542
0.004949899 1.8191301 2.2956564 -2.158197 1.0774373 -0.020825675 -0.00075349567 -0.0010973508
-2.6923437 -0.017409826 -2.9919357 -0.007958774 -0.004962978 -0.004389192 -2.2470634 -0.0050272616
0.0008561076 -1.6484466 -2.230523 2.564382 -1.1511551 -0.007450463 0.0041236174 -0.008042611
-2.7600033 -0.058878507 -2.7143276 0.0009608693 0.082900204 0.06405014 -2.37188 0.0019926585
-0.034161493 -2.0302038 -2.0865073 2.6452804 -1.179432 0.056265034 -0.010165701 0.0045927917
-2.7192798 0.035026174 -2.3960302 -0.01165874 -0.05853185 -0.044788506 -2.1774292 -0.010514872
0.026383545 -1.8046305 -2.1965876 2.109549 -1.1783036 -0.027051026 0.010246458 -0.0133715905
-2.2964065 -0.058177788 -2.3086514 0.0056537935 0.034764115 0.03982466 -2.2472005 0.0104274
-0.027334472 -2.0153582 -2.309017 2.3851852 -1.1554056 0.036957536 -0.0015669303 0.0003933858
0.84924465 1.102232 0.9849983 -0.026797792 -1.9411477 -1.5965835 1.1845855 -0.030126866
0.4572335 1.0610719 1.104032 -0.7495864 1.3765517 -1.5507 0.02308364 -0.03477646
2.6985834 0.112098366 2.5828502 -0.010507166 -0.10999203 -0.09274966 2.2855687 -0.0063233725
0.040476084 2.31323 2.7704535 -2.575118 1.3934016 -0.10130161 0.003511728 -0.014303603
2.3049638 0.027851615 2.6969028 0.011653674 -0.0050618043 -0.00044984894 2.132199 0.0021062214
0.0100299055 1.7045664 2.1386693 -2.5999854 1.2218707 0.0010547966 -0.0019962874 0.002362941
2.8535786 0.0720834 2.6976738 -0.0057710093 -0.058052804 -0.05890724 2.3642142 -0.008931635
0.03992031 2.2082322 2.7305079 -2.782151 1.2237579 -0.065077715 0.006450953 -0.0060932105
2.369717 0.04756852 2.6086373 -0.0040109693 -0.021525599 -0.026553944 1.9298419 -0.004259538
0.032488044 1.9599332 2.4114916 -2.2862282 1.2221154 -0.030675175 0.0027967345 -0.009219048
-2.5879543 -0.042571783 -2.8088603 0.007884298 0.03202252 0.03688992 -2.350872 0.004663698
-0.021248428 -1.874569 -2.4914472 2.629671 -1.160593 0.030141387 -0.0020473998 0.0031648753
-2.881831 -0.11813303 -3.004495 0.012847476 0.12864563 0.117276944 -2.6414948 0.010901576
-0.051340256 -2.362869 -2.6811159 2.7541246 -1.4686232 0.1053879 -0.007019712 0.004451197
00000000: a580 6ebf 6582 92bf ca71 62bf 501a 823d
00000010: 92dd fa3f 0171 d63f 4298 bfbf 4989 843d
00000020: bb81 fdbe 2b9e 6bbf 2cf6 7ebf abae 3e3f
00000030: 58d3 9bbf cb91 c73f e8c1 6fbd 9ffd 873d
00000040: 3be5 683f 054b 943f 0b76 533f 19bf 59bd
00000050: 2b2d f4bf c03a d8bf be62 8f3f eb5f 62bd
00000060: 7409 013f f260 823f 33e4 823f f6da 47bf
00000070: 42c8 a93f 3561 ccbf 9d33 363d 420a 8fbd
00000080: e245 3740 2aab b93d c2e5 4640 5807 44bc
00000090: 0646 b8bd 99a0 acbd 090a 1740 7c93 73bc
000000a0: d1ba 3c3d 29da 0840 2c1d 3b40 3b6d 2cc0
000000b0: ef05 aa3f 9160 a6bd 2fdb ec3b f75f 1dbc
000000c0: a06c 94bf 4844 91bf d5bc 89bf f8db 813d
000000d0: 2db4 fc3f 067d ce3f 3a98 bfbf 8a7b 723d
000000e0: d043 02bf b351 6bbf 4d77 89bf 1063 633f
000000f0: fc12 a6bf a5e9 c53f 1680 52bd 5a83 8d3d
00000100: 5b51 2540 dd01 cc3c a7bb 2a40 ffad adbb
00000110: cafa 0cbc 8c76 34bc 9ad5 0f40 1299 0c3b
00000120: c332 a23b 41d9 e83f 09ec 1240 e61f 0ac0
00000130: 77e9 893f 9b9a aabc 3d86 45ba fcd4 8fba
00000140: 5c4f 2cc0 0d9f 8ebc e07b 3fc0 8565 02bc
00000150: 7aa0 a2bb 36d3 8fbb e3cf 0fc0 babb a4bb
00000160: 696c 603a 4c00 d3bf e4c0 0ec0 d61e 2440
00000170: 0d59 93bf 0323 f4bb 691f 873b 28c5 03bc
00000180: e5a3 30c0 972a 71bd 8bb7 2dc0 d9e2 7b3a
00000190: 95c7 a93d b82c 833d e2cc 17c0 4397 023b
000001a0: ecec 0bbd dcee 01c0 5689 05c0 464c 2940
000001b0: a1f7 96bf 2a76 663d 0a8e 26bc 217f 963b
000001c0: ae08 2ec0 9b77 0f3d 8f58 19c0 4d04 3fbc
000001d0: 18bf 6fbd 2774 37bd 005b 0bc0 9246 2cbc
000001e0: 4e22 d83c 22fe e6bf e494 0cc0 da02 0740
000001f0: a7d2 96bf 1d9a ddbc c3e0 273c 8414 5bbc
00000200: 53f8 12c0 d54b 6ebd f2c0 13c0 7543 b93b
00000210: d164 0e3d 2f1f 233d 22d2 0fc0 afd7 2a3c
00000220: 8bec dfbc a1fb 00c0 efc6 13c0 e0a6 1840
00000230: 55e4 93bf c960 173d 7561 cdba 593f ce39
00000240: 1968 593f f015 8d3f d928 7c3f 0b87 dbbc
00000250: 8777 f8bf d95c ccbf 7fa0 973f 9ecc f6bc
00000260: 821a ea3e 34d1 873f ec50 8d3f e5e4 3fbf
00000270: d932 b03f 567d c6bf e719 bd3c c371 0ebd
00000280: 97b5 2c40 d493 e53d 6b4d 2540 4026 2cbc
00000290: 8043 e1bd 89f3 bdbd c246 1240 4b34 cfbb
000002a0: 40ca 253d f60b 1440 1c4f 3140 bcce 24c0
000002b0: fc5a b23f 3877 cfbd 0525 663b a959 6abc
000002c0: 8784 1340 1229 e43c 0e9a 2c40 0def 3e3c
000002d0: 7edd a5bb b4d9 ebb9 f375 0840 8808 0a3b
000002e0: 7954 243c 3b2f da3f f5df 0840 2966 26c0
000002f0: 4266 9c3f 1a41 8a3a 25d4 02bb 92db 1a3b
00000300: 08a1 3640 76a0 933d b0a6 2c40 bc1a bdbb
00000310: c7c8 6dbd b848 71bd 494f 1740 fe55 12bc
00000320: 7b83 233d ad53 0d40 a4c0 2e40 c30e 32c0
00000330: 19a4 9c3f 7747 85bd 8462 d33b 8ea9 c7bb
00000340: 71a9 1740 35d7 423d eaf3 2640 736e 83bb
00000350: 7456 b0bc a887 d9bc 0f05 f73f 9893 8bbb
00000360: 2f12 053d 17df fa3f e155 1a40 9051 12c0
00000370: 476e 9c3f 814a fbbc 6b49 373b 7d0b 17bc
00000380: 0ba1 25c0 c05f 2ebd 5ec4 33c0 252d 013c
00000390: 0c2a 033d e219 173d b074 16c0 efd1 983b
000003a0: 2f11 aebc e1f1 efbf df73 1fc0 884c 2840
000003b0: 508e 94bf 12eb f63c ab2d 06bb cc69 4f3b
000003c0: eb6f 38c0 bbef f1bd a549 40c0 387e 523c
000003d0: aebb 033e e52e f03d 400e 29c0 869c 323c
000003e0: 294a 52bd 3f39 17c0 6797 2bc0 9443 3040
000003f0: d8fb bbbf 9cd5 d73d 9d05 e6bb 59db 913b

layers.1.bias f4 [16]
0.34102187 -0.35968876 0.16055351 0.44135553 0.037045304 0.014684495 -0.11720483 0.058278896
-0.09433404 -0.4695564 0.20762208 0.019071508 0.116307996 0.060076207 -0.06624298 -0.2339446
00000000: 6b9a ae3e 2029 b8be 2468 243e 5af9 e13e
00000010: d1bc 173d 3c97 703c 1609 f0bd dab5 6e3d
00000020: 3532 c1bd b269 f0be e29a 543e da3b 9c3c
00000030: e332 ee3d 7812 763d 66aa 87bd 2c8f 6fbe

layers.2.weight f4 [8, 16]
-0.03651663 0.035308823 -0.03480072 -0.03349846 -0.026936537 0.029521108 0.03129943 0.028642477
0.027643848 0.039799966 -0.03653543 -0.029835613 -0.030339204 -0.030841727 0.02983031 0.036660545
-0.036835548 0.045360755 -0.03688175 -0.040826093 -0.03362725 0.0320554 0.037999116 0.032443546
0.028603625 0.036783952 -0.036537003 -0.035775535 -0.031754717 -0.028457193 0.032725874 0.04364458
-1.3522633 1.3214254 0.082732156 -1.2766546 0.14577007 -0.080119856 -0.115472585 -0.121550985
-0.10020885 1.3831044 0.105317906 0.1630278 0.098927 0.14551973 -0.06798118 -0.08769864
0.074203 -0.07678558 -1.8563813 0.072891675 -2.640636 2.5793555 1.8986953 2.3218977
1.7530643 -0.08128407 -1.669128 -2.6130037 -2.2190168 -2.3004756 2.5310645 1.3259952
1.348871 -1.3045934 -0.11002136 1.2606844 -0.11378645 0.12896545 0.086067274 0.18025622
0.0917558 -1.3170569 -0.086434774 -0.102725536 -0.10626874 -0.116673104 0.13068299 0.09146816
-0.09066616 0.0807642 1.9177704 -0.09359562 2.6783605 -2.475167 -1.607091 -2.5023959
-1.9627324 0.08940937 1.4862543 2.374557 2.3497415 2.4109185 -2.4855628 -1.6218053
0.097252145 -0.086559 -2.1100194 0.0884332 -2.303387 2.4316614 2.0359569 2.2318645
1.9731061 -0.094524786 -1.4979132 -2.5430202 -1.9572296 -2.5724216 2.6745965 1.6622442
0.10855652 -0.09988315 -1.9925978 0.107866324 -2.5833247 2.5758293 1.6924647 2.242174
2.0307 -0.099982105 -1.7602216 -2.5079298 -2.3951938 -2.1864934 2.6041994 1.6112835
00000000: 7692 15bd fc9f 103d 338b 0ebd ae35 09bd
00000010: 03aa dcbc 40d6 f13c d533 003d a1a3 ea3c
00000020: 5a75 e23c 4a05 233d 2da6 15bd d169 f4bc
00000030: ec89 f8bc caa7 fcbc b25e f43c 5e29 163d
00000040: dfe0 16bd 33cc 393d 5111 17bd 4339 27bd
00000050: babc 09bd 864c 033d f6a4 1b3d 86e3 043d
00000060: 2652 ea3c c5aa 163d d3a7 15bd 5e89 12bd
00000070: 3c11 02bd 0f1f e9bc 910b 063d a9c4 323d
00000080: f716 adbf 7824 a93f 7a6f a93d 6b69 a3bf
00000090: c044 153e e115 a4bd e47c ecbd b9ef f8bd
000000a0: 4c3a cdbd 9109 b13f eab0 d73d c2f0 263e
000000b0: 3d9a ca3d 2003 153e b839 8bbd 589b b3bd
000000c0: bef7 973d c241 9dbd e79d edbf 3b48 953d
000000d0: 2e00 29c0 2914 2540 7308 f33f f999 1440
000000e0: 6964 e03f 4378 a6bd fca5 d5bf 743b 27c0
000000f0: 5f04 0ec0 fe3a 13c0 f6fc 2140 36ba a93f
00000100: cea7 ac3f ebfc a6bf e152 e1bd 1b5e a13f
00000110: df08 e9bd 850f 043e 0a44 b03d 1695 383e
00000120: 77ea bb3d 5295 a8bf b704 b1bd c461 d2bd
00000130: 6da3 d9bd 4ff2 eebd c3d1 053e a953 bb3d
00000140: 2eaf b9bd b367 a53d 8079 f53f 0faf bfbd
00000150: 426a 2b40 2369 1ec0 28b5 cdbf 4127 20c0
00000160: d13a fbbf 431c b73d 953d be3f bef8 1740
00000170: 2a62 1640 7d4c 1a40 7613 1fc0 5197 cfbf
00000180: 222c c73d d845 b1bd 8f0a 07c0 771c b53d
00000190: b16a 13c0 57a0 1b40 1e4d 0240 ded6 0e40
000001a0: be8e fc3f 3696 c1bd 9fbb bfbf d8c0 22c0
000001b0: 8086 fabf 8ea2 24c0 972c 2b40 6bc4 d43f
000001c0: e152 de3d 898f ccbd 720d ffbf 05e9 dc3d
000001d0: 3155 25c0 63da 2440 afa2 d83f c77f 0f40
000001e0: fdf6 0140 6bc3 ccbd f14e e1bf ec81 20c0
000001f0: db4a 19c0 82ef 0bc0 34ab 2640 8a3e ce3f

layers.2.bias f4 [8]
0.23147313 0.24087684 -0.73839366 -0.2595811 0.79635316 0.32074738 -0.31555957 -0.344637
00000000: 4b07 6d3e 6ba8 763e 5e07 3dbf d0e7 84be
00000010: cddd 4b3f 0039 a43e 0691 a1be 4374 b0be

output.weight f4 [1, 8]
0.28326455 0.2629001 0.04273485 0.07829824 -0.040203393 -0.07510911 0.07605628 0.077550374
00000000: 0d08 913e d89a 863e bd0a 2f3d d45a a03d
00000010: 50ac 24bd ced2 99bd 65c3 9b3d bbd2 9e3d
