vanilla_gan/19-02-23_23-00/generator.pt (torch_old, 5869 bytes, 7 tensors)

layers.0.weight f4 [16, 1]
0.26080704 0.8713658 1.0298718 -0.8588266 -0.8851806 -0.9188402 0.73844075 -0.08913956
0.29547632 0.41443643 0.59145284 0.43246415 -0.8462006 0.81399757 0.62566817 -0.08453609
00000000: 8088 853e d411 5f3f d7d2 833f 0fdc 5bbf
00000010: 329b 62bf 1d39 6bbf 740a 3d3f cd8e b6bd
00000020: ac48 973e 0331 d43e 7469 173f f16b dd3e
00000030: 9aa0 58bf 2562 503f ca2b 203f 4221 adbd

layers.0.bias f4 [16]
-0.5487396 -0.21516594 0.7513986 0.69114393 0.035064302 -0.12358612 0.72192943 -0.47255933
0.1841839 0.36800328 0.88695925 0.68930036 -0.470268 -0.035628572 0.46205094 0.88077366
00000000: 337a 0cbf 7654 5cbe a95b 403f cfee 303f
00000010: 969f 0f3d b81a fdbd 5ed0 383f 4cf3 f1be
00000020: b49a 3c3e ed6a bc3e c30f 633f fd75 303f
00000030: f8c6 f0be 44ef 11bd f191 ec3e 627a 613f

layers.1.weight f4 [32, 16]
-0.11520464 -0.34861618 -0.051924646 0.3038565 0.3910315 -0.06328743 0.2305363 -0.012145715
0.0065177963 0.06941511 0.08642777 0.03967307 -0.11955704 -0.18370302 -0.19538677 0.06996908
-0.28562298 -0.11600198 -0.124136694 0.17255579 -0.10824191 0.06673257 0.091858245 -0.28799096
0.10240718 0.09463911 0.25097084 0.21147525 -0.15234871 0.09497625 0.0061636576 0.13680543
0.118482225 -0.08497289 -0.07702177 0.06668957 0.09186906 -0.02563044 -0.024643835 -0.037073556
0.15988624 -0.23362748 0.12237425 -0.2424943 0.262098 0.031832237 -0.091818586 0.020886496
0.085751556 0.09800254 -0.0728973 0.08071251 0.0051766788 0.019245356 -0.17842412 0.09041021
-0.22400013 -0.18497954 -0.19104451 -0.09063802 0.2898312 -0.05652537 0.07351807 -0.17619373
-0.055421505 -0.28525662 0.09226346 0.22533846 0.18931146 0.21029113 -0.11652995 -0.10483092
-0.041072328 0.20992391 -0.0772011 -0.032266714 -0.047972605 -0.23285669 0.11904024 0.034824774
0.14040034 0.13777392 0.12060345 -0.20974441 -0.37722307 -0.33716714 -0.017726984 -0.05980752
0.08151253 0.0028312437 -0.20149775 -0.1533161 0.06542255 0.08808822 -0.040430523 0.10588882
0.14472815 -0.30125847 0.10150714 0.4158227 0.0038529031 0.051218316 -0.18339318 -0.012357169
-0.18454362 -0.2606654 0.03622026 0.106099956 -0.18639618 0.106643416 -0.256675 0.17172945
-0.34622547 0.051782284 0.12332736 -0.038610674 0.22487745 0.058020838 0.03458839 0.1688537
0.120119154 -0.12954016 -0.19766866 0.01670951 0.22596268 -0.1742355 -0.23461172 -0.10560625
-0.067585826 -0.22132954 0.121518664 0.055895653 0.110824466 0.2819915 -0.03423453 0.07369971
0.006025775 -0.15386598 -0.08044053 0.0785647 0.24662845 0.041697558 0.19687082 0.013971182
-0.024802309 -0.22343172 0.04746123 0.4851829 0.26130036 0.10956269 -0.1266252 -0.10541363
-0.11445879 -0.12127629 0.23775372 0.03135312 -0.19321074 -0.028225936 0.08130007 -0.105380185
-0.07557149 0.30419782 -0.14296822 -0.2963444 -0.08493445 -0.3170177 0.15947805 -0.009589283
-0.17371462 -0.09749912 -0.13597348 -0.22789784 0.055645477 0.15936095 -0.03949849 0.15083648
-0.09730758 -0.15046878 0.32209903 0.51488495 0.34937426 -0.009246835 0.039046828 -0.0886276
-0.16414838 0.050252263 0.025191367 -0.08070162 0.16090047 0.055127338 -0.07005644 0.17787078
0.0053948024 0.2878276 -0.04085521 -0.24300197 -0.11566687 -0.101069435 0.16655667 -0.012984509
-0.05136827 -0.032824602 -0.24987446 -0.113063954 0.0489109 0.2590956 0.019994268 0.06542176
-0.2772906 -0.44985458 0.29554397 0.4196581 0.13077505 0.32078192 0.08511586 0.04507023
-0.11687646 0.19029827 0.06960772 -0.12255867 0.04662115 0.03309055 -0.1959485 0.025433548
0.049342137 0.51499975 0.10903052 -0.2815527 -0.12361757 -0.3671831 0.0005282913 0.39857712
0.16928117 0.13310686 0.028681256 -0.26355988 0.25631142 0.38750115 -0.14758606 -0.03830966
0.11183295 0.080600664 0.25680807 0.0143361 0.043764506 0.022666337 0.123457514 0.19329756
-0.13215694 -0.10109573 0.036873247 0.06871843 -0.25043228 0.032133292 0.266979 -0.17252372
00000000: 69f0 ebbd d27d b2be f0ae 54bd 1493 9b3e
00000010: 4835 c83e d79c 81bd b511 6c3e d2fe 46bc
00000020: 3d93 d53b 8229 8e3d 0b01 b13d 3b80 223d
00000030: 52da f4bd a51c 3cbe 7813 48be f34b 8f3d
00000040: 2d3d 92be 7292 edbd 613b febd 77b2 303e
00000050: efad ddbd 16ab 883d 2d20 bc3d 8d73 93be
00000060: dbba d13d 26d2 c13d 407f 803e f88c 583e
00000070: 4d01 1cbe e882 c23d 82f8 c93b b916 0c3e
00000080: cfa6 f23d 4406 aebd 97bd 9dbd 8b94 883d
00000090: d925 bc3d eef6 d1bc dee1 c9bc 71da 17bd
000000a0: 38b9 233e 0b3c 6fbe 5a9f fa3d 6d50 78be
000000b0: b631 863e 8562 023d 620b bcbd 281a ab3c
000000c0: 839e af3d 8eb5 c83d 2e4b 95bd 9a4c a53d
000000d0: 21a1 a93b 70a8 9d3c d0b4 36be fd28 b93d
000000e0: 4a60 65be 476b 3dbe 2ca1 43be 6da0 b9bd
000000f0: c164 943e 2587 67bd a490 963d 216c 34be
00000100: a901 63bd 280d 92be a0f4 bc3d 20bf 663e
00000110: ddda 413e 8f56 573e 41a7 eebd 98b1 d6bd
00000120: 753b 28bd 4bf6 563e 9c1b 9ebd 1a2a 04bd
00000130: ec7e 44bd fc71 6ebe 5fcb f33d 6ca4 0e3d
00000140: 1bc5 0f3e 9b14 0d3e f1fe f63d 3dc7 56be
00000150: 6223 c1be 2ca1 acbe 2e38 91bc bbf8 74bd
00000160: 0bf0 a63d 638c 393b 6d55 4ebe e5fe 1cbe
00000170: 42fc 853d 9967 b43d 7a9a 25bd 3ddc d83d
00000180: 9e33 143e 8d3e 9abe fae2 cf3d b7e6 d43e
00000190: fd80 7c3b 4cca 513d 6ccb 3bbe b975 4abc
000001a0: 01f9 3cbe ef75 85be b25b 143d ef4a d93d
000001b0: a4de 3ebe dd67 da3d e86a 83be d8d9 2f3e
000001c0: 7744 b1be a919 543d 0e93 fc3d 3a26 1ebd
000001d0: 4646 663e 42a7 6d3d 8eac 0d3d fce7 2c3e
000001e0: 0801 f63d 2da6 04be a769 4abe 62e2 883c
000001f0: c362 673e ca6a 32be 0e3e 70be 1748 d8bd
00000200: 706a 8abd 36a4 62be c7de f83d d7f2 643d
00000210: f0f7 e23d 3161 903e 8239 0cbd e0ef 963d
00000220: dd73 c53b 0b8f 1dbe 01be a4bd 88e6 a03d
00000230: 2b8c 7c3e 0fcb 2a3d 8198 493e 62e7 643c
00000240: 362e cbbc 49cb 64be b566 423d e569 f83e
00000250: 29c9 853e 6762 e03d 09aa 01be 1ae3 d7bd
00000260: 5f69 eabd b45f f8bd b675 733e 216c 003d
00000270: 09d9 45be 143a e7bc a780 a63d 91d1 d7bd
00000280: 3ac5 9abd d1bf 9b3e 4366 12be 74ba 97be
00000290: 1df2 adbd 2550 a2be 374e 233e 5e1c 1dbc
000002a0: 3fe2 31be 9ead c7bd a23c 0bbe 0d5e 69be
000002b0: 83ec 633d 842f 233e 2bc9 21bd e174 1a3e
000002c0: 3249 c7bd 7d14 1abe 2aea a43e 80cf 033f
000002d0: 2fe1 b23e 0980 17bc 91ef 1f3d 6382 b5bd
000002e0: 8316 28be 51d5 4d3d 205e ce3c e446 a5bd
000002f0: 18c3 243e 34cd 613d c079 8fbd c223 363e
00000300: e2c6 b03b 245e 933e cb57 27bd 82d5 78be
00000310: c0e2 ecbd 7efd cebd d58d 2a3e fabc 54bc
00000320: 8967 52bd 1773 06bd 17df 7fbe 138e e7bd
00000330: cc56 483d 2ea8 843e 05cb a33c d8fb 853d
00000340: 09f9 8dbe 5753 e6be 8a51 973e 6ddd d63e
00000350: e5e9 053e 873d a43e 3951 ae3d 909b 383d
00000360: ed5c efbd 8ddd 423e 7e8e 8e3d 0a00 fbbd
00000370: d2f5 3e3d f589 073d b9a6 48be 045a d03c
00000380: fb1a 4a3d 06d7 033f 654b df3d ad27 90be
00000390: 352b fdbd 6cff bbbe 077d 0a3a 4d12 cc3e
000003a0: 0b58 2d3e 2a4d 083e f4f4 ea3c 52f1 86be
000003b0: 403b 833e 8d66 c63e cd20 17be 97ea 1cbd
000003c0: ac08 e53d f611 a53d 597c 833e f6e1 6a3c
000003d0: 6942 333d c1ae b93c 4bd7 fc3d ccef 453e
000003e0: 2654 07be 470b cfbd 6708 173d 40bc 8c3d
000003f0: a938 80be 339e 033d 79b1 883e 0faa 30be

layers.1.bias f4 [32]
0.09729346 -0.0033139593 0.060507312 0.14341481 -0.030518688 -0.18345784 0.01873263 0.24265489
-0.12242887 -0.10415072 0.11122949 -0.059544366 0.13606775 0.16948466 -0.324781 0.16103226
-0.29057267 0.0768199 0.31672624 -0.14516644 0.023842257 -0.04969232 0.057155166 0.1778959
0.19201529 -0.12727252 0.17277369 -0.13877775 0.22385131 -0.11694814 -0.11763351 -0.016595976
00000000: cb41 c73d 032f 59bb 84d6 773d 55db 123e
00000010: 5402 fabc 5fdc 3bbe 2c75 993c 867a 783e
00000020: fdbb fabd f94c d5bd 49cc e33d cbe4 73bd
00000030: 5855 0b3e 638d 2d3e b249 a6be a4e5 243e
00000040: f1c5 94be c053 9d3d f129 a23e 83a6 14be
00000050: d650 c33c 2d8a 4bbd 891b 6a3d 582a 363e
00000060: a89f 443e ba53 02be 96eb 303e c11b 0ebe
00000070: 4739 653e 8282 efbd d6e9 f0bd 49f4 87bc

layers.2.weight f4 [16, 32]
-0.34570134 -0.18779583 0.057895597 0.1759241 -0.2708039 0.23861645 -0.11290325 -0.18894646
0.10233445 0.021776855 0.25618753 -0.16002703 -0.02522745 -0.37909374 0.21039756 0.08672265
0.002324777 0.22171716 -0.35381156 -0.23254447 -0.15769234 -0.1143222 -0.14448139 0.061033547
0.00639412 0.19027083 0.22758822 -0.0009472604 -0.03147926 -0.13775279 -0.12110411 -0.106014796
0.097382374 -0.10844442 0.09417149 0.125054 0.15838239 -0.114138365 0.27380008 0.06687639
0.1769342 -0.0404181 -0.13797964 0.19930527 -0.27843675 0.2952974 -0.03851466 -0.07057465
-0.20291415 0.053436305 -0.0037817783 0.26308575 -0.02550317 0.094646424 0.175661 0.012609152
-0.06584533 0.0045125 -0.13808125 -0.1475147 0.00034772741 0.1268182 -0.01487008 0.2152748
-0.04129141 0.1898352 0.015575079 0.02753429 -0.05937418 0.20336801 0.052692223 -0.016090885
-0.24443409 -0.24803752 0.17642295 0.06692162 0.016452122 -0.011560357 -0.050060797 0.15513192
-0.025357591 0.15498205 0.04895409 -0.2531883 -0.025315903 -0.03804412 0.068333626 -0.13262287
0.26819783 0.23015118 0.2748863 -0.03181744 0.21614897 -0.08683459 -0.16311449 -0.06060794
-0.34421748 0.08420417 -0.15736158 -0.1640146 0.058169376 0.14434302 -0.21385208 0.02334136
-0.18020989 0.04045076 0.20976722 -0.044411134 -0.07494889 -0.3217343 0.24471821 0.035326183
0.090686485 0.049844902 -0.21714187 0.029094508 -0.17805938 0.08255294 0.05395061 -0.16957137
0.2052543 0.20691922 0.19580624 -0.088542454 -0.12116132 -0.023104703 -0.078471586 -0.092358746
0.14302431 0.047749124 0.054652166 0.1751343 0.17919673 -0.11397368 0.24144013 0.2589648
0.12788557 -0.030830111 0.026268397 0.02919692 -0.15323126 0.12556139 -0.057577327 0.10511537
-0.04301919 0.037183255 0.27821982 0.12893021 -0.038018364 0.08978772 0.18581632 0.19560611
-0.104361586 -0.16129582 -0.057250734 -0.15264131 -0.04062088 -0.00062030065 -0.057483915 0.087666266
-0.15502849 -0.036390327 -0.13519418 0.015040422 -0.0074889725 0.08481731 -0.29221183 -0.23809545
-0.10282457 -0.019118724 0.30343628 -0.23390642 -0.0643498 -0.34163728 0.081805535 -0.08745014
0.27371392 0.06502414 -0.30402872 -0.1443416 0.016219418 -0.17653291 0.08252861 0.10188377
0.0077266125 0.11410745 0.09299723 0.23773317 0.09814393 -0.07827216 -0.13152032 -0.0385902
-0.32101429 -0.022242954 -0.20605665 -0.18833503 -0.01360704 0.27254385 -0.2168301 0.07343159
-0.07721706 -0.21616216 0.07396947 -0.18861976 0.18455039 0.003989288 0.26767343 -0.04848557
0.26544872 0.1680848 -0.11947051 0.08369988 -0.052381348 0.12201245 -0.186707 -0.14393857
-0.06880958 -0.07683038 0.21099436 0.117961645 0.083025284 -0.1060225 -0.15089992 -0.12710693
-0.020812511 -0.1306141 0.26248184 0.13183533 0.21607175 -0.04025661 0.05117825 -0.010164075
-0.039785318 -0.029623602 -0.23607166 -0.056550354 -0.10611755 0.094243705 -0.054107364 -0.04010559
-0.220656 0.06483993 -0.007633043 0.12612954 0.20907189 0.15321036 0.22014235 -0.06469474
-0.19891877 0.04652066 -0.13914244 -0.20415579 0.031860974 -0.042182427 0.16054371 0.16513169
00000000: c4ff b0be 8d4d 40be ef23 6d3d 7325 343e
00000010: cfa6 8abe df57 743e d239 e7bd 2e7b 41be
00000020: b994 d13d 6065 b23c 032b 833e 20de 23be
00000030: cca9 cebc 9318 c2be 7572 573e a59b b13d
00000040: 495b 183b d309 633e ca26 b5be 2320 6ebe
00000050: 1a7a 21be c221 eabd eef2 13be 50fe 793d
00000060: c485 d13b 5bd6 423e e30c 693e 9251 78ba
00000070: 66f0 00bd 110f 0dbe 6e05 f8bd 491e d9bd
00000080: 6970 c73d 1c18 debd fbdc c03d 280e 003e
00000090: fe2e 223e 60c1 e9bd 862f 8c3e 7df6 883d
000000a0: 3d2e 353e 738d 25bd 894a 0dbe ae16 4c3e
000000b0: 438f 8ebe 3931 973e 8cc1 1dbd 7189 90bd
000000c0: bac8 4fbe 07e0 5a3d b6d7 77bb 2db3 863e
000000d0: 06ec d0bc fcd5 c13d 7ae0 333e 9e96 4e3c
000000e0: ebd9 86bd 98dd 933b 2c65 0dbe 180e 17be
000000f0: 2f4f b639 a1dc 013e a3a1 73bc ff70 5c3e
00000100: 2e21 29bd 2964 423e 9e2e 7f3c 978f e13c
00000110: 5732 73bd b43f 503e cdd3 573d 08d1 83bc
00000120: ee4c 7abe 8cfd 7dbe 38a8 343e 340e 893d
00000130: 9ac6 863c a767 3dbc 8d0c 4dbd e7da 1e3e
00000140: b9ba cfbc 9db3 1e3e 1584 483d e6a1 81be
00000150: 4c63 cfbc 27d4 1bbd 80f2 8b3d 4ace 07be
00000160: 3a51 893e c0ac 6b3e e6bd 8c3e 0153 02bd
00000170: 2856 5d3e 55d6 b1bd 7c07 27be 0840 78bd
00000180: 463d b0be 3c73 ac3d 6523 21be 71f3 27be
00000190: 0343 6e3d a8ce 133e 0afc 5abe 6136 bf3c
000001a0: f188 38be b2af 253d 38cd 563e 73e8 35bd
000001b0: ce7e 99bd 5cba a4be 6997 7a3e 30b2 103d
000001c0: d6b9 b93d 2b2a 4c3d 705a 5ebe 9b57 ee3c
000001d0: 3355 36be 8411 a93d 51fb 5c3d 1ea4 2dbe
000001e0: 2f2e 523e a2e2 533e 6e81 483e bf55 b5bd
000001f0: 6d23 f8bd 1346 bdbc b6b5 a0bd 9526 bdbd
00000200: f774 123e 9694 433d f3da 5f3d 6856 333e
00000210: 597f 373e 086b e9bd 153c 773e 0997 843e
00000220: 6ff4 023e 6e8f fcbc d230 d73c 612e ef3c
00000230: a8e8 1cbe 2a93 003e 34d6 6bbd ba46 d73d
00000240: e434 30bd 784d 183d d472 8e3e 4806 043e
00000250: 25b9 1bbd a0e2 b73d a246 3e3e f84c 483e
00000260: 87bb d5bd bb2a 25be bf7f 6abd 014e 1cbe
00000270: 1462 26bd ac9b 22ba 4174 6bbd 5f8a b33d
00000280: cabf 1ebe 060e 15bd 5870 0abe 1a6c 763c
00000290: 0e66 f5bb b3b4 ad3d ca9c 95be 4bcf 73be
000002a0: b095 d2bd df9e 9cbc 005c 9b3e 2a85 6fbe
000002b0: d4c9 83bd 15eb aebe a989 a73d 0f19 b3bd
000002c0: 3b24 8c3e 602b 853d a7a9 9bbe 49ce 13be
000002d0: 96de 843c 0bc5 34be c304 a93d 70a8 d03d
000002e0: 862f fd3b 2bb1 e93d 5575 be3d 5370 733e
000002f0: afff c83d 274d a0bd 43ad 06be c210 1ebd
00000300: fc5b a4be db36 b6bc 8400 53be e6da 40be
00000310: 10f0 5ebc de8a 8b3e b608 5ebe 4d63 963d
00000320: fa23 9ebd 9d59 5dbe 4e7d 973d 8a25 41be
00000330: c7fa 3c3e 93b8 823b 7e0c 893e ce98 46bd
00000340: e5e8 873e 6c1e 2c3e f4ac f4bd d86a ab3d
00000350: d38d 56bd aae1 f93d 1f30 3fbe a264 13be
00000360: 09ec 8cbd 3f59 9dbd e80e 583e e095 f13d
00000370: 2909 aa3d 5322 d9bd 8285 1abe 5228 02be
00000380: 007f aabc b4bf 05be 0564 863e d7ff 063e
00000390: ea41 5d3e 1de4 24bd 49a0 513d 3887 26bc
000003a0: eef5 22bd 32ad f2bc c5bc 71be 58a1 67bd
000003b0: 2854 d9bd d802 c13d af9f 5dbd c245 24bd
000003c0: a5f3 61be ccca 843d 9b1e fabb 1a28 013e
000003d0: f116 563e 2de3 1c3e ff6c 613e ad7e 84bd
000003e0: 5db1 4bbe 738c 3e3d 5b7b 0ebe 370e 51be
000003f0: a780 023d 7bc7 2cbd 9265 243e 4818 293e

layers.2.bias f4 [16]
-0.1534235 0.08645709 0.06950314 0.15633686 0.04164575 -0.16177708 -0.15308955 -0.18895975
0.11092539 -0.16149965 0.09649057 -0.044201054 -0.1335774 -0.14771494 0.070342556 -0.04163574
00000000: 0d1b 1dbe 6a10 b13d aa57 8e3d c516 203e
00000010: bc94 2a3d e4a8 25be 82c3 1cbe aa7e 41be
00000020: da2c e33d 2a60 25be d99c c53d 2a0c 35bd
00000030: 84c8 08be 9642 17be c20f 903d 3d8a 2abd

output.weight f4 [1, 16]
0.21020287 -0.19918641 0.37841052 0.34543854 -0.42453572 0.35917723 0.41710308 -0.31637642
0.38246077 -0.26855138 -0.24324875 0.34027553 -0.32287213 -0.35263526 -0.24431202 0.29664594
00000000: 6c3f 573e 86f7 4bbe 06bf c13e 52dd b03e
00000010: bf5c d9be 14e6 b73e 898e d53e 17fc a1be
00000020: e6d1 c33e 917f 89be 3316 79be 9838 ae3e
00000030: 7f4f a5be 9c8c b4be ee2c 7abe fae1 973e
