GAN/results/discriminator.pt (torch_old, 3310 bytes, 7 tensors)

layers.0.weight f4 [16, 1]
0	0x3f15af58	0.5847068
1	0x3eb01296	0.3438918
2	0x3f4361e1	0.76321226
3	0x3e483ca9	0.1955439
4	0x3f071b95	0.5277646
5	0xbf1a6a90	-0.6031885
6	0x3e6f6d9e	0.2338166
7	0x3d9da0ea	0.076967075
8	0x3e134fd5	0.14385922
9	0x3cfb1c42	0.030653123
10	0xbdbbdd22	-0.09173037
11	0xbf62312b	-0.88356274
12	0xbe4cf47f	-0.20015143
13	0x3f422491	0.75837046
14	0xbf2a2d74	-0.66475606
15	0x3f19dcdf	0.6010265

layers.0.bias f4 [16]
0	0xbf84dc93	-1.0379814
1	0x3f15f850	0.5858202
2	0x3e42cda7	0.19023763
3	0xbf0357f1	-0.5130606
4	0xbf84b3cf	-1.0367373
5	0x3e94f139	0.29090288
6	0xbc1d96bb	-0.0096184565
7	0x3e17ab89	0.14811529
8	0x3e30dfaf	0.17272829
9	0x3f22058a	0.632897
10	0x3f761fe5	0.9614242
11	0x3eab0035	0.33398595
12	0x3f388ba6	0.72088087
13	0x3f612659	0.8794914
14	0x3dc00537	0.09375995
15	0xbed30e32	-0.41221768

layers.1.weight f4 [16, 16]
0	0xbdfbd9bf	-0.12297391
1	0xbe535927	-0.20639478
2	0xbe2f75e5	-0.17134817
3	0xbe1155f3	-0.14192943
4	0xbd97e68e	-0.07417022
5	0x3e516ec5	0.20452411
6	0xbe66bbe9	-0.2253262
7	0xbe13a551	-0.14418532
8	0x3e3ddabf	0.18540476
9	0xbb19d7d1	-0.0023474584
10	0xbcd8d779	-0.026469933
11	0x3e5f7170	0.21820617
12	0x3c816faa	0.015800316
13	0xbd3e8f2d	-0.04652326
14	0xbd94be08	-0.07262808
15	0x3d590909	0.052987132
16	0xbdbc4fed	-0.09194932
17	0xbc88d38c	-0.016702436
18	0xbd17dae4	-0.037073985
19	0x3d671539	0.056416724
20	0xbd888ca9	-0.06667454
21	0x3ce31ae4	0.027722783
22	0xbe2cb384	-0.16865355
23	0x3e5b255d	0.21400972
24	0x3e1569ed	0.14591189
25	0x3db96b29	0.09053642
26	0x3e64bf2a	0.22338548
27	0x3c9b670d	0.018970037
28	0x3eb8e69f	0.3611345
29	0x3c9522d4	0.018205084
30	0xbc2c60d1	-0.01052113
31	0xbd874ec4	-0.0660682
32	0x3ddef782	0.10887052
33	0xbd43d454	-0.047809914
34	0xbcbc40cc	-0.022980116
35	0x3da5c57d	0.080943085
36	0xbc88d798	-0.016704366
37	0xbe167932	-0.1469467
38	0x3e2c6ee0	0.1683917
39	0x3e0af4ad	0.13569899
40	0xbe263aa8	-0.16233313
41	0x3e710d39	0.235402
42	0x3e75426e	0.23951122
43	0x3e0f25dd	0.13979287
44	0xbd582717	-0.052771654
45	0xbdbdb66c	-0.0926331
46	0xbe049e87	-0.12951098
47	0xbe64880c	-0.22317523
48	0x3d49a2f6	0.049227677
49	0xbc59ebf1	-0.013300882
50	0x3cab476e	0.020908084
51	0x3da88428	0.08228332
52	0x3e5c256f	0.21498655
53	0xbe3105fe	-0.17287442
54	0x3df731a8	0.12070018
55	0xbcd6b4cf	-0.026209263
56	0xbe7f894f	-0.24954723
57	0x3d169893	0.0367666
58	0xbe370a98	-0.17875135
59	0xbba9b474	-0.0051789824
60	0xbe67179e	-0.22567603
61	0xbc72a896	-0.014810702
62	0xbd05fa71	-0.032709543
63	0x3d1378a7	0.036003735
64	0xbe2ff209	-0.17182173
65	0xbe2453e4	-0.16047627
66	0xbcd14c02	-0.025548939
67	0x3e529b7a	0.20567122
68	0x3d177b1d	0.036982644
69	0x3e1173d5	0.14204343
70	0x3da7f3eb	0.082008205
71	0x3e47a114	0.1949504
72	0xbe5c37bd	-0.21505637
73	0x3e1ea771	0.15493561
74	0x3d84b527	0.064798646
75	0x3e80e4e0	0.25174618
76	0xbcb667d6	-0.02226631
77	0x3c02a1a6	0.00797311
78	0x3e3c25ae	0.18373749
79	0x3defaf69	0.11703379
80	0xbd4e19f2	-0.050317712
81	0xbde81edb	-0.1133401
82	0x3d004965	0.031319994
83	0x3e8986e8	0.26860738
84	0x3d6f59bf	0.058435198
85	0xbe392888	-0.18081868
86	0x3e47574f	0.194669
87	0xbe7405f7	-0.238304
88	0x3e11a251	0.14222075
89	0xbe35e5be	-0.17763421
90	0xbe44d454	-0.19221622
91	0xbdf16257	-0.11786335
92	0xbd932cf6	-0.0718631
93	0xbdff3893	-0.124619626
94	0x3e5a9fb2	0.21349981
95	0xbe339f46	-0.17541227
96	0xbd120004	-0.035644546
97	0x3c371527	0.011174477
98	0xbe5e9555	-0.21736653
99	0x3da3fd05	0.08007244
100	0xbdf0bf06	-0.11755185
101	0x3cf82eda	0.030295778
102	0x3d5e76de	0.05431258
103	0xbe80dd46	-0.25168818
104	0xbdadbb50	-0.08482993
105	0xbe8e9551	-0.27848294
106	0x3e38b29d	0.18036886
107	0x3e1157f0	0.14193702
108	0xbe288a90	-0.16459107
109	0xbe898744	-0.26861012
110	0xbd6d8d93	-0.057996344
111	0xbce1b790	-0.02755335
112	0x3ddb3aa1	0.10704542
113	0x3d100550	0.035161316
114	0xbd14e6b6	-0.036352836
115	0x3cfbe2b2	0.030747745
116	0x3e1b9bca	0.15196148
117	0x3e6faa6f	0.23404859
118	0x3c2c0096	0.010498187
119	0xbcc5cd07	-0.024145616
120	0xbe4d3feb	-0.20043914
121	0x3df01c8a	0.117241934
122	0xbd2686b5	-0.04065581
123	0x3adff913	0.001708778
124	0x3e38a507	0.18031703
125	0xbc68400c	-0.014175426
126	0x3da3ce39	0.07998318
127	0x3de269f0	0.11055362
128	0x3e1d426f	0.15357374
129	0xbd9e66a7	-0.07734423
130	0xbe56d0e2	-0.2097812
131	0x3b4b996b	0.0031066786
132	0xbe0cc4db	-0.1374697
133	0x3e72ea81	0.23722269
134	0xbd2c6a4a	-0.042093553
135	0xbe3ffb48	-0.187482
136	0x3b8da6bf	0.004322856
137	0xbddb3f3a	-0.10705419
138	0xbda8e9a6	-0.0824769
139	0xbe0312b9	-0.12800111
140	0x3e7072a3	0.2348123
141	0xbd8fbf31	-0.07018889
142	0xbdc080d4	-0.09399572
143	0xbe6a7a63	-0.2289825
144	0xba0403aa	-0.00050359464
145	0x3e2a17da	0.16610661
146	0xbd7d1791	-0.061790053
147	0x3e9ab628	0.302171
148	0x3e13a2c0	0.14417553
149	0xbd32d07d	-0.04365586
150	0xbd8c74fa	-0.06858249
151	0xbc94bca1	-0.018156352
152	0x3e8652ba	0.2623499
153	0xbd83afdc	-0.06430027
154	0xbe2a168e	-0.16610166
155	0x3d808e97	0.06277197
156	0xbea5b816	-0.3236701
157	0xbe0ad975	-0.13559516
158	0x3e1b7d2d	0.1518447
159	0xbe15bfc6	-0.14623937
160	0x3e34ccaa	0.17656198
161	0x3d365043	0.044510137
162	0x3d93d717	0.072187595
163	0xbd1e99b3	-0.038720798
164	0xbe56cabd	-0.20975776
165	0xbdfe06db	-0.12403651
166	0x3e1e72e8	0.15473521
167	0x3e4c03cb	0.19923322
168	0xbe49c4c1	-0.19703962
169	0xbdae604c	-0.08514461
170	0x3ca9c5af	0.020724146
171	0x3e080fa1	0.13287212
172	0xbdef40e8	-0.11682302
173	0x3da19d0a	0.07891281
174	0x3df9142c	0.121620506
175	0xbe05360f	-0.13008903
176	0x3dd0a266	0.10187225
177	0x3da527a6	0.08064203
178	0x3e07292b	0.13199298
179	0x3db4c153	0.08825936
180	0xbdabf759	-0.08396787
181	0x3dc4c53e	0.096079335
182	0xbe836a31	-0.25666955
183	0x3e3c53dd	0.18391366
184	0xbe0dbda8	-0.1384188
185	0xbe3dbb7e	-0.18528554
186	0xbd13bbc2	-0.03606773
187	0x3d1dd890	0.03853661
188	0x3d5ec07c	0.054382786
189	0xbdc6c501	-0.09705544
190	0x3e2eef64	0.17083508
191	0x3ddf60c1	0.10907126
192	0x3a39835f	0.0007076766
193	0x3cca04a4	0.024660416
194	0x3c74b211	0.014935032
195	0x3e255a24	0.16147667
196	0xbe3498de	-0.17636439
197	0xbe36c3c9	-0.17848124
198	0xbe3684f6	-0.17824158
199	0x3e24acc6	0.16081533
200	0x3d9c475b	0.076307975
201	0x3db6deb4	0.08929196
202	0x3e3776c9	0.17916407
203	0xbcdee8b3	-0.027210569
204	0x3e9fe18b	0.31226763
205	0xbdafe8f6	-0.08589356
206	0xbe33c0a7	-0.1755396
207	0x3d83e114	0.064394146
208	0x3c804bb3	0.015661096
209	0xbe1b6e5d	-0.15178819
210	0x3dddb3d7	0.10825317
211	0x3d974267	0.07385712
212	0xbe53b3d8	-0.20674074
213	0xbdc20a2f	-0.094745986
214	0x3e12550e	0.14290258
215	0x3e423b89	0.18968023
216	0xbe8662ee	-0.26247352
217	0x3b9e8648	0.004837785
218	0xbe256101	-0.16150285
219	0x3d984bc3	0.074363254
220	0x3e02bf2f	0.12768243
221	0x3b6e1b28	0.0036332104
222	0xbe2cf6f0	-0.16891074
223	0x3d9e2b63	0.07723119
224	0xbdf190b4	-0.11795178
225	0x3e605a2b	0.21909396
226	0xbde77571	-0.11301697
227	0xbe41d39a	-0.18928376
228	0x3e0f6ad5	0.14005597
229	0xbde16e6a	-0.11007388
230	0xbe611467	-0.21980439
231	0xbe111113	-0.1416667
232	0x3d00d72b	0.0314552
233	0xbe1d3350	-0.15351605
234	0x3e1326de	0.14370295
235	0xbdc639a6	-0.09678964
236	0xbd617f8b	-0.055053275
237	0xbe52bbb8	-0.20579422
238	0xbdb0dedb	-0.08636256
239	0x3e1f4335	0.15552981
240	0xbdbf48a9	-0.09340031
241	0xbd381200	-0.04493904
242	0x3d630791	0.055427138
243	0xbd740782	-0.059577473
244	0x3d247df3	0.040159177
245	0x3e5d8a64	0.21634823
246	0xbd9b78b8	-0.07591385
247	0x3de31cc3	0.1108947
248	0xbe53fd5e	-0.2070212
249	0xbe13d573	-0.14436893
250	0xbe259383	-0.16169553
251	0xbe714eb4	-0.23565179
252	0x3eb38901	0.35065463
253	0xbc7a9fe5	-0.015296911
254	0xbe5a1d1f	-0.21300171
255	0x3db6fa93	0.08934512

layers.1.bias f4 [16]
0	0xbe14b468	-0.14521945
1	0x3c366ce2	0.011134358
2	0x3c96d03b	0.018409839
3	0xbd251218	-0.04030046
4	0x3e06a7d2	0.13149956
5	0xbc9b00d7	-0.018921299
6	0x3d7291cf	0.059221085
7	0xbe298c55	-0.16557439
8	0x3e69e3b7	0.22840773
9	0xbe82c774	-0.25542796
10	0x3dfe6552	0.12421669
11	0xbe52d326	-0.20588359
12	0x3e29a4b6	0.16566738
13	0x3deb64cc	0.11493835
14	0xbe357edb	-0.17724173
15	0xbe77e01b	-0.24206583

layers.2.weight f4 [8, 16]
0	0xbd83fbc1	-0.064445026
1	0xbd85a6c9	-0.06525952
2	0xbe0506c1	-0.12990858
3	0x3dadd47b	0.08487793
4	0xbd4abc34	-0.04949589
5	0x3d9516f7	0.07279771
6	0xbd2d3e48	-0.042295724
7	0x3e00830e	0.12549993
8	0xbd8af14d	-0.06784306
9	0x3e5dbc80	0.21653938
10	0x3d2c9594	0.042134836
11	0xbe17717d	-0.14789386
12	0xbd2049a8	-0.039132744
13	0xbdc3ff4b	-0.09570178
14	0xbd2a701d	-0.041610826
15	0x3e6b66ef	0.22988485
16	0x3e03299e	0.12808844
17	0xbdc27985	-0.09495834
18	0xbdd7eacc	-0.10542831
19	0x3db98479	0.0905847
20	0xbdae08b3	-0.08497753
21	0xbd9bd843	-0.07609608
22	0x3e4e391a	0.2013897
23	0xbe085027	-0.13311826
24	0x3cc9ce28	0.024634436
25	0x3d297d6f	0.04137939
26	0xbd2cf4a4	-0.042225495
27	0xbdd637c5	-0.10459856
28	0xbe29606b	-0.16540687
29	0x3e0fccb3	0.1404293
30	0x3dce2cdd	0.10067151
31	0xbe451488	-0.19246113
32	0x3b1628bc	0.0022912463
33	0x3c03dc35	0.008048107
34	0x3e443bed	0.19163485
35	0xbe666c87	-0.22502337
36	0x3e551c48	0.2081157
37	0xbe3fc8a9	-0.1872889
38	0x3dd3ec6e	0.1034783
39	0xbc93256b	-0.017962178
40	0x3e7fb1a4	0.24970108
41	0x3e50571b	0.20345728
42	0xbe63d408	-0.22248852
43	0xbdb6c1b5	-0.089236654
44	0x3cc686ff	0.024234293
45	0xbe7c2229	-0.24622406
46	0x3e5a08ea	0.21292463
47	0xbd651b6a	-0.055934347
48	0xbe519351	-0.20466353
49	0x3c11a8d3	0.0088903485
50	0xbcf259af	-0.02958378
51	0x3d9d33cc	0.07675895
52	0x3e1e1c07	0.15440379
53	0xbd897570	-0.067118526
54	0xbd9f2bb3	-0.07772007
55	0xbde227fc	-0.11042783
56	0xbba89ba4	-0.005145507
57	0xbd105fad	-0.035247494
58	0xbce2357d	-0.027613396
59	0x3e59fe4d	0.21288414
60	0xbd9e52b2	-0.07730617
61	0x3b06d1ef	0.0020571908
62	0x3cc41952	0.023937855
63	0xbe26cd9f	-0.16289376
64	0xbe05485d	-0.13015886
65	0x3ddde492	0.10834612
66	0xbcb1d941	-0.02171004
67	0xbe0cf164	-0.13763958
68	0xbe6970ba	-0.22796908
69	0x3db2713b	0.08713003
70	0x3e2310f7	0.1592444
71	0xbd6089c6	-0.05481889
72	0x3e5a6a51	0.21329619
73	0xbdae75c5	-0.085185565
74	0xbdc64bac	-0.09682402
75	0x3dd77900	0.10521126
76	0x3d32ffa8	0.043700844
77	0x3e01f792	0.12692097
78	0xbd91a16a	-0.071108654
79	0x3c100347	0.008789844
80	0xbd46037d	-0.04834317
81	0x3d0d2819	0.03446207
82	0xbe10f1bc	-0.14154714
83	0x3e294fbd	0.16534324
84	0x3e1ac06e	0.15112469
85	0x3e457724	0.1928373
86	0xbce25cf0	-0.027632207
87	0x3c89d7e8	0.016826585
88	0xbd9c28f6	-0.07625
89	0x3e345571	0.17610718
90	0xbdab5d6c	-0.08367428
91	0x3d038fd9	0.032119606
92	0xbd5e6cb4	-0.054302886
93	0x3d7dc5e0	0.061956286
94	0x3d646a12	0.05576522
95	0xbe220ccb	-0.15825193
96	0xbe2e0d92	-0.16997364
97	0x3d284a35	0.041086394
98	0x3cc3ced1	0.023902329
99	0xbddc89ee	-0.107684955
100	0xbdabbe27	-0.08385878
101	0x3e2bd0df	0.16778897
102	0x3dc2f2e9	0.09518988
103	0x3e264877	0.1623858
104	0x3e6064c8	0.21913445
105	0xbde09828	-0.109665215
106	0xbe1b1836	-0.15145954
107	0xbdf2a5fd	-0.11848066
108	0xbd468e93	-0.048475813
109	0x3db7214b	0.08941897
110	0xbd33fd5b	-0.04394279
111	0x3daaca18	0.083393276
112	0x3e7d055d	0.24709077
113	0x3d5baec2	0.05363346
114	0x3cfcb2dc	0.030847006
115	0x3c43d16c	0.011951786
116	0xbdeeae4a	-0.11654337
117	0xbe1dc6a8	-0.15407813
118	0x3e11291a	0.14175835
119	0xbe537120	-0.20648623
120	0x3d43ab18	0.04777059
121	0xbe31a812	-0.1734927
122	0xbdf37c48	-0.11888939
123	0x3e2deefe	0.169857
124	0xbd70fa7c	-0.05883263
125	0xbd85ad1a	-0.06527157
126	0xbd972eef	-0.07381999
127	0x3e03b411	0.12861659

layers.2.bias f4 [8]
0	0xbe6092a5	-0.2193094
1	0x3cee5ae9	0.029096084
2	0x3b1f06ca	0.0024265521
3	0x3c3ceff1	0.011531816
4	0xbe5a84d6	-0.21339735
5	0xbe8a13e5	-0.26968303
6	0xbe8edd2d	-0.2790312
7	0xbd08ac51	-0.03336746

output.weight f4 [1, 8]
0	0xbe09e48d	-0.13466091
1	0x3e3cef6a	0.18450704
2	0xbc145c6b	-0.009055237
3	0x3d3febd3	0.04685576
4	0xbe0fae46	-0.14031324
5	0xbe60ab52	-0.21940354
6	0xbdeff90a	-0.11717422
7	0xbe52136e	-0.20515224
