GAN/results/generator.pt (torch_old, 5977 bytes, 7 tensors)

layers.0.weight f4 [16, 1]
0	0xbe4496bb	-0.19198124
1	0x3ee1459b	0.43998417
2	0x3f29bc9b	0.66303414
3	0xbf718d49	-0.9435621
4	0xbf684c5a	-0.90741503
5	0x3e9ae910	0.30255938
6	0xbf312665	-0.6919921
7	0xbf1e2f3d	-0.6179083
8	0x3eebe17a	0.46070462
9	0x3f243839	0.6414829
10	0x3f1e8c47	0.61932796
11	0xbd00defd	-0.03146266
12	0x3db1e65c	0.08686516
13	0xbf521858	-0.82068396
14	0x3e3cc10d	0.18433018
15	0x3ed88d5d	0.42295352

layers.0.bias f4 [16]
0	0xbe35f336	-0.17768559
1	0xbe1b387a	-0.15158263
2	0x3f8608dd	1.0471455
3	0x3e8a6a7e	0.27034372
4	0xbf0bbf53	-0.5458881
5	0xbf4c6756	-0.7984518
6	0x3f1af25a	0.6052605
7	0x3ee2d742	0.44304854
8	0xbf5a7412	-0.8533336
9	0xbe3447eb	-0.1760556
10	0xbe188cd6	-0.14897475
11	0x3e7ce536	0.24696812
12	0x3ef5d13b	0.48011193
13	0xbe996727	-0.29961511
14	0x3f2f31d4	0.68435407
15	0xbf307837	-0.68933433

layers.1.weight f4 [32, 16]
0	0x3ea88dd9	0.3292072
1	0xbe90734d	-0.28212968
2	0xbe5e19fb	-0.21689598
3	0x3e54f6d6	0.20797285
4	0x3e9add49	0.30246952
5	0x3e1fc8fe	0.15604016
6	0xbe797325	-0.2436033
7	0xbe0fcccc	-0.14042968
8	0x3e7073e9	0.23481716
9	0x3dc84b82	0.09780027
10	0x3e1d2344	0.15345484
11	0xbe815ed0	-0.2526765
12	0xbe2dc0c1	-0.16968061
13	0xbd906af9	-0.070516534
14	0xbe4798ce	-0.19491884
15	0x3ca9b56b	0.02071639
16	0x3e61d50e	0.2205393
17	0xbe4f29c8	-0.20230782
18	0xbe5b8e23	-0.2144094
19	0x3d5adb74	0.053431943
20	0x3e1bc57c	0.15212053
21	0x3e201c32	0.15635756
22	0x3de11e3f	0.10992097
23	0x3db8a80c	0.090164274
24	0x3e6a1acc	0.22861785
25	0xbcda9001	-0.026679995
26	0xbe858350	-0.26076746
27	0xbcef9b0b	-0.029248735
28	0x3d742cf8	0.059613198
29	0x3cf4a06b	0.02986165
30	0xbe639390	-0.2222426
31	0x3e3e4852	0.18582276
32	0xbdb51ca3	-0.08843353
33	0xbe33f2aa	-0.17573038
34	0x3e11e847	0.14248763
35	0xbe16ae6a	-0.14714971
36	0x3e0b98e1	0.13632537
37	0xbe97ad09	-0.29624203
38	0xbdd63a58	-0.10460347
39	0xbd64279d	-0.05570184
40	0x3cf839e1	0.030301036
41	0x3dc24f19	0.09487743
42	0x3e7032d5	0.23456891
43	0x3e6cb63c	0.23116392
44	0x3d74c669	0.05975953
45	0x3d812183	0.0630522
46	0xbe0e0317	-0.13868366
47	0xbe4241d9	-0.18970431
48	0x3e5b1e6f	0.21398328
49	0xbd862ab2	-0.06551112
50	0xbe746b96	-0.23869166
51	0x3ce9c0f3	0.028534388
52	0x3e072168	0.13196337
53	0xbd08e519	-0.03342161
54	0xbebf35b2	-0.37345654
55	0xbe823ab1	-0.25435403
56	0x3d37b9d1	0.044854943
57	0xbd82aa58	-0.06380147
58	0xbe7d1b90	-0.24717546
59	0xbc0e15e4	-0.008672211
60	0xbe9dc9d8	-0.30818057
61	0x3eae559c	0.3404969
62	0x3db32c57	0.087486915
63	0x3cffbac2	0.031216983
64	0x3d59b52d	0.0531513
65	0xba5abf75	-0.00083445694
66	0x3e1f8b9e	0.15580603
67	0x3e79dea0	0.24401331
68	0x3ddadbab	0.106864296
69	0x3d3babae	0.045818023
70	0x3dc84aad	0.09779868
71	0xbceb934d	-0.028756762
72	0x3e026bac	0.12736386
73	0xbd5fb477	-0.054615464
74	0xbd9dc020	-0.077026606
75	0x3c571450	0.0131274015
76	0x3e319e49	0.17345537
77	0x3dd3f39d	0.103492
78	0x3db2ab70	0.08724105
79	0xbcc8c0e9	-0.02450605
80	0xbe92bdc1	-0.28660396
81	0x3d0495cf	0.03236943
82	0xbd28bc42	-0.04119516
83	0xbe59f599	-0.21285094
84	0xbe8d5914	-0.27607024
85	0xbd5ed5f7	-0.05440327
86	0x3e29138a	0.1651136
87	0x3ea50424	0.32229722
88	0xbe96295a	-0.29328424
89	0x3d9bbfb9	0.076049276
90	0xbcd2a00e	-0.025711086
91	0x3e777569	0.24165882
92	0x3ddc7943	0.10765316
93	0xbdabe87d	-0.08393953
94	0x3d6fb772	0.058524556
95	0xbe85a95c	-0.26105773
96	0xbd47160c	-0.04860501
97	0xbda6390d	-0.0811635
98	0xbce882da	-0.028382707
99	0x3e3c1629	0.18367828
100	0x3bdf0bf3	0.0068068444
101	0xbe273f10	-0.1633265
102	0x3dbb5dee	0.09148775
103	0x3e87e8d3	0.26544818
104	0xbeac9d91	-0.33713964
105	0x3e0970e7	0.13421975
106	0xbc8e0d17	-0.017340226
107	0xbe19c60b	-0.15016954
108	0xbe00ca90	-0.12577271
109	0xbe5112ec	-0.20417374
110	0xbcce51e9	-0.025185542
111	0xbb4f9cef	-0.0031679233
112	0x3e260ef2	0.16216639
113	0xbdfbcb11	-0.12294591
114	0xbe8262c5	-0.2546598
115	0xbd910c3d	-0.070824124
116	0x3cb5f14d	0.022209788
117	0x3ec0fdce	0.37693638
118	0xbe7e57e8	-0.24838221
119	0xbddfe1db	-0.109317504
120	0xbda7da69	-0.08195955
121	0xbdc931ae	-0.09823929
122	0x3a06d852	0.00051439286
123	0x3d61e984	0.05515434
124	0xbc658b5c	-0.014010277
125	0x3e23ec0b	0.16008012
126	0x3d9692d2	0.073522225
127	0x3de90ab1	0.11378992
128	0xbe3dcc40	-0.18534946
129	0xbde9e1f3	-0.114200495
130	0x3e674484	0.2258473
131	0xbe32df47	-0.17467986
132	0xbde1cc3d	-0.110252835
133	0xbea2a6f4	-0.31768
134	0x3bdb2bc7	0.0066885683
135	0x3e6a7a58	0.22898233
136	0x3d72036e	0.059085302
137	0x3e365fce	0.17809984
138	0x3e89a37d	0.26882544
139	0x3ea0a209	0.31373623
140	0x3b9f002d	0.004852316
141	0xbe516d90	-0.20451951
142	0x3e6f33b3	0.23359565
143	0xbd1f2a0b	-0.038858455
144	0xbea0ddef	-0.31419322
145	0xbd3bfc7c	-0.045895085
146	0x3e7f5c5a	0.24937573
147	0x3e6265ed	0.22109194
148	0x3e16abb9	0.14713944
149	0x3db48ee2	0.08816315
150	0xbe2b0595	-0.16701348
151	0xbe2f5d3b	-0.17125408
152	0x3e19c673	0.15017109
153	0x3e66dbc7	0.22544776
154	0xbdf6ff88	-0.120604575
155	0xbdf2ede8	-0.11861783
156	0xbde9ba67	-0.114125066
157	0x3e5babc9	0.2145225
158	0x3b965417	0.004587661
159	0x3e29e36a	0.16590658
160	0xbcd87a86	-0.026425611
161	0x3e3856e9	0.18001904
162	0x3cf29b67	0.029615117
163	0x3e442ab5	0.19156916
164	0xbeaa0238	-0.33204818
165	0xbe75efbf	-0.24017237
166	0x3e84361a	0.25822526
167	0x3cbed137	0.02329312
168	0xbebfccf8	-0.37461066
169	0x3e39f8c5	0.18161304
170	0x3e043117	0.12909351
171	0x3e8c2489	0.27371624
172	0x3d7e7fed	0.06213372
173	0xbdee8113	-0.11645713
174	0x3e1d67ad	0.1537158
175	0x3c7aaed9	0.015300476
176	0xbe524f72	-0.20538118
177	0xbe33b4ce	-0.1754944
178	0x3e5e80a2	0.21728757
179	0xbe4f1ece	-0.20226595
180	0x3d580048	0.052734643
181	0xbeabbb36	-0.33541268
182	0xbcc2ede0	-0.023795068
183	0x3e94d161	0.29065993
184	0xbe6d6cc3	-0.2318602
185	0x3dee8c3b	0.116478406
186	0x3e8dea59	0.27717856
187	0x3e34f31a	0.17670861
188	0x3e77bc07	0.2419282
189	0xbd774ab5	-0.06037398
190	0x3d8e7ab6	0.06956999
191	0xbd1ae089	-0.03781179
192	0xbdc1481f	-0.09437584
193	0x3e3b6daa	0.18303552
194	0x3d062d7f	0.032758232
195	0x3e5d3a16	0.2160419
196	0xbdadb7e4	-0.0848234
197	0xbe488720	-0.19582796
198	0x3e0e316a	0.13886037
199	0x3e65af12	0.22430065
200	0x3d5c7f63	0.053832423
201	0x3da48e59	0.08034963
202	0x3e67fd19	0.22655143
203	0xbc815cea	-0.015791375
204	0x3decdc70	0.115654826
205	0xbe45aba5	-0.19303758
206	0xbe247c96	-0.16063151
207	0xbeaad9c1	-0.33369258
208	0xbe4c1ea1	-0.19933559
209	0x3e615aa5	0.22007234
210	0xbdb4e453	-0.08832612
211	0x3de16fe5	0.1100767
212	0xbe4c3b06	-0.1994439
213	0x3d59090c	0.052987143
214	0x3cd3f131	0.025871845
215	0x3ddfe2bb	0.10931917
216	0xbe69878f	-0.22805618
217	0xbd99f812	-0.07518019
218	0x3a0ec048	0.0005445522
219	0x3e02c629	0.12770905
220	0xbe36f5f0	-0.17867255
221	0xbdadfcf4	-0.084955126
222	0xbd1f9c95	-0.038967688
223	0xbe89c3a7	-0.26907083
224	0xbdd2bfed	-0.10290513
225	0xbe276ae3	-0.16349368
226	0xbe35813c	-0.1772508
227	0x3bbed55f	0.0058237757
228	0xbe8825c2	-0.26591307
229	0x3d0ebf1d	0.03485023
230	0xbc5facc6	-0.013652032
231	0x3dbb3b6c	0.09142193
232	0xbc9f6f17	-0.019462151
233	0x3e3f4ad6	0.18680891
234	0x3dd2106e	0.1025704
235	0xbcf7912d	-0.030220592
236	0x3e93ec51	0.28891233
237	0x3d1a5e22	0.03768743
238	0xbe5426b5	-0.2071789
239	0xbeb4d8b2	-0.35321575
240	0x3ce813fb	0.02832984
241	0x3d526b58	0.051371902
242	0xbe5be4d9	-0.21474017
243	0x3d8631c5	0.065524615
244	0x3eb92e0e	0.3616795
245	0x3db44ba5	0.088034905
246	0xbe9aff29	-0.30272797
247	0xbe9d2627	-0.3069317
248	0x3d6c4a97	0.057688322
249	0xbdd71f16	-0.10503976
250	0xbdeb5f00	-0.11492729
251	0xbeace8ba	-0.33771306
252	0x3ca3cba6	0.019994568
253	0x3ec47cf9	0.38376597
254	0xbe01e230	-0.1268394
255	0x3eb533ca	0.35391074

layers.1.bias f4 [32]
0	0xbeea7cbc	-0.4579829
1	0xbeb86f47	-0.36022398
2	0x3e9fe4ce	0.31229252
3	0xbe6edb30	-0.23325801
4	0x3e69c0d2	0.22827461
5	0xbd0d59bf	-0.034509417
6	0x3ed21e31	0.4103866
7	0xbed9f33e	-0.42568392
8	0x3e531c17	0.20616184
9	0xbc3134a3	-0.010815772
10	0xbbea8144	-0.007156523
11	0x3e6943fc	0.2277984
12	0x3e95868e	0.2920422
13	0x3ecd1ceb	0.40061125
14	0x3e8d8ab7	0.27644894
15	0xbe1c7cfa	-0.1528205
16	0x3d3f3769	0.046683703
17	0x3e7fafe0	0.24969435
18	0xbe86ba43	-0.2631398
19	0x3cf592d0	0.029977232
20	0x3ea1eef8	0.3162763
21	0x3e002cfb	0.12517159
22	0x3ecaa013	0.39575252
23	0xbda09791	-0.07841409
24	0x3eb0aaf9	0.34505442
25	0x3e84e193	0.2595335
26	0xbe6f0249	-0.23340715
27	0xbee22ed0	-0.4417634
28	0xbd26b99c	-0.040704355
29	0xbed0d6e7	-0.40788957
30	0xbea5c472	-0.32376438
31	0x3d7735ad	0.060353924

layers.2.weight f4 [16, 32]
0	0x3c576fe6	0.013149237
1	0x3da540a9	0.080689736
2	0xbd4ffbdc	-0.0507773
3	0xbdbd723e	-0.092503056
4	0xbcaddd78	-0.021223769
5	0x3dfade4c	0.12249431
6	0x3d2ab414	0.041675642
7	0xbe1d3277	-0.15351282
8	0xbd1a0c41	-0.037609342
9	0xbd991ff5	-0.074767984
10	0x3e0aade5	0.13542898
11	0x3ddfdd28	0.10930854
12	0x3e094e13	0.13408689
13	0x3e39b3dc	0.18135017
14	0x3d6d65a1	0.05795825
15	0xbd8c303b	-0.06845137
16	0x3e5269e4	0.20548207
17	0x3df138c4	0.11778405
18	0x3a83b670	0.0010048877
19	0x3dfec678	0.12440199
20	0xbc473633	-0.012158918
21	0x3e23dcfc	0.16002268
22	0x3e4029d2	0.18765953
23	0x3cc8841d	0.024477059
24	0x3e6a5db7	0.22887312
25	0x3d9645a0	0.07337499
26	0xbe1557a0	-0.14584208
27	0xbe5db5eb	-0.21651427
28	0x3da55821	0.0807345
29	0xbcbffe12	-0.02343658
30	0x3c09d27c	0.008412
31	0x3b892218	0.0041849725
32	0xbe8bae06	-0.27281207
33	0xbd11dec6	-0.035612844
34	0x3e21d20e	0.15802786
35	0x3d1773ed	0.03697579
36	0xbd5b5f8f	-0.05355793
37	0x3d091bff	0.033473965
38	0x3e3bc2ce	0.18336031
39	0xbd736af4	-0.05942817
40	0x3e39dbbd	0.1815023
41	0x3ca6c014	0.020355262
42	0x3e33504a	0.17511097
43	0x3deb9db3	0.11504688
44	0x3e632a50	0.2218411
45	0x3e989bcd	0.29806367
46	0x3e6a4403	0.22877507
47	0xbe3697a1	-0.1783128
48	0xbd8c0c0a	-0.06838234
49	0x3df95850	0.121750474
50	0x3d3b38c1	0.04570842
51	0x3e23fe0b	0.16014878
52	0x3e4bf78b	0.19918649
53	0x3e04580f	0.12924217
54	0x3d5a331b	0.053271394
55	0x3df20222	0.11816813
56	0x3e44e3c3	0.19227509
57	0x3e05d3d7	0.13069092
58	0xbc675a49	-0.014120647
59	0x3d19406e	0.03741496
60	0xbc1a811b	-0.009430195
61	0xbe99ef90	-0.30065584
62	0x3d247492	0.040150233
63	0x3df2b08a	0.118500784
64	0x3c86dde6	0.016463231
65	0x3e9ce1bf	0.3064098
66	0xbe32759e	-0.1742768
67	0x3e4ab7c8	0.1979667
68	0xbc6ec709	-0.014573821
69	0xbe35b02d	-0.17742987
70	0xbe839205	-0.25697342
71	0x3e478aaf	0.19486497
72	0x3d5f99d9	0.05459008
73	0x3d4c20bc	0.049835905
74	0xbbecd80c	-0.007227903
75	0xbe8097c6	-0.25115794
76	0xbb505569	-0.003178919
77	0xbd92b4f4	-0.0716342
78	0xbe2e0e8c	-0.16997737
79	0x3eb2da59	0.3493221
80	0xbe09d962	-0.13461831
81	0x3d2e5384	0.042560115
82	0x3e1eec1e	0.15519759
83	0xbded1059	-0.11575384
84	0xbe223b2b	-0.15842883
85	0xbe823748	-0.254328
86	0xbe934618	-0.28764415
87	0xbdcfeb34	-0.10152283
88	0xbda3086f	-0.07960593
89	0xbee627b9	-0.4495218
90	0x3e59cafd	0.2126884
91	0x3e3036c8	0.17208397
92	0xbd43028e	-0.04760986
93	0x3e20b0aa	0.15692392
94	0x3e97e80c	0.29669225
95	0xbe8cde76	-0.27513474
96	0xbb0bc33a	-0.002132608
97	0xbe7cf29c	-0.24701923
98	0x3e15770c	0.14596194
99	0xbd04fd40	-0.03246808
100	0x3dcb921c	0.099399775
101	0x3e31a4b2	0.17347983
102	0x3e589a09	0.2115251
103	0xbe864e82	-0.26231772
104	0x3ca73273	0.020409798
105	0x3d03b77f	0.032157417
106	0xbd9fe474	-0.07807246
107	0x3e1251de	0.14289042
108	0x3baac144	0.0052110273
109	0x3e179fec	0.14807099
110	0x3e66b05a	0.2252821
111	0x3cd65b26	0.02616651
112	0x3d898bbc	0.06716105
113	0xbd848838	-0.06471294
114	0xbe0fafb9	-0.14031877
115	0x3cb553db	0.022134712
116	0x3df65b94	0.12029186
117	0xbcc0adff	-0.023520468
118	0x3c96b2df	0.01839584
119	0x3d909473	0.070595644
120	0x3e50e069	0.20398106
121	0x3d5efcc2	0.054440267
122	0x3cc39a7a	0.023877371
123	0x3d9d4628	0.07679397
124	0x3d9374e8	0.072000325
125	0xbaa1125d	-0.0012288798
126	0x3c721d4f	0.0147774955
127	0xbe03a510	-0.12855935
128	0xbe0e1477	-0.13874994
129	0x3c68c2e8	0.0142066255
130	0x3d44ea48	0.04807499
131	0xbd9ca20b	-0.07648095
132	0x3e3130c1	0.17303754
133	0x3d1749be	0.03693556
134	0xbd5a1915	-0.053246576
135	0xbe6b40db	-0.22973959
136	0x3d8c3615	0.06846253
137	0x3e0a73b7	0.13520704
138	0xbc4e3b33	-0.012587356
139	0xbd81bff9	-0.06335444
140	0x3d9f2911	0.07771505
141	0x3da4b78a	0.0804282
142	0x3e5de91a	0.21670952
143	0xbd505329	-0.050860558
144	0x3e4c2d50	0.1993916
145	0x3dd98f3d	0.10623024
146	0xbd994162	-0.07483174
147	0x3daa1188	0.08304125
148	0x3c185b48	0.009299107
149	0xbd45866f	-0.04822391
150	0x3e10d4bb	0.1414365
151	0x3d78a775	0.060706574
152	0x3d824359	0.06360502
153	0x3cd945c9	0.026522534
154	0xbdefbe3c	-0.11706206
155	0xbdaddcb0	-0.084893584
156	0xbdac4563	-0.08411672
157	0xbd53aefb	-0.051680546
158	0xbdde0c98	-0.10842246
159	0x3e222e8b	0.15838067
160	0xbcde8c56	-0.027166527
161	0xbe009df9	-0.12560262
162	0x3e76ede7	0.2411419
163	0xbe5e1dc0	-0.21691036
164	0x3cb10757	0.021609945
165	0xbcea57a2	-0.02860624
166	0x3ea23316	0.316796
167	0xbde20ae6	-0.11037235
168	0x3b1fa4c4	0.0024359683
169	0x3e6d345e	0.23164508
170	0x3e05fa2a	0.13083711
171	0x3d8a97d1	0.06767238
172	0x3db3c8e8	0.08778554
173	0x3e3121f4	0.17298108
174	0x3e6e1211	0.2324908
175	0xbdd54d0c	-0.10415086
176	0x3c0e65a2	0.008691223
177	0x3b832091	0.004001685
178	0xbe21c937	-0.15799414
179	0x3d95ba21	0.07310892
180	0x3e49dd6f	0.19713376
181	0x3e004d34	0.1252945
182	0x3decca8f	0.115620725
183	0x3e344d12	0.17607525
184	0x3c9c4540	0.01907599
185	0x3e81619a	0.25269777
186	0xbd159471	-0.036518518
187	0xbdabb2a7	-0.083836846
188	0x3dacb0b0	0.08432138
189	0xbe492cae	-0.1964595
190	0xbb432380	-0.0029775798
191	0x3d3cbcf9	0.046078656
192	0xbd184441	-0.037174467
193	0xbe3f4cb5	-0.18681605
194	0x3d7cdc39	0.06173346
195	0xbe1f874f	-0.1557896
196	0x3d16f8c9	0.036858354
197	0x3d9e4041	0.07727099
198	0x3d48c9ec	0.049020693
199	0x3d11dcb9	0.03561089
200	0x3df1820d	0.11792383
201	0x3d94b34d	0.072607614
202	0x3b06d8f8	0.00205761
203	0x3e026271	0.12732865
204	0x3e5e5d7d	0.2171535
205	0x3e5eab7f	0.21745108
206	0x3e832176	0.25611466
207	0xbd8da4b4	-0.0691618
208	0x3e4df520	0.20113039
209	0x3e1c8f00	0.15288925
210	0xbd5b5b20	-0.0535537
211	0x3e44ff8d	0.1923811
212	0x3e008ef3	0.12554531
213	0x3e12c5b1	0.14333226
214	0x3d43419f	0.047670003
215	0x3dc04f54	0.09390131
216	0x3e2d465b	0.1692137
217	0x3e8c7cc6	0.27438945
218	0xbe063497	-0.13105999
219	0xbdfd8507	-0.123788886
220	0x3dd21d1e	0.1025946
221	0xbe8ff0d2	-0.2811342
222	0xbd93a7a0	-0.07209706
223	0x3cdd300a	0.027000446
224	0x3e359a6e	0.17734692
225	0x3c81e0c1	0.015854241
226	0xbc25c0ce	-0.010116769
227	0x3d9586fa	0.07301135
228	0xbe552baf	-0.20817445
229	0xbdc3d443	-0.0956197
230	0xbebaea42	-0.3650685
231	0x3e9c7d42	0.30564314
232	0x3c5a02b7	0.013306311
233	0xbe206a94	-0.15665656
234	0xbe6e0ebd	-0.2324781
235	0x3d855887	0.06511026
236	0xbe409b41	-0.18809225
237	0xbea11afd	-0.31465903
238	0xbcfffab9	-0.031247484
239	0x3e9d726b	0.30751356
240	0xbe42dbdc	-0.19029182
241	0xbe81201f	-0.2521982
242	0x3db17874	0.08665553
243	0xbe10f9bc	-0.14157766
244	0xbe556b56	-0.20841727
245	0xbe078997	-0.1323608
246	0xbdfecdf4	-0.12441626
247	0xbd87ec71	-0.066368945
248	0xbe69fb64	-0.22849804
249	0xbeb42cbc	-0.3519038
250	0xbba0794a	-0.0048972713
251	0x3e0cd647	0.13753615
252	0xbe7e5b84	-0.24839598
253	0x3e887ed0	0.2665925
254	0x3e50884c	0.20364493
255	0x3c90d394	0.017679013

layers.2.bias f4 [16]
0	0x3e0b8a55	0.13626988
1	0x3ddeaec4	0.10873178
2	0xbef40170	-0.47657347
3	0x3de43941	0.11143733
4	0x3d221437	0.03957006
5	0x3e853204	0.2601472
6	0x3de6b336	0.112646505
7	0xbec99143	-0.39368638
8	0x3e2c4c10	0.1682589
9	0xbeddbe7d	-0.43309394
10	0x3e839264	0.25697625
11	0xbe388ad4	-0.18021709
12	0xbeda633e	-0.4265384
13	0xbe5165e1	-0.2044902
14	0xbe8d98f8	-0.27655768
15	0xbeb19093	-0.34680614

output.weight f4 [1, 16]
0	0x3e71810b	0.23584382
1	0x3dfd2727	0.12360983
2	0xbeabeea0	-0.33580494
3	0x3e878429	0.26468018
4	0x3e8f150e	0.2794575
5	0x3e1557a1	0.14584209
6	0x3e187964	0.14890057
7	0xbe9f05c8	-0.31059098
8	0x3e1a0826	0.15042171
9	0xbe975529	-0.2955716
10	0x3e3db115	0.18524583
11	0xbe69dc4a	-0.2283794
12	0xbe86785f	-0.2626371
13	0xbea9672e	-0.33086532
14	0xbe9ec150	-0.3100686
15	0xbeb1ed5f	-0.34751412
