vanilla_gan/19-02-27_08-43/discriminator.pt (torch_old, 3304 bytes, 7 tensors)

layers.0.weight f4 [16, 1]
000000 b9 05 a0 3e 06 5e 9e 3e d3 22 01 bf 46 47 11 3f
       0.31254366 0.3093111 -0.5044376 0.5674938
000010 d3 c8 96 3e 7e cf 08 bf 28 98 11 3f a9 05 e4 3e
       0.29450092 -0.5344161 0.56872797 0.44535568
000020 e0 4a a3 be be 3d f2 3e c4 aa a2 3e 67 99 9e 3e
       -0.31893063 0.4731273 0.3177091 0.30976412
000030 da c3 ed be 1d c0 9d be fe 81 03 3f af 1f f3 be
       -0.46438485 -0.30810633 0.5137023 -0.4748511

layers.0.bias f4 [16]
000000 fc 97 ab bf 51 c7 a9 bf 05 68 8d 3f f8 92 9f bf
       -1.3405757 -1.3263952 1.1047369 -1.2466726
000010 02 0d a2 bf 0b 95 95 3f 39 52 9f bf 89 c5 77 bf
       -1.266022 1.1686109 -1.2446967 -0.9678579
000020 7b 1e ae 3f 58 41 85 bf eb b1 ae bf fe 3f a9 bf
       1.3603052 -1.0410566 -1.3648046 -1.3222654
000030 03 d6 82 3f 1f d9 a7 3f 64 36 8f bf 93 a3 83 3f
       1.0221561 1.3113135 -1.1188474 1.0284294

layers.1.weight f4 [16, 16]
000000 8c d7 f1 41 eb 38 f6 41 17 07 bf 3d bc 06 3f bd
       30.230247 30.777792 0.09327524 -0.04663728
000010 db 65 e8 41 ee d3 5e 3d 51 e1 ea bc 1e 07 1d bd
       29.049734 0.05440133 -0.028671892 -0.038336866
000020 ff 85 f9 c1 2e 90 84 bc b4 7d f4 41 19 76 ec 41
       -31.190428 -0.016182031 30.561378 29.557665
000030 71 37 9a 3d fc e5 ce c1 fd 85 ab bd 8a 41 a1 3c
       0.07530106 -25.862297 -0.083751656 0.019684572
000040 16 ec 0c c2 40 2b 10 c2 ac 91 17 3e e3 0c 11 be
       -35.230553 -36.042236 0.14801663 -0.14165072
000050 3c 33 0a c2 7c 9d 0b 3e 72 cd 1b be 6b 9e 6e be
       -34.550034 0.13634294 -0.1521509 -0.23302619
000060 84 6a 11 42 1b 28 35 be 30 6f 10 c2 04 fd 0c c2
       36.35402 -0.1769108 -36.10858 -35.247086
000070 f6 4c d7 3d 38 2c 00 42 3a eb 0e be 8b e4 14 3e
       0.10512726 32.043182 -0.1395692 0.14540307
000080 13 c6 29 c2 86 72 2c c2 c8 7c 50 3e 1b 6c 54 be
       -42.44343 -43.11184 0.203601 -0.20744364
000090 ce ec 25 c2 e7 71 3c 3e 8b c5 45 be 74 66 33 be
       -41.481255 0.18402825 -0.19313638 -0.17519552
0000a0 7e d9 2e 42 78 40 67 be 2c bc 2b c2 fc 25 28 c2
       43.712395 -0.22583187 -42.93376 -42.037094
0000b0 f3 31 3f 3e ea 87 1b 42 cb 12 4f be 63 b4 6f 3e
       0.18671398 38.88273 -0.20222013 0.23408656
0000c0 12 3b 46 3d 63 3c 84 3d 78 14 92 c1 7b 1e b1 41
       0.048396178 0.0645683 -18.259995 22.139883
0000d0 0c b0 95 bc dc 9f a9 c1 da 34 ae 41 ad 30 26 41
       -0.018272422 -21.203056 21.775806 10.386884
0000e0 19 8c 8c bd c2 25 41 41 c7 15 32 bb 21 53 2e 3d
       -0.06862659 12.071718 -0.0027173625 0.042559747
0000f0 96 48 90 c1 dc 1f aa bd 34 51 a3 41 3e 4a 95 c1
       -18.035442 -0.08306858 20.41465 -18.661251
000100 30 75 cf 41 f8 52 e2 41 bb 22 ab 3d 03 d7 cf bc
       25.93222 28.290512 0.08356234 -0.02537108
000110 92 f6 d8 41 9b 21 ba 3c bc aa a9 3a 59 1a d5 bd
       27.120396 0.022721102 0.001294456 -0.10405416
000120 c9 26 e2 c1 23 a5 13 bd b3 c1 de 41 f6 89 c8 41
       -28.268938 -0.03604616 27.84458 25.067364
000130 42 4d 31 3d 0d c3 ba c1 1f 6b 9f bd d0 41 46 3d
       0.04328657 -23.34524 -0.077841036 0.048402607
000140 87 42 d5 41 0f ba ea 41 56 a1 93 3d a5 51 81 3c
       26.657484 29.340849 0.07208507 0.015786001
000150 4a 92 e2 41 4b 40 09 3d fc 3b 40 bc 07 a5 19 bd
       28.32143 0.03350858 -0.011733051 -0.037510898
000160 20 c7 ec c1 e5 ea 32 bd d0 d0 e4 41 42 b1 cf 41
       -29.597229 -0.043681044 28.60196 25.961552
000170 b0 2b ef 3c bf 5d c0 c1 0d 1c 43 bd 34 99 45 3d
       0.029195637 -24.045774 -0.047634173 0.04824181
000180 47 23 9f 3c 7f bf c2 3d c6 4c 8b c1 d7 62 ba 41
       0.019426001 0.09509181 -17.412487 23.298262
000190 06 dc 0c 3d b6 78 ba c1 0b 11 ba 41 96 69 25 41
       0.03438952 -23.30894 23.258322 10.338278
0001a0 46 c3 dd bc d5 8b 43 41 2f 19 15 bd 78 9c 09 3d
       -0.027070653 12.221639 -0.03640097 0.033596486
0001b0 b2 60 aa c1 42 b6 09 bd b7 8a ba 41 9e 4a a9 c1
       -21.297215 -0.03362108 23.317732 -21.161434
0001c0 2b c1 34 3d d7 03 6f bc 63 81 6c 41 d6 8f 8b c1
       0.04412953 -0.014588318 14.781589 -17.445232
0001d0 18 f0 b2 bc 6c 13 83 41 cc be 88 c1 2d 4a 3e c1
       -0.021843001 16.384483 -17.093163 -11.893109
0001e0 de 04 f8 3b 20 e4 4e c1 fd bd a4 bc e2 dc cc bc
       0.0075689396 -12.930695 -0.020110125 -0.025007669
0001f0 68 d4 68 41 fd 4b c4 3d d2 71 7b c1 cf d8 66 41
       14.551857 0.09584806 -15.715288 14.427932
000200 54 4a f9 bc 69 ec fc 3c 4a d9 85 c1 02 33 bb 41
       -0.03043095 0.030874448 -16.731098 23.399906
000210 16 9e 23 3d bc 1e b3 c1 0e ab b7 41 f2 16 27 41
       0.039945684 -22.390007 22.958523 10.443102
000220 5e 6a 93 bd d4 5c 3f 41 76 fc 80 3d c4 bf 20 bc
       -0.07198022 11.960163 0.06298153 -0.0098113455
000230 f3 4e aa c1 92 23 27 bd 43 d5 b3 41 ca 8d a6 c1
       -21.28855 -0.040805407 22.479132 -20.819233
000240 eb 30 ee c1 c1 9e f6 c1 1f f3 9a bd c8 63 dd bc
       -29.773886 -30.827517 -0.07565903 -0.027025118
000250 98 ae ec c1 a7 c1 4f bd 5d 1b fc bb 66 e2 28 3d
       -29.58525 -0.05072179 -0.0076936916 0.041231535
000260 c1 9d f5 41 bf 9b 7c 3c a2 1a f6 c1 0d 3a ec c1
       30.702028 0.015417992 -30.763004 -29.528345
000270 d4 4f e6 bc 02 60 d4 41 cf a7 6e 3c 46 37 97 bd
       -0.028114237 26.546879 0.014566376 -0.073835894
000280 9f cf d3 41 33 4d e6 41 12 9b 9b 3d cf 15 9e bd
       26.476377 28.787695 0.07597937 -0.077190034
000290 24 55 e3 41 3f a8 83 3d a0 50 3f bd 9a 98 b9 bd
       28.416573 0.06428575 -0.04670775 -0.090623096
0002a0 92 c9 eb c1 84 68 73 bd 6f bc e3 41 ab 5b cc 41
       -29.473423 -0.059425846 28.467009 25.54476
0002b0 d4 09 2f 3d 0d 71 be c1 a9 9a 7a bd e4 5f 43 3b
       0.042733982 -23.8052 -0.06118265 0.0029811794
0002c0 04 25 cf 41 8a e3 e0 41 88 2a 2a 3d 0a 48 4f bd
       25.893074 28.111103 0.041544467 -0.05060581
0002d0 70 6e da 41 2a af 9d 3d 95 ef 24 bd 97 79 7c bd
       27.303925 0.076994255 -0.040267546 -0.061639395
0002e0 74 16 e4 c1 78 ca cf bd b4 62 dd 41 59 0a ca 41
       -28.510963 -0.1014604 27.673195 25.255053
0002f0 70 a0 0d bc 27 b1 bc c1 53 5b a1 bd f4 e6 d1 3d
       -0.008644208 -23.5865 -0.07878747 0.10249129
000300 71 99 be 3c 84 fc 46 3d e1 9b a3 c1 a7 85 c1 41
       0.023266526 0.04858066 -20.451113 24.19026
000310 1d 2b 53 3d a0 e5 b8 c1 d9 ae c1 41 f6 cf 2f 41
       0.051554788 -23.112122 24.210375 10.988272
000320 89 f1 02 be f3 ed 48 41 e3 72 ca 3b e0 ea 5b 3d
       -0.12787451 12.558093 0.0061782463 0.05369079
000330 8a c5 a0 c1 1c 4f 76 bd cd 5f b4 41 04 38 a0 c1
       -20.096455 -0.06013404 22.546778 -20.027351
000340 36 9c 69 bc 27 f5 b1 bd 32 ab 8b 41 47 3e b9 c1
       -0.014258435 -0.08689337 17.458591 -23.155409
000350 7f 7c 69 bd ca 2d b6 41 7b 8b bb c1 1d 4a 20 c1
       -0.057003494 22.772358 -23.443106 -10.018094
000360 fe 30 b9 3d aa d9 44 c1 ac 2f 93 bc 5d c7 35 bd
       0.09042548 -12.303141 -0.017967068 -0.04437958
000370 85 3e a7 41 27 8a db bc be f4 b7 c1 9c e9 a7 41
       20.905527 -0.026799275 -22.994503 20.989067
000380 ae 73 79 3d 8c 85 62 3d e3 13 8b c1 e8 b9 bd 41
       0.060901336 0.05530314 -17.38471 23.715775
000390 63 be 8d 3d 78 f2 b4 c1 34 d2 b7 41 ef e1 24 41
       0.06921079 -22.618393 22.977638 10.30516
0003a0 ef 75 b6 bd 63 1d 43 41 74 ab ab 3b da 2d d5 3c
       -0.08909213 12.1946745 0.0052389447 0.02602284
0003b0 6d c9 a9 c1 95 8b d2 bc b2 78 b4 41 e0 0b a6 c1
       -21.223352 -0.025701324 22.558933 -20.755798
0003c0 2c 98 45 bb a7 59 81 bd d3 fa 8a 41 fa 94 b5 c1
       -0.0030150516 -0.06315928 17.372473 -22.697742
0003d0 5c 85 49 bd 24 9f af 41 11 ec b9 c1 14 11 23 c1
       -0.049199447 21.952705 -23.240267 -10.191669
0003e0 e1 c8 9f 3d 22 c5 40 c1 cc c7 a9 bd a0 3b 8d bd
       0.078019865 -12.048128 -0.08290061 -0.06896138
0003f0 4e 7e a9 41 c0 ee 3f 3d 2b ab b0 c1 3b 0f a4 41
       21.186672 0.04685855 -22.083578 20.507437

layers.1.bias f4 [16]
000000 08 ce 19 bd b7 d5 e1 3f e6 09 09 40 6c b1 60 3e
       -0.037550002 1.7643346 2.1412292 0.21942681
000010 6e cc 19 ba ec 4f 55 bc cb 8e 6c 3e a8 6a 17 be
       -0.0005866949 -0.013019543 0.23101346 -0.1478678
000020 ce ba 61 3e ec 34 98 3c 59 f1 93 bb 4a c9 bf bb
       0.22043917 0.018579923 -0.004514855 -0.005852853
000030 7d 92 88 3e 53 d3 54 be b6 b9 38 3e ee fe 63 be
       0.26674262 -0.20783739 0.18039593 -0.22265217

layers.2.weight f4 [8, 16]
000000 a0 e8 43 c1 73 d7 5b 40 42 c5 5c 40 84 0a 4e 3f
       -12.244293 3.435025 3.4495397 0.80484796
000010 7a 05 49 c1 9a 7f 48 c1 e9 89 49 3f ff 5a 56 bf
       -12.563837 -12.531153 0.7872606 -0.837326
000020 df ff 54 3f 8f 1c 2d 41 21 ae 44 c1 c4 04 43 c1
       0.8320293 10.819472 -12.292512 -12.1886635
000030 5d 6c 58 3f df 86 51 bf 47 c9 56 3f 83 c0 57 bf
       0.8454035 -0.8184642 0.83900875 -0.84278125
000040 50 84 3a 41 95 cb f7 bf f7 1b f7 bf 97 5b 36 bf
       11.657303 -1.9359003 -1.9305409 -0.71233505
000050 b1 13 7c 41 b5 8a 58 41 7c bc 2c bf 4c c5 3c 3f
       15.754807 13.533864 -0.67475104 0.7373855
000060 fd 38 42 bf 95 59 22 c1 59 69 56 41 b3 7a 62 41
       -0.7586821 -10.146871 13.40072 14.154956
000070 76 a8 3d bf da e4 30 3f e7 21 39 bf b5 f5 3c 3f
       -0.74085176 0.690992 -0.72317356 0.7381242
000080 9a 15 3e 41 1a 02 ec bf da 46 eb bf 23 28 1e bf
       11.880274 -1.8438141 -1.8380997 -0.61779994
000090 b8 27 79 41 45 03 61 41 75 bf 27 bf 69 21 2e 3f
       15.572197 14.063298 -0.65526515 0.6801973
0000a0 a5 3e 2d bf d7 40 21 c1 6c 3e 6d 41 71 c8 72 41
       -0.6767371 -10.07833 14.82774 15.173936
0000b0 04 b2 13 bf bb e8 2d 3f 06 3c 25 bf b8 c4 40 3f
       -0.57693505 0.67933244 -0.64544713 0.7530017
0000c0 a2 e4 0e bf e7 d8 0a 3f 78 98 0c 3f 42 b0 ce 40
       -0.55817616 0.54237217 0.5492015 6.459016
0000d0 df 14 2c bf c0 ca 1f bf 34 5a ce 40 5b 83 db c0
       -0.67219347 -0.62418747 6.448511 -6.8597846
0000e0 2c 44 d0 40 57 76 1d 3f 56 36 30 bf 87 4d 0f bf
       6.508322 0.615087 -0.6883291 -0.5597767
0000f0 3e ec cf 40 b9 95 c4 c0 5b 00 d3 40 48 06 d0 c0
       6.497588 -6.1432767 6.5937934 -6.5007668
000100 8e d8 45 be 4a 70 57 3e e4 86 3a 3e 2e f9 d5 c0
       -0.1932089 0.21038929 0.18215519 -6.6866674
000110 5f bf 4d be 13 4d 0e be 73 c4 b9 c0 05 bd cb 40
       -0.20092534 -0.13896589 -5.8052306 6.3668237
000120 f2 01 c8 c0 4a 81 15 3e 16 fb 2c be 08 62 4a be
       -6.2502375 0.14600101 -0.16892657 -0.19763958
000130 54 4a af c0 04 43 d3 40 a3 02 b6 c0 e0 34 cf 40
       -5.4778233 6.6019306 -5.687822 6.4752045
000140 77 a1 1d 3e 17 79 23 be 73 05 43 be 30 0c f3 40
       0.15393625 -0.15964161 -0.19045047 7.5952377
000150 ca 66 4d 3e 6f ba 29 3e 32 85 d6 40 e3 2f d1 c0
       0.20058742 0.16575025 6.703759 -6.5370955
000160 f0 7a d0 40 b1 12 01 be c8 bd 4b 3e 73 bf 30 3e
       6.515007 -0.12604786 0.19896615 0.17260532
000170 37 37 c5 40 9b 99 df c0 96 f9 e3 40 ff 32 d1 c0
       6.16299 -6.9875007 7.124217 -6.537475
000180 f0 9b 6a bc 27 78 5e 3c e8 56 45 3c de e2 89 3c
       -0.014319405 0.013578451 0.012044646 0.016831812
000190 a0 ac 58 bc 12 96 62 bc 6f 4f 60 3c 8b b0 80 bc
       -0.013224751 -0.013829725 0.013690813 -0.015709182
0001a0 0d ed 43 3c f0 9b 7d 3c cd dd 3b bc 44 a7 54 bc
       0.011958373 0.015479073 -0.011466456 -0.012979332
0001b0 80 b3 7f 3c 52 23 79 bc 8b a2 39 3c d2 9b 58 bc
       0.015606761 -0.015206175 0.011330257 -0.013220744
0001c0 ef 15 c8 3e bf 8b cd be 5c 31 b8 be 38 2a fb c0
       0.39079234 -0.4014568 -0.35975158 -7.8489037
0001d0 64 ae ba 3e c5 7a c9 3e 56 cd 00 c1 86 57 02 41
       0.36461174 0.39351478 -8.050131 8.146368
0001e0 55 97 04 c1 dc 45 c8 be 52 81 e3 3e 6e b8 a6 3e
       -8.286946 -0.39115798 0.444346 0.32562584
0001f0 3b 3f f2 c0 e7 30 04 41 90 2a fb c0 f3 fe 0c 41
       -7.5702186 8.261939 -7.8489456 8.812243

layers.2.bias f4 [8]
000000 42 ec 1a c0 b5 80 23 40 47 dd 16 40 ed 7c 80 3f
       -2.42067 2.5547307 2.3572557 1.0038124
000010 af 37 58 c0 96 dd 4c 40 57 a0 46 be a5 5b 11 bf
       -3.3783987 3.2010245 -0.19397102 -0.56780463

output.weight f4 [1, 8]
000000 75 03 fc bd 57 98 f3 3d 8a 34 ed 3d 44 f5 22 be
       -0.12305347 0.11894291 0.11582287 -0.15913874
000010 c6 b9 23 3e 5e 2c 21 be f6 4f 41 c0 cb 61 24 3e
       0.15988836 -0.15739581 -3.0205054 0.1605293
