vanilla_gan/19-02-27_08-43/generator.pt (torch_old, 5971 bytes, 7 tensors)

layers.0.weight f4 [16, 1]
000000 fc dc 8e 3e 8d 89 8e be 38 dc 5d 3e ef 37 cb 3d
       0.27902973 -0.27839318 0.21666038 0.09922778
000010 bc 8a 7c bf 30 5d 30 be a2 16 32 bf ca 69 66 bf
       -0.9864919 -0.17223048 -0.69565785 -0.9000517
000020 11 a0 5e bf 60 d6 91 3f fa c3 25 3f 8c f2 51 bf
       -0.8696299 1.1393547 0.6475216 -0.8201072
000030 6c 48 23 bf b7 ed a8 bf b3 5f 91 bf b8 c5 70 bc
       -0.6378238 -1.3197545 -1.135733 -0.014695577

layers.0.bias f4 [16]
000000 88 0b cc 3e 0a 8c 23 3f 48 a1 18 bf 2e 86 cb bd
       0.39852548 0.6388556 -0.59621096 -0.09937702
000010 38 8b 60 bf 36 29 40 bf 74 72 06 bf cc 47 55 bf
       -0.8771243 -0.7506288 -0.5251839 -0.8331268
000020 c7 1d a9 bb 3f e2 c4 3f 9e 7e ad be cb 14 ae 3d
       -0.0051610204 1.5381545 -0.33885664 0.0850006
000030 20 76 04 be 2c 9d 17 3f 7e f3 b8 3e 35 98 48 3e
       -0.12935686 0.592242 0.3612327 0.19589312

layers.1.weight f4 [32, 16]
000000 86 8f 0d be 3c d0 42 bd 38 47 31 3e ed cd 49 3d
       -0.13824281 -0.04756187 0.17312324 0.04926865
000010 38 46 60 3d e0 23 54 bc 1a ff 56 3e 90 5a fe 3d
       0.054754466 -0.012948006 0.20995751 0.12419617
000020 6f af 32 be d4 c8 a2 3d 0f d8 99 be fa 70 59 bc
       -0.17449735 0.07948461 -0.30047652 -0.013271565
000030 28 15 2b be 2d 93 75 3d 8e 3c f2 3d d3 95 65 bd
       -0.16707289 0.05995481 0.11827956 -0.056051087
000040 1c d2 f7 3c 15 94 03 be c0 55 fe 3c 04 4d 59 be
       0.030251555 -0.12849458 0.031046748 -0.21220785
000050 6c cd c1 3d 34 0c 32 be a0 14 14 3c d2 44 71 3e
       0.09463009 -0.17387468 0.0090381205 0.23561409
000060 1d 9a b2 3b 05 0a 49 bd 34 fb 72 be 18 c1 9f 3c
       0.0054505006 -0.04908182 -0.23728639 0.019501254
000070 00 53 92 bd 67 67 2e be 01 dd 33 3c 68 0f 93 bd
       -0.07144737 -0.17031632 0.010977984 -0.07180673
000080 75 bb 2e bd f8 e3 db bc 84 bc 84 bd df 5c d5 3e
       -0.04265924 -0.026842102 -0.06481269 0.41672418
000090 e8 ca 96 3d a4 2c d9 3d b8 3e 4e 3e dc 05 da bd
       0.0736292 0.10604218 0.20141113 -0.10645649
0000a0 15 b1 90 bd 22 10 98 3f d9 76 5e 3e 76 af ad 3e
       -0.07065026 1.1879923 0.21725024 0.3392293
0000b0 e8 de 8e bd 1e ec bf 3c 01 a3 43 3e 19 ec b5 3d
       -0.0697611 0.02342802 0.1910515 0.08882923
0000c0 09 ce 35 bc 96 66 6e be 74 82 f4 3d a9 e1 04 3e
       -0.011096486 -0.23281321 0.119389445 0.12976708
0000d0 18 b3 b2 3d 1a 2e 1f be 6a 18 53 be bc 6c 87 3d
       0.08725566 -0.1554493 -0.20614782 0.06612536
0000e0 b0 79 cf bd 8b c1 cb bc 56 47 f2 be c3 13 1b be
       -0.10130632 -0.024872562 -0.4732005 -0.15144257
0000f0 40 c8 a6 bd 19 f2 af be ee 24 b9 ba b5 b1 35 be
       -0.081436634 -0.34364393 -0.0014125386 -0.17743571
000100 a6 e9 2e 3d 77 73 35 be 60 b5 a7 bc 28 50 90 3e
       0.042703293 -0.17719828 -0.020472229 0.28186154
000110 28 0f 42 3e 18 62 38 3d ae e5 5a be c6 d7 77 be
       0.18951094 0.045015424 -0.21376678 -0.24203405
000120 7a c9 84 3e 5f fc 96 bc fd 5d 84 3e bc 25 c5 3e
       0.25934964 -0.018430887 0.25852957 0.38505352
000130 7a 4d 4f 3e 46 b9 22 3e ee e2 19 3e dd 9c 4d bd
       0.20244399 0.15890989 0.15027973 -0.050198425
000140 85 fa c9 bd 84 63 58 be b6 86 71 be 8f 1a 23 3e
       -0.09862236 -0.21131712 -0.23586544 0.159281
000150 7c 0c ec 3d 10 04 78 3e 70 ea d2 bd 58 3b 77 3d
       0.11525819 0.242203 -0.10298622 0.06035933
000160 26 61 3e be 8b 7d e7 3d dc dd 7b bd eb 35 d9 bd
       -0.18591747 0.11303242 -0.06149088 -0.10605987
000170 c8 aa 01 3e 6b 2a 78 be e8 78 03 be 62 d6 7b 3d
       0.12662804 -0.24234931 -0.12839091 0.06148375
000180 76 a4 a4 bb 0d 13 91 bd b8 09 ef bd c6 c4 7d bd
       -0.005024488 -0.07083712 -0.116717756 -0.061955236
000190 20 29 4d bc e0 ce f0 bc e0 8f 94 bd c0 f7 28 be
       -0.012522012 -0.02939552 -0.072540045 -0.16500759
0001a0 24 24 0b 3e 77 6b 93 bd 58 34 8e bd d3 2d 38 bd
       0.13588005 -0.07198232 -0.069435775 -0.044965576
0001b0 c0 b4 ff 3d a1 4b 93 3d 9c 4f e8 3d 83 61 ef bc
       0.12485647 0.071921594 0.11343309 -0.029221302
0001c0 da 9e 90 bd 71 d3 e0 bd b0 bc aa 3d 76 6a cd 3c
       -0.070615485 -0.10977829 0.083367705 0.025075179
0001d0 9c af a2 bd e6 1a 1f be 30 1e ec 3c c0 0f 36 bc
       -0.07943651 -0.15537605 0.028822988 -0.0111121535
0001e0 26 7d 0c 3c b3 49 84 3d 4f 2f 2a 3e 83 5f c6 3e
       0.00857476 0.064593695 0.1661961 0.38744745
0001f0 88 86 46 bd 0b c3 94 bd 0b 7c 11 3d 6f 20 29 3b
       -0.048468143 -0.07263764 0.035518687 0.0025806685
000200 7d b8 e1 bd 95 fa 13 be 60 00 e2 3d 2c fd 2e bd
       -0.110215165 -0.14451058 0.11035228 -0.042721912
000210 c0 99 b5 bd c0 1d 35 3d 10 b6 ce bc 8e 49 06 be
       -0.08867216 0.044217825 -0.025233299 -0.13113996
000220 6e 7b 99 3d 38 ec 1c 3b 5a 7b 9c bd 56 b8 4b 3e
       0.074942455 0.0023944508 -0.07640715 0.19894537
000230 60 08 6f bc 10 f6 09 be 2e 5e 8b 3d c2 6f f3 3d
       -0.014589399 -0.13472772 0.06805073 0.118865505
000240 a6 0b c5 be 24 a1 42 3e 66 39 6a 3e 7f 4e 78 3e
       -0.3848545 0.19006783 0.22873458 0.24248694
000250 32 58 27 3e 00 d8 8e bb bc eb d8 bd 00 bd 08 3e
       0.16342238 -0.0043592453 -0.10591838 0.13353348
000260 2d 55 a6 bd 57 a6 89 be ad 6d b2 3d f2 05 19 3e
       -0.08121715 -0.2688472 0.08712325 0.14943674
000270 b0 62 1d 3e 07 e0 7d 3e 97 23 10 be 59 5c aa be
       0.15369678 0.24792491 -0.14076076 -0.3327358
000280 35 fa d9 bd 61 b9 8c 3c a4 6b 8a 3d be 7d 2b bd
       -0.10643426 0.01717824 0.06758812 -0.041867964
000290 ba 34 0b be e0 1e 71 be 00 c7 46 be 7e 78 29 3e
       -0.13594332 -0.23546934 -0.1941185 0.1654987
0002a0 3a 09 6f 3e 35 84 2a be 56 fc b9 3d a2 c9 9b 3e
       0.23343363 -0.16651995 0.090813324 0.3042727
0002b0 d6 da 5c be 7b fc 6b 3c 43 b4 f3 bc f9 4d 2f 3c
       -0.21567854 0.014403458 -0.029749041 0.0106997425
0002c0 2d 08 a6 bd a8 ac 36 3d 2c 87 22 3e bb 61 59 3e
       -0.08107028 0.04459825 0.15871876 0.21228687
0002d0 d0 31 6f bd 18 8f 61 3d 60 46 49 3d 68 cb 3f 3e
       -0.058397114 0.055068105 0.04913938 0.18729937
0002e0 d5 65 75 3e 90 c8 d3 3d d2 4d aa bd bf e0 d2 bd
       0.23964627 0.10340989 -0.08315624 -0.10296773
0002f0 bc bb 6a be 71 28 4d bc b4 2b 36 be 91 1c e6 bd
       -0.22923177 -0.012521849 -0.17790109 -0.11235917
000300 e4 5d 6e 3d ba ef b1 be f8 ef 1b bd d2 c0 1e be
       0.05819501 -0.3475321 -0.03807065 -0.15503243
000310 44 4b 30 be f0 f6 17 be c6 1f 66 3e 68 d8 3d 3d
       -0.17216212 -0.14840293 0.22473058 0.04634896
000320 38 96 3f be 1f de cd 3c fe ce 7c be 9c d0 19 3e
       -0.18709648 0.02513033 -0.24688336 0.15020984
000330 80 36 e1 bd c5 cf 5c be 66 70 84 3d 8d 49 0e be
       -0.10996723 -0.21563633 0.06466751 -0.13895245
000340 0a a5 b1 3d 4a c8 7b 3d cc 00 11 3e c5 57 5d 3e
       0.08674057 0.061470307 0.1416046 0.21615513
000350 94 94 cf 3d 5a 44 7a 3e a8 f3 76 bd 1a e2 5b be
       0.10135761 0.24440137 -0.060290962 -0.2147297
000360 9d fb 10 bd 63 3f 61 3f 8c e7 79 be 56 cf 88 3e
       -0.035396207 0.87987345 -0.24404734 0.26720685
000370 34 f2 f2 3d 95 f8 cd 3d 23 59 00 3e 4b 82 b1 bd
       0.11862603 0.10057179 0.12534003 -0.086674295
000380 8e ea 80 bc d1 da 54 bb 10 8d eb 3c fc 7e 99 3d
       -0.015736844 -0.0032479058 0.028753787 0.074949235
000390 58 62 6b 3e e0 d9 6c 3c 18 b0 bb 3d f8 85 33 be
       0.22986734 0.014456242 0.091644466 -0.17531574
0003a0 4a ac 2b 3e fb 0b 35 be 71 95 07 be 21 25 5f be
       0.16764942 -0.17680351 -0.13240601 -0.21791507
0003b0 fa eb 1d 3e 82 63 d7 bd 7a 1e 23 bc 6c 9a e7 3c
       0.15422049 -0.105170265 -0.009955997 0.028271876
0003c0 ff 21 2e 3d 7b 91 08 be b8 48 dc bd 51 00 28 be
       0.04251289 -0.13336746 -0.107560575 -0.1640637
0003d0 46 77 7d be 00 3e 3a 3d 50 39 7d bd 56 6e 3e 3e
       -0.2475253 0.045469284 -0.061822236 0.18596777
0003e0 dd 5c 90 bd c5 a3 08 be a4 d4 61 3d 5c 5b 5c 3e
       -0.07048962 -0.13343723 0.05513443 0.21519226
0003f0 70 a8 13 3e 5e 54 b2 3c d1 a3 15 be 09 a6 44 3d
       0.14419723 0.021768745 -0.14613272 0.048009906

layers.1.bias f4 [32]
000000 32 ec dd be 6d 82 21 be 53 d6 8d bd 15 4c 27 bb
       -0.43344265 -0.1577241 -0.06925645 -0.0025527526
000010 54 75 a3 be ed 7a 32 be ea ec 93 be f6 dd 9f bd
       -0.31925452 -0.17429705 -0.2889169 -0.078060076
000020 c8 ca bc be 78 d1 d0 bd 1d 75 8d be 84 55 64 be
       -0.3687346 -0.10196203 -0.27628413 -0.22298247
000030 1f 41 8c be 03 13 ae bd c4 bd 13 be fb 18 8b be
       -0.27393433 -0.0849972 -0.14427859 -0.27167496
000040 eb c4 00 3d 00 fb af bd 29 84 8a bd 9e e4 d2 be
       0.031437796 -0.08592796 -0.06763489 -0.41190046
000050 85 0f 1d be 95 4a 49 bd ec 1c 70 3e 6d 6a a4 be
       -0.15337951 -0.049143393 0.23448533 -0.32112446
000060 86 c5 8b be 86 6f 41 be c6 7d 13 be 7c ce d0 be
       -0.27299136 -0.18890199 -0.14403448 -0.40782535
000070 ec d1 08 be 01 51 44 be ee b7 b7 be bf 5c 5c be
       -0.13361329 -0.19171526 -0.35882515 -0.21519755

layers.2.weight f4 [16, 32]
000000 01 bc 79 3e 6f 01 56 3e 75 e3 0a 3f 3d fc c0 3e
       0.24388124 0.20898984 0.5425332 0.37692443
000010 8d 46 94 3d 08 f1 6c 3e 98 ec 7c 3e bb 3f 69 3e
       0.07240019 0.23138821 0.24699628 0.22778217
000020 ab 20 9b 3e 55 b0 25 be 6c 10 b3 3d 9c 82 00 3e
       0.3029836 -0.16180547 0.087433666 0.12549824
000030 31 06 2c 3e 91 1f 35 3f 31 7d f4 3d 89 75 66 3e
       0.16799237 0.7075129 0.11937941 0.22505774
000040 97 1d 13 3f 3b 39 72 3e 5e e2 c2 3d 5b 25 8f 3d
       0.57467026 0.23654644 0.09515832 0.06989547
000050 c4 5c 17 3e e3 13 9a 3e 85 12 13 be 3a f5 40 3e
       0.14781481 0.30093297 -0.14362533 0.18843547
000060 f6 59 0a 3e de 86 b3 3e 34 c2 4e 3e ee f5 d6 3e
       0.1351088 0.35063833 0.2019127 0.41984504
000070 67 22 48 bd 76 14 ce 3e cf ef 41 3e 49 6f 73 3e
       -0.048860934 0.40249985 0.18939136 0.2377292
000080 ad 13 3f 3e ed c9 a0 3e a4 03 59 3f 69 65 9c 3e
       0.1865985 0.31404057 0.8477118 0.3054612
000090 9d e1 2e 3e 93 42 ca bd 80 59 ec 3e 03 1e 12 3e
       0.17078252 -0.09875979 0.46162033 0.14269261
0000a0 29 73 e3 3e a6 99 6a bd 7a 6f b8 3d e9 c8 e2 bd
       0.44423798 -0.057275437 0.090056375 -0.11073477
0000b0 d7 84 c0 3e a5 a6 24 3d 5f 76 27 3e 1f 94 85 3e
       0.3760135 0.040197987 0.16353749 0.2608957
0000c0 ec 38 2a 3f de 5e c4 3e 08 a9 8e 3e 1a eb 00 3e
       0.66493106 0.38353628 0.27863336 0.12589684
0000d0 1b c6 7e bc 7d 2b 6e 3e cf 45 f9 bd 4d c1 08 3e
       -0.015550162 0.23258777 -0.12171518 0.13354988
0000e0 0d 3c 99 3e bc 40 bb 3d 9c 24 3b 3e 00 e1 1d 3e
       0.29928628 0.091432065 0.18275684 0.15417862
0000f0 c8 fd 4a be c7 62 66 3e 54 89 2e 3c 8b 6c ea 3d
       -0.19823372 0.22498618 0.010652859 0.11446484
000100 71 78 b6 3e 11 4a cd 3e 8e a5 b7 bc bb 90 6b 3e
       0.35638765 0.4009557 -0.02241781 0.23004429
000110 fa a1 a6 3e c6 d3 bd bd fc 3e a7 3e c5 e4 0c 3e
       0.32545453 -0.09268908 0.3266524 0.13759144
000120 0b 0f e9 3e 72 2d fb bd 0a 5f af 3e eb f3 3a 3e
       0.4551929 -0.122645274 0.34252197 0.1825711
000130 4e 6f d2 3e e4 3a 4d 3c f4 63 99 3e ec b7 be 3e
       0.41100544 0.012526248 0.2995907 0.37249696
000140 49 a4 a3 3a b1 56 9a 3d 2e 61 67 3e ae 95 31 3e
       0.0012484874 0.07536066 0.22595665 0.17342255
000150 e7 f4 1f 3c 77 48 1a 3f d3 2e 0a 3c 75 25 4f 3d
       0.009762979 0.6026682 0.008434015 0.05057283
000160 99 b0 8a 3e c7 cd a6 3e d0 ad 7e 3e ea 1c d0 3e
       0.27087858 0.3257887 0.24870992 0.4064706
000170 bd 51 1b 3c 4a 70 98 3e 12 e7 f3 3d 5e c6 e5 3e
       0.009479937 0.2977317 0.119093075 0.44877905
000180 d0 87 a3 3e 91 6b 8e 3e 01 50 99 3d 50 9d 44 3e
       0.31939554 0.27816442 0.07485963 0.19200635
000190 9f cc 05 3e ce be dc bb 67 84 bc 3e ba 74 b5 3d
       0.13066338 -0.006736613 0.36819765 0.088601544
0001a0 51 0e ca 3e ab 6d 0a be d9 f7 19 3e f0 82 8d 3d
       0.39464048 -0.13518398 0.15035953 0.0690974
0001b0 11 b6 0f 3e 06 da e2 bd ca 51 0e 3e 7e b0 dc bc
       0.14034297 -0.11076741 0.13898388 -0.026939627
0001c0 9b aa 5e 3d b8 c1 25 3e ac 44 6a 3c 2f 01 54 3e
       0.05436192 0.16187179 0.014298599 0.20703577
0001d0 b5 a9 1e 3d 3f 14 d1 3e e0 61 01 be 73 e0 8e 3e
       0.038736064 0.4083576 -0.12634993 0.27905616
0001e0 6b cf 1d 3e cc 9a f6 3d ad 76 cd bb 40 e9 9e 3e
       0.15411155 0.12041244 -0.006270251 0.3103733
0001f0 30 df 6e be 60 0f 8c 3e ef b7 f1 bd 4b 7d 53 3e
       -0.23327327 0.2735548 -0.11802661 0.20653264
000200 99 32 8a 3e a9 c3 2f 3e 3c 8d 6b bc 25 f3 cd bc
       0.26991728 0.17164482 -0.014376935 -0.025140354
000210 41 42 57 3d b1 89 e9 3d 1a 97 da 3e 00 e7 6f 3d
       0.05255342 0.11403216 0.42693406 0.05856991
000220 94 53 bb 3e f6 b1 0e bd e7 64 9d 3e 94 e7 01 3e
       0.36587203 -0.034837686 0.30741045 0.12685996
000230 1e 0f ff 3d e3 c9 2a bd aa 71 68 bd 3e 2e 81 3e
       0.12454055 -0.04169644 -0.056749023 0.25230592
000240 e5 af 1e be cb 3e 8f 3e a6 2b 22 3e 2e d7 7f 3d
       -0.15496786 0.27977595 0.15836963 0.06246107
000250 56 00 43 be 32 f0 20 3e 78 4b dc bd b2 52 6e 3e
       -0.19043097 0.15716627 -0.10756582 0.23273733
000260 ba 4a d7 bb 93 1f 97 3e 3f e3 e1 3e 70 77 3b 3e
       -0.0065701874 0.29516277 0.44118688 0.1830728
000270 8d 83 58 3e da ca da 3e ba 59 e9 bb 43 b0 76 3e
       0.21143933 0.42732888 -0.007121292 0.24090676
000280 bb 5f 62 3c c5 1a ae 3e 50 9a cc bd a5 c1 5b 3e
       0.013816769 0.340048 -0.0999037 0.21460588
000290 20 b8 86 3d 78 47 24 bd 6d 00 86 3e 78 b5 24 3b
       0.06578088 -0.04010722 0.261722 0.0025132578
0002a0 4a 6b 88 3e 8f f8 a5 be 16 0c 45 3e f8 f1 b2 bd
       0.26644355 -0.32416198 0.19242892 -0.08737558
0002b0 3c 1f 79 3e 36 33 c5 bd 7e a6 37 3e 70 38 46 3d
       0.24328321 -0.09628908 0.17934605 0.048393667
0002c0 5f f4 07 3d e7 37 ac 3e 22 bd ee 3d 2e dc dc 3d
       0.033192035 0.336364 0.11657168 0.107841834
0002d0 a1 22 02 be 22 98 b6 3e 88 54 07 be ad 50 a8 3e
       -0.12708522 0.35662943 -0.1321584 0.3287405
0002e0 f2 18 72 3e d2 af fe 3d f3 c8 35 3e 78 79 81 3e
       0.23642328 0.12435879 0.17752437 0.25287986
0002f0 00 80 8a be 8d f2 22 3e 89 b1 9f 3d 4e 3e 83 3d
       -0.2705078 0.15912838 0.07797534 0.06408368
000300 ed 8d 94 3e 04 a7 e8 3d 2f 58 8a 3d 96 67 e5 3d
       0.2901453 0.11359981 0.06755101 0.11201398
000310 c1 17 3a 3e bf 34 52 bd 67 0e 9d 3e 55 79 32 3e
       0.18173124 -0.051319834 0.3067505 0.17429097
000320 d2 c8 99 3e 4e 72 29 be b2 53 95 3e 8b eb 02 3e
       0.30036026 -0.1654751 0.29165417 0.12785165
000330 2d 50 c0 3d d6 2e f0 39 d8 79 22 3e b2 70 07 bc
       0.09390292 0.00045811263 0.15866792 -0.008266615
000340 80 07 af 3d 2a c8 00 3e fd d7 2d 3e b4 3b 8c 3d
       0.085463524 0.12576357 0.16976924 0.06847325
000350 b8 27 90 3b c2 86 cf 3e ca 66 2f bd cb 8e de 3d
       0.004399266 0.405325 -0.042822637 0.10867079
000360 1d f3 3e 3e 28 b8 8a 3e 7b 0a 93 3e 52 df 7c 3e
       0.18647428 0.27093625 0.28718933 0.24694565
000370 af f7 55 3d e5 c6 67 3e be dd 4a bd 81 e7 15 3d
       0.052238163 0.22634466 -0.049527876 0.036597732
000380 ee e3 d4 3d 4c 75 0c be 69 c1 16 be aa c8 ca 3d
       0.10395037 -0.1371662 -0.14722218 0.09901555
000390 56 70 04 3e 99 e3 2f 3e 61 14 e1 bc 71 18 2a 3e
       0.12933478 0.17176665 -0.027475538 0.16610886
0003a0 c2 70 0e bd 48 5d 3e be a1 22 4b 3e 6c e8 17 3e
       -0.034775503 -0.18590271 0.19837429 0.14834756
0003b0 09 12 5b 3d ae 7f 90 3d f2 85 d3 3d 04 09 a4 3c
       0.053483997 0.07055603 0.103282824 0.02002383
0003c0 cd 96 9e 3b bb 5a 08 be b1 5f b0 bd 3d 2f 5e bd
       0.004839754 -0.13315861 -0.08612002 -0.05424427
0003d0 13 08 e6 3d c2 df 58 be 4f 7f 99 bd 49 ec 21 bd
       0.11232009 -0.21179107 -0.07494985 -0.03953198
0003e0 8f 79 08 3e d8 55 c5 3d 8c ea 1f 3d a3 80 e6 3c
       0.13327621 0.09635514 0.03904204 0.02813751
0003f0 3b da 28 3e 37 f6 28 3d 6e 92 7e 3e e5 46 7e bd
       0.16489498 0.041250434 0.24860546 -0.06207933

layers.2.bias f4 [16]
000000 21 ae 78 bd ed b8 71 bc ad 60 cb bd e0 7e 20 be
       -0.060712937 -0.014753562 -0.09930549 -0.15673399
000010 b1 33 1f be 90 96 cd bd 60 aa 6e bc 74 21 31 be
       -0.15547062 -0.10038483 -0.014566988 -0.17297918
000020 ed a3 a7 3e d9 a2 e9 bd fc d2 21 3f 46 62 08 be
       0.32742253 -0.11408014 0.6321256 -0.13318738
000030 23 41 39 3e 66 08 46 3d 15 5e 34 be 8c a0 d0 bd
       0.18091254 0.048347853 -0.17614014 -0.10186872

output.weight f4 [1, 16]
000000 83 64 28 3f 1a f3 1d 3f 7c 82 a9 3d 7c 7c 87 3d
       0.6577837 0.6169907 0.08276841 0.066155404
000010 cb b0 89 3d 29 29 04 3e 41 0c ac bc e2 a4 2b be
       0.06723174 0.12906326 -0.021001937 -0.16762117
000020 37 42 54 be 22 69 c8 3d ac a9 48 bf 23 42 5b 3d
       -0.20728384 0.097856775 -0.783839 0.05352987
000030 f7 68 3e be 29 08 43 be 18 ea cf 3b d7 aa b4 3c
       -0.18594728 -0.19046082 0.006345045 0.022054119
