vanilla_gan/19-02-27_10-11/discriminator.pt (torch_old, 3304 bytes, 7 tensors)

layers.0.weight f4 [16, 1]
000000 2a c6 15 be e6 87 93 be 88 83 9e be af b0 9f 3e
       -0.14626375 -0.2881462 -0.30959725 0.31189486
000010 7c 9b 1a be d4 86 17 be 7c e5 7b 3e e6 50 81 3e
       -0.15098375 -0.14797527 0.2459926 0.25257033
000020 25 45 d3 be 4f 9d 2c be 09 7c 80 be 3d 68 8c be
       -0.4126369 -0.16856883 -0.2509463 -0.27423277
000030 fe d4 99 be 05 54 7b be 11 86 07 3e eb f1 1d be
       -0.30045313 -0.2454377 0.13234736 -0.15424316

layers.0.bias f4 [16]
000000 ee 5f 15 3f fb 9d bb 3f 42 73 cb 3f 8e ba c9 bf
       0.583495 1.4657587 1.5894549 -1.5760057
000010 bc db 1a 3f 4d df 15 3f 35 62 a0 bf 71 da a3 bf
       0.6049154 0.58543855 -1.252997 -1.2801038
000020 2c 81 db 3f e6 9f 2d 3f 35 7d 7b 3f 38 d6 af 3f
       1.7148795 0.6782211 0.98237926 1.3737249
000030 29 dd c2 3f 62 7e 77 3f b0 4f 0d bf d4 2d 20 3f
       1.5223743 0.9667722 -0.5519972 0.6256993

layers.1.weight f4 [16, 16]
000000 13 0c 6e be 79 86 76 c1 79 2a 5c c1 e4 56 60 41
       -0.23246793 -15.40783 -13.760369 14.021214
000010 5d 33 79 be bc a6 90 be 29 e5 58 41 d6 c9 7b 41
       -0.24336 -0.28252208 13.555947 15.736776
000020 fc bf bf bc 86 b6 08 be 78 75 90 be 45 42 8b c1
       -0.023406975 -0.13350877 -0.28214622 -17.407358
000030 90 57 7b c1 a9 d1 21 be 5d 30 7e 3e e1 06 67 be
       -15.708878 -0.15802635 0.24823137 -0.22561218
000040 f9 ee 22 3e e5 17 59 3c f2 1f cf 3b 5f 75 a9 bb
       0.15911473 0.013250326 0.006320947 -0.0051714624
000050 08 c8 37 3e 57 ef 19 3e f9 13 d8 bb 17 90 27 bc
       0.179474 0.15032707 -0.006594178 -0.010227225
000060 b7 d1 54 3d ab 42 ef 3d 51 d0 7a 3d ad ac a5 3c
       0.051957812 0.11682638 0.061233822 0.02022394
000070 1e 9a 36 3c c7 70 c3 3d d1 8c 36 be 63 b9 17 3e
       0.011145143 0.09542995 -0.17827155 0.14816813
000080 95 9c 49 be 50 3f 5c c1 41 50 39 c1 6a b7 46 41
       -0.19688638 -13.765457 -11.582093 12.419779
000090 2c 5c 85 be 6f c2 99 be 02 6f 34 41 3c 99 4b 41
       -0.26046884 -0.30031154 11.2771015 12.724911
0000a0 df c8 03 bd e2 e3 6e be ac 0e 42 be c3 ec 68 c1
       -0.032173987 -0.23329118 -0.1895091 -14.557803
0000b0 82 30 5a c1 ee 8c db bd 11 f4 8e 3e 52 c0 21 be
       -13.636843 -0.107202396 0.27920583 -0.1579602
0000c0 17 47 16 3e 4f 9a da b9 ab 36 ba 3c c6 c1 33 bc
       0.14675556 -0.0004169517 0.022731146 -0.010971492
0000d0 02 cf 28 3e 77 32 05 3e 1e cd fe bb 9e 8f 3a 3b
       0.16485217 0.13007532 -0.0077759167 0.002846695
0000e0 77 e1 21 3d 72 01 f5 3d 20 6b c4 3d c1 ab a8 3b
       0.03952166 0.11963166 0.09590745 0.005147428
0000f0 61 f8 0a 3a 37 f1 c6 3d a2 97 5d be 8c 5a 18 3e
       0.00053012936 0.09713977 -0.21639875 0.14878291
000100 81 81 0a 40 16 3e 66 3d 3d 46 60 3d 9e c1 2b bd
       2.1641543 0.056211554 0.054754484 -0.041932695
000110 5d f1 19 40 f1 41 16 40 80 ec bb bd f4 fd d2 bd
       2.4053566 2.3477747 -0.09175968 -0.10302344
000120 04 e8 4e 3f 8c 24 08 40 37 02 ad 3f 22 58 c4 3d
       0.8082278 2.1272306 1.3516301 0.095871225
000130 07 e8 b2 3c 6f 31 ad 3f ca a6 f7 bf 2a 44 0c 40
       0.021839155 1.3530711 -1.9347775 2.1916604
000140 20 8a 92 be 50 17 60 c1 d4 ee 48 c1 5c 88 51 41
       -0.28621006 -14.005692 -12.558308 13.095791
000150 05 83 95 be b1 bb 8d be da f9 3d 41 a9 7f 58 41
       -0.29201522 -0.2768226 11.873499 13.531167
000160 98 71 54 bd 5d 39 5d be e6 44 c4 bd 92 03 70 c1
       -0.051866144 -0.21603914 -0.09583454 -15.000872
000170 7e 66 67 c1 d2 23 a0 bd 5e 83 85 3e ba d0 a3 bd
       -14.4625225 -0.07819332 0.26076788 -0.07998796
000180 1b 61 12 40 44 03 e6 3d b5 52 3d 3d 25 ce 9f bd
       2.2871768 0.112310916 0.046221454 -0.07802991
000190 3f b7 0e 40 cc f7 18 40 be d2 e1 bc 69 78 07 bd
       2.2299345 2.3901243 -0.02756631 -0.033073816
0001a0 42 06 5d 3f d9 93 0f 40 87 13 b9 3f a6 0d d0 3c
       0.86337674 2.243399 1.4459084 0.025397133
0001b0 d8 b5 d5 3d e6 84 a3 3f 15 4b 01 c0 6f 37 14 40
       0.104350746 1.2774932 -2.0202076 2.3158834
0001c0 02 48 78 be e4 49 6b c1 e8 d1 4e c1 67 49 59 41
       -0.24246219 -14.70554 -12.926247 13.5804205
0001d0 60 bb 43 be 66 12 9d be 21 25 40 41 1e 8a 5b 41
       -0.19114447 -0.306781 12.009065 13.72122
0001e0 92 af 2d bd 54 d0 67 be 78 9f 3f be 7d c0 76 c1
       -0.042403765 -0.22638065 -0.18713176 -15.421994
0001f0 ca 92 6d c1 76 26 44 be 00 4a 30 3e 89 ee 2b be
       -14.848337 -0.19155297 0.17215729 -0.16790213
000200 91 60 09 40 d4 ac 09 3d 92 ad a1 3d 0d ab 73 bd
       2.146519 0.033612087 0.07894434 -0.0594893
000210 ec 4d ec 3f 70 4f 00 40 eb e9 97 bd c0 0b 27 bd
       1.846128 2.0048485 -0.07417663 -0.04078269
000220 e3 23 73 3f 36 2a ef 3f de 8e cd 3f 9b 8a ee 3d
       0.94976634 1.8684757 1.6059225 0.11647531
000230 3d a3 b7 3d 08 e4 d7 3f 53 b1 15 c0 ba 5e 00 40
       0.08966682 1.6866465 -2.338948 2.0057817
000240 5b a5 f6 3d 30 b2 6f 41 dd 2d 57 41 d0 19 5d c1
       0.12043258 14.981003 13.448697 -13.818802
000250 8f 15 82 3e 3a 96 bf 3e 24 82 49 c1 e8 52 5d c1
       0.25407073 0.374193 -12.594273 -13.832741
000260 a9 4a 10 3d 34 5b 90 3e 20 1e 10 3e cd ba 7b 41
       0.03522745 0.28194582 0.14073992 15.733106
000270 df 64 71 41 3e 50 d1 3d 01 02 a6 be d1 1a 8a 3e
       15.087127 0.10220383 -0.32423404 0.26973584
000280 dd 9e 16 40 0d e2 13 3f 43 79 e0 3e 59 97 ef be
       2.3534462 0.577668 0.43842515 -0.46795157
000290 5c f7 0f 40 20 38 12 40 15 2f 3f bf ea 93 2e bf
       2.2494726 2.2846756 -0.74681216 -0.6819445
0002a0 9c 22 ea 3f 9d 2d 06 40 47 1d 10 40 7d f5 0e 3f
       1.8291812 2.096534 2.251787 0.55843335
0002b0 9b 66 fb 3e 28 02 4f 40 97 55 10 c0 6f 33 05 40
       0.4910172 3.2345066 -2.255224 2.0812643
0002c0 98 a9 be 3e ea c0 84 41 f6 1b 68 41 18 13 6f c1
       0.37238765 16.594196 14.506826 -14.942162
0002d0 ed 95 84 3e 50 70 9d 3e ff 96 56 c1 8b b7 6c c1
       0.25895634 0.3074975 -13.411864 -14.79481
0002e0 3e 2a cf 3d 59 e7 7c 3e 00 e2 4a 3e 3b 9d 85 41
       0.10115479 0.24697627 0.19812775 16.701773
0002f0 4b ac 83 41 ae ad 1b 3e c8 fe a9 be e5 d3 3e 3e
       16.459127 0.15202972 -0.33202195 0.18635519
000300 f1 0a 06 c0 65 d8 1e bd 1e 48 23 bc 7b ee 0e 3c
       -2.0944178 -0.03878059 -0.009965925 0.00872385
000310 ef 3f 1b c0 80 b8 14 c0 e5 6a e9 3d 9e f5 62 3d
       -2.4257772 -2.323761 0.11397342 0.05541002
000320 c5 48 72 bf ac 7a 0d c0 82 0c af bf 60 38 88 bd
       -0.9464229 -2.2106123 -1.3675692 -0.06651378
000330 d1 2d b5 bd 5c e3 a7 bf 2a 11 00 40 c3 7a 16 c0
       -0.088466294 -1.311626 2.0010476 -2.3512428
000340 97 f5 19 be 13 ee 69 c1 3a b0 4c c1 73 5d 58 41
       -0.15035091 -14.620624 -12.793024 13.522815
000350 e3 bb 17 be bc 94 ab be 68 1e 4e 41 ca 49 72 41
       -0.14817767 -0.33511913 12.882423 15.143015
000360 35 72 d5 bd da 02 8d be b4 11 17 be 7b 2c 85 c1
       -0.10422174 -0.27541238 -0.14752847 -16.646719
000370 eb a2 64 c1 db 92 0b be 38 1e 25 3e 2b 2d 28 be
       -14.289775 -0.1363024 0.16124809 -0.1642348
000380 f8 d3 0b c0 df fa 61 bd 14 c4 fa b9 8f 73 a4 3d
       -2.1848125 -0.05517089 -0.00047829805 0.080298536
000390 a0 9d 20 c0 c1 91 19 c0 75 a5 ca 3d cf a6 c8 3d
       -2.5096207 -2.399521 0.0989484 0.09797441
0003a0 cd 69 66 bf 9b bf 09 c0 13 71 ad bf 67 96 e8 bd
       -0.9000519 -2.1523197 -1.3550133 -0.11356812
0003b0 86 34 46 3c 0f 01 a2 bf ef ef fd 3f 5b 0d 1b c0
       0.0120974835 -1.2656573 1.9838847 -2.4226902
0003c0 63 e9 cc 3d 04 ba 67 41 4f 3f 50 41 bb 3a 54 c1
       0.100054525 14.482914 13.015456 -13.2643385
0003d0 45 3e 6d 3e 90 c6 75 3e 3f 3a 4d c1 28 ae 71 c1
       0.23168285 0.24001527 -12.82672 -15.105019
0003e0 7b d5 d1 3d 7f c8 46 3e bf 2f 38 3e b0 91 84 41
       0.10245796 0.1941242 0.17986964 16.571136
0003f0 57 3c 6a 41 e0 17 55 3e 72 b7 9b be 96 34 dc 3d
       14.639731 0.20809889 -0.30413395 0.107522175

layers.1.bias f4 [16]
000000 a0 62 34 bf e6 f4 44 bd 32 db 1c bf e3 e6 a5 bd
       -0.7046299 -0.048085116 -0.61271966 -0.08100679
000010 72 fd 9e bd cc 7e 12 bf fc 29 86 bd c4 ee 26 bf
       -0.077631846 -0.57224727 -0.06550977 -0.6520808
000020 33 16 c8 bd fe 02 2a 3f 15 3d 1a bf 5c b9 42 3f
       -0.09769859 0.66410816 -0.60249454 0.76064086
000030 b9 02 b5 3d 26 7a 29 bf a3 f6 cd 3d 77 20 35 3f
       0.0883841 -0.6620201 0.10056808 0.7075266

layers.2.weight f4 [8, 16]
000000 5a a8 8b c0 cd 29 37 3f 2d dd a3 c0 c5 1b b1 3e
       -4.3643007 0.7154816 -5.120749 0.345915
000010 27 27 48 3d 39 80 ab c0 cc 52 33 3e 86 49 9d c0
       0.048865464 -5.359402 0.17512053 -4.915225
000020 0d ba e5 bc a9 b8 90 40 76 40 29 3e 4d 2b 5a 40
       -0.028042817 4.5225415 0.16528496 3.4088929
000030 ed a2 a5 bd ed 08 72 c0 70 8e fa bc b2 90 92 40
       -0.08087716 -3.7817948 -0.030585498 4.580163
000040 25 07 63 c0 aa b6 2e 3f d5 06 b7 c0 67 6e 5a 3e
       -3.547311 0.68247473 -5.719584 0.21331178
000050 aa 2d 56 3e a5 81 a3 c0 47 73 8a 3d d5 2a 97 c0
       0.20915857 -5.1095757 0.06760269 -4.7239785
000060 34 e9 5b 3e 06 69 88 40 5d 2a be 3c 62 de 3d 40
       0.21475679 4.2628202 0.02321356 2.9666982
000070 34 4f d0 bd f4 3f a2 c0 0a ef a7 bd aa f2 8e 40
       -0.10171357 -5.070307 -0.0819989 4.467122
000080 1c 6a fd bc 4d 8a d6 3d 15 f5 db bc 06 00 d2 3d
       -0.030934386 0.104755975 -0.026850263 0.10253911
000090 a8 8f 15 bd 9d 97 b4 bc 47 60 03 bd 6c ae 11 bd
       -0.036513954 -0.022044951 -0.03207424 -0.035566732
0000a0 62 68 f6 bc a4 21 16 3d 09 8a 1d bd 7a 54 ee 3c
       -0.03007907 0.036653176 -0.03846172 0.029093016
0000b0 03 de e4 3c 49 ac 01 bd 38 46 f9 3c a6 08 f4 3c
       0.027937895 -0.031658445 0.03042899 0.02978928
0000c0 e7 62 dc 3d 98 a8 7c c0 ef 18 13 3e 1a f1 46 c0
       0.107610516 -3.9477901 0.1436498 -3.1084657
0000d0 d1 8b 33 bf 96 20 02 3e f6 23 3d bf 73 91 c8 3d
       -0.7013522 0.12707743 -0.73883 0.09793367
0000e0 dc bc 46 bf bb e8 06 be 20 ee cf be b6 9d 3d be
       -0.77631927 -0.13174717 -0.40611362 -0.18517193
0000f0 33 a4 38 3f e0 95 c0 3d d2 a4 35 3f b2 11 e3 bd
       0.7212555 0.094035864 0.7095462 -0.110873595
000100 03 5e 86 40 7f e5 10 bf 65 de c2 40 3c e5 c7 be
       4.198976 -0.56600183 6.089648 -0.3904208
000110 9f 8e 94 bd e2 f8 ab 40 17 b3 28 3b 72 84 9d 40
       -0.07253765 5.374131 0.0025741511 4.9224176
000120 0f 71 14 be 86 ab 99 c0 dc 92 c4 bd e7 1c 48 c0
       -0.14496253 -4.802188 -0.09598324 -3.126764
000130 f5 79 8d 3d cb 83 87 40 1d e5 b7 3d 2d 93 95 c0
       0.06908027 4.234838 0.08979247 -4.674216
000140 6f ea ca be 9a 02 c0 bf e9 23 d3 be 0b 08 ae bf
       -0.39631984 -1.5000794 -0.41238335 -1.3596205
000150 8a cd 12 bf b3 0c b9 be 7f 75 16 bf 16 39 cc be
       -0.5734488 -0.361425 -0.58773035 -0.39887303
000160 2b 2f 17 bf a7 5b bf 3e 25 cb 0d bf 49 d0 d1 3e
       -0.5905635 0.37374613 -0.553881 0.4097922
000170 90 69 1d 3f 76 ae cd be f1 0b 1b 3f b7 69 cd 3e
       0.614892 -0.40172166 0.60565096 0.40119717
000180 22 32 30 be 78 24 73 40 4d ff 1c be 15 9a 45 40
       -0.17206624 3.7991009 -0.15331765 3.0875294
000190 dd a1 04 3f 4d 17 ff bd 4d 15 fd 3e be fe 28 be
       0.51809484 -0.12455616 0.49430314 -0.16503426
0001a0 1a c6 10 3f e3 f2 d5 3d ef 6c 84 3e fa 2e 1e 3e
       0.5655228 0.104467176 0.2586436 0.15447608
0001b0 ee 8d 01 bf 0b 55 20 be 87 24 04 bf b3 87 15 3e
       -0.5060719 -0.15657441 -0.51618236 0.14602546
0001c0 51 14 5c c0 4f ab 11 3f b2 12 c6 c0 49 9e 38 3e
       -3.43874 0.5690202 -6.189782 0.18029131
0001d0 57 a5 6f 3d 21 9a 8a c0 ff bd 84 3d 0a 27 89 c0
       0.05850729 -4.3313146 0.064815514 -4.2860155
0001e0 01 9f da 3d 81 36 91 40 68 f3 12 3d 0b 4b 2d 40
       0.10674859 4.5379033 0.03587666 2.7077053
0001f0 26 51 74 bd d4 2c 97 c0 12 3c 0b bd 8f 34 96 40
       -0.0596477 -4.724222 -0.033992834 4.693916

layers.2.bias f4 [8]
000000 13 57 00 40 7f 3b f6 3f be 8d 19 be 78 70 47 3f
       2.0053146 1.9236907 -0.14995477 0.7790599
000010 b5 e1 e9 bf d2 88 6f c0 8c 3c 8a bf c7 5a f4 3f
       -1.8272005 -3.7427258 -1.0799727 1.9090203

output.weight f4 [1, 8]
000000 99 0e 2b bd f7 9c 0f bd 31 90 f9 be 03 80 86 bd
       -0.04176197 -0.035061803 -0.48742822 -0.06567385
000010 ef 0b 13 3d cb 81 a6 bd 20 e4 7c 3d 06 bb 0a bd
       0.035900053 -0.08130225 0.061740994 -0.033869766
