vanilla_gan/19-02-27_10-11/generator.pt (torch_old, 5971 bytes, 7 tensors)

layers.0.weight f4 [16, 1]
-0.3978569 0.77352023 -0.74512625 0.8605001 -0.6328388 -0.26125717 -0.65150225 -0.13374746
-0.20937459 -0.41510308 1.3621808 0.21293144 0.41280946 0.17332336 0.70310205 -0.28488287
00000000: e6b3 cbbe 6c05 463f 98c0 3ebf bc49 5c3f
00000010: b901 22bf 80c3 85be dac8 26bf 18f5 08be
00000020: 4b66 56be 6488 d4be f15b ae3f b30a 5a3e
00000030: c35b d33e ae7b 313e 7ffe 333f 2bdc 91be

layers.0.bias f4 [16]
0.9739141 0.6049924 1.0829186 -0.8606861 0.80420667 -0.78911555 -0.66596746 -0.33490252
0.35979977 -0.00046613204 1.0589336 -0.18311682 0.66682464 -0.1882749 0.028105484 0.4771282
00000000: 6f52 793f c8e0 1a3f 149d 8a3f ed55 5cbf
00000010: 7de0 4d3f 7a03 4abf d87c 2abf 5878 abbe
00000020: ad37 b83e 2f63 f4b9 238b 873f fa82 3bbe
00000030: 05b5 2a3f 23cb 40be 793d e63c 264a f43e

layers.1.weight f4 [32, 16]
0.50256115 0.5837412 0.7403274 0.3139826 0.5791628 0.2291109 -0.10797611 -0.13786286
0.46998817 0.02405263 -0.578099 0.21186435 0.7437094 0.2112003 0.34971288 0.38669273
0.0070756376 -0.15460294 -0.15256128 0.11434841 -0.11197299 0.21146876 -0.060575694 0.06265262
-0.19880164 -0.18361056 -0.24527708 0.04045108 -0.13851213 -0.0018746555 -0.20452371 0.06676015
-0.3747187 0.096855626 0.16539218 0.04541646 -0.2713918 -0.24364564 0.017745823 -0.075215936
-0.083316885 -0.03204974 0.03638863 -0.09837516 -0.10623776 -0.09550919 -0.02955901 -0.27947307
-0.06881447 0.06642683 -0.02410101 0.15915619 -0.08820559 -0.24917898 -0.23932284 0.088063926
0.25168398 -0.0349232 0.2701918 -0.08643117 0.08790531 0.0122760255 -0.12480667 -0.023383738
-0.31952783 0.14674565 -0.0070177275 -0.15574925 -0.4257005 0.24995923 -0.16108039 -0.092867464
0.032521475 -0.030272482 0.01839904 -0.11995365 0.04532832 0.10814103 -0.18950465 -0.043250386
-0.22823274 0.02412598 -0.007808834 -0.097254284 -0.20498341 -0.13847658 -0.18418977 0.1622428
0.13622013 0.11178252 -0.044617124 -0.06277916 -0.037616298 0.0188786 -0.013664501 -0.0895743
0.045995034 -0.15147012 0.10128995 0.21221896 -0.16680664 0.2343246 -0.002811402 0.1662589
0.07418956 -0.177898 -0.05880472 0.24153581 -0.24428096 0.19001731 0.17213747 0.012643308
-0.041938864 -0.16542305 -0.25258702 0.14357002 -0.13536283 -0.09319076 -0.14027312 0.07444799
-0.06717076 0.1508217 0.35623428 -0.014358613 0.091120966 0.15323132 0.08601954 -0.005014278
-0.21935466 -0.044799995 -0.2346606 0.13029177 0.058607176 -0.119953364 0.23214832 -0.114983976
0.1727781 0.13156328 -0.41990685 -0.09059592 -0.012713246 0.09942476 0.22784728 0.28696585
-0.025105726 -0.3825417 -0.22208753 0.04196708 -0.23890536 -0.041278243 0.07060489 -0.10340381
-0.35148698 -0.049017813 0.0828332 0.16447829 0.24156834 -0.031730875 -0.0927 -0.24507429
-0.14040914 0.003266201 0.020782283 0.2803262 -0.2601303 0.19317654 0.2210719 0.23389947
0.128344 -0.18961436 -0.06311804 0.10726021 0.03135016 0.14078067 -0.28804255 0.007777645
-0.25753778 -0.37876508 0.051467225 -0.14112763 -0.114053495 -0.077750355 0.111319095 -0.04958105
0.09090827 0.06989321 -0.0015317157 -0.3797828 -0.21733613 -0.08575597 0.20607737 0.13950796
-0.20801954 -0.015195042 -0.27032 -0.028429613 0.082708746 -0.05369416 -0.17908627 -0.094946414
0.06977801 0.022189733 -0.0404823 -0.1066169 -0.20545772 -0.18782692 0.15528716 -0.26657373
-0.08747096 0.020942878 0.03181184 0.25426808 0.070877776 0.12411499 0.23536557 -0.23314592
-0.08865458 -0.08591489 -0.056951553 -0.08735111 0.08606742 0.18434761 -0.29658642 0.042188298
-0.114752606 -0.08929285 -0.031554557 0.17191662 -0.13690515 0.19604489 -0.0062382817 0.04399854
-0.17232169 0.23385978 -0.21692915 0.13440566 -0.073476076 0.22832142 0.16801254 0.07065198
0.19056763 -0.09440012 -0.00032363567 -0.10932889 0.1430277 -0.088469505 0.088418126 0.09646544
-0.31796756 -0.1378841 0.14803135 0.019555094 -0.30219233 -0.2367861 0.15130022 0.09521553
00000000: d9a7 003f 1070 153f 1986 3d3f 54c2 a03e
00000010: 0344 143f 0c9c 6a3e 9422 ddbd ec2b 0dbe
00000020: 4aa2 f03e 050a c53c 4cfe 13bf f8f2 583e
00000030: bd63 3e3f e444 583e 910d b33e 97fc c53e
00000040: c0da e73b 3c50 1ebe 0639 1cbe 802f ea3d
00000050: 1852 e5bd 448b 583e 381e 78bd 0450 803d
00000060: a892 4bbe 6804 3cbe ea29 7bbe 08b0 253d
00000070: 20d6 0dbe 00b7 f5ba aa6e 51be 8cb9 883d
00000080: 21db bfbe 3e5c c63d 915c 293e 9c06 3a3d
00000090: def3 8abe 3e7e 79be b05f 913c d00a 9abd
000000a0: 0ba2 aabd 9746 03bd 3e0c 153d ea78 c9bd
000000b0: 2f93 d9bd 529a c3bd bd25 f2bc 1817 8fbe
000000c0: 9aee 8cbd ca0a 883d 7b6f c5bc d7f9 223e
000000d0: 22a5 b4bd c628 7fbe 0c11 75be dc5a b43d
000000e0: b9dc 803e a10b 0fbd 9456 8a3e d302 b1bd
000000f0: b307 b43d 6221 493c a49a ffbd 418f bfbc
00000100: 2799 a3be 7e44 163e f7f4 e5bb bb7c 1fbe
00000110: 6af5 d9be 50f5 7f3e 42f2 24be 4c31 bebd
00000120: 3d35 053d fffd f7bc 95b9 963c 42aa f5bd
00000130: 30aa 393d 0b79 dd3d 820d 42be 5127 31bd
00000140: d8b5 69be d9a3 c53c 3fe1 ffbb 412d c7bd
00000150: 2ce7 51be cecc 0dbe 3e9c 3cbe fa22 263e
00000160: 4a7d 0b3e 3cee e43d 72c0 36bd 5c92 80bd
00000170: 8c13 1abd 4ba7 9a3c 12e1 5fbc bb72 b7bd
00000180: 4a65 3c3d fc1a 1bbe 1b71 cf3d ed4f 593e
00000190: 5ccf 2abe caf2 6f3e 803f 38bb c63f 2a3e
000001a0: b2f0 973d e52a 36be 38dd 70bd 2a55 773e
000001b0: ca24 7abe e693 423e ce44 303e e125 4f3c
000001c0: 16c8 2bbd a964 29be 1653 81be 0504 133e
000001d0: 8e9c 0abe ccda bebd c2a3 0fbe 3078 983d
000001e0: d390 89bd 0171 1a3e 5764 b63e 6340 6bbc
000001f0: a19d ba3d ace8 1c3e 032b b03d d04e a4bb
00000200: 829e 60be 3380 37bd de4a 70be 356b 053e
00000210: 140e 703d 1caa f5bd 4ab8 6d3e b87c ebbd
00000220: beec 303e 86b8 063e 08fe d6be 5b8a b9bd
00000230: 384b 50bc 359f cb3d cc50 693e 30ed 923e
00000240: 86aa cdbc 81dc c3be ea6a 63be ace5 2b3d
00000250: 9ba3 74be 6013 29bd 4c99 903d 60c5 d3bd
00000260: 1af6 b3be e7c6 48bd 74a4 a93d ff6c 283e
00000270: b15d 773e 3cf8 01bd 7fd9 bdbd c1f4 7abe
00000280: 6ac7 0fbe c20d 563b 9b3f aa3c ea86 8f3e
00000290: cc2f 85be 12d0 453e ac60 623e 5883 6f3e
000002a0: 9c6c 033e 442a 42be 0844 81bd 3eab db3d
000002b0: 0669 003d cf28 103e 507a 93be 9ddb fe3b
000002c0: fedb 83be 7fed c1be 4ccf 523d c383 10be
000002d0: e194 e9bd 943b 9fbd 44fb e33d 8015 4bbd
000002e0: 1d2e ba3d 2c24 8f3d dac3 c8ba e472 c2be
000002f0: 5d8d 5ebe d3a0 afbd f205 533e 2ddb 0e3e
00000300: 1303 55be a0f4 78bc 6267 8abe 38e5 e8bc
00000310: 3463 a93d 68ee 5bbd 6462 37be 4473 c2bd
00000320: c6e7 8e3d 3ec7 b53c c5d0 25bd f659 dabd
00000330: 8263 52be b355 40be 9903 1f3e 5a7c 88be
00000340: fa23 b3bd 6690 ab3c 224d 023d 6d2f 823e
00000350: 5e28 913d 0030 fe3d ac03 713e cebd 6ebe
00000360: 8890 b5bd 25f4 afbd 0846 69bd 24e5 b2bd
00000370: 1e44 b03d 9fc5 3c3e 2dda 97be a3cd 2c3d
00000380: 6a03 ebbd 2bdf b6bd 5a3f 01bd e90a 303e
00000390: dd30 0cbe febf 483e 806a ccbb d037 343d
000003a0: 1975 30be f078 6f3e ad22 5ebe a3a1 093e
000003b0: a07a 96bd 17cd 693e 7b0b 2c3e fcb1 903d
000003c0: 2924 433e da54 c1bd a5ad a9b9 d3e7 dfbd
000003d0: da75 123e 802f b5bd 9014 b53d ac8f c53d
000003e0: a5cc a2be 7d31 0dbe 8895 173e 0132 a03c
000003f0: f4b8 9abe 0e78 72be 72ee 1a3e 5c00 c33d

layers.1.bias f4 [32]
0.68454945 -0.20207945 -0.17670974 0.17986721 -0.013099476 -0.0029143444 -0.2892633 -0.23775005
0.00856838 -0.11497873 -0.20480956 -0.10881765 -0.033696994 -0.2285186 -0.088601224 -0.29720652
-0.23805264 0.1998049 -0.16534545 -0.37924197 -0.01091106 -0.14035751 -0.2631429 0.045141686
0.04678432 -0.20224136 -0.38237712 -0.02729373 0.08952165 0.91644514 -0.13040395 -0.36353934
00000000: a23e 2f3f eaed 4ebe 66f3 34be 1c2f 383e
00000010: 2f9f 56bc 96fe 3ebb 521a 94be c074 73be
00000020: 6462 0c3c f879 ebbd 99b9 51be cadb debd
00000030: dc05 0abd c800 6abe 8f74 b5bd 742b 98be
00000040: 12c4 73be a899 4c3e 5150 29be 012c c2be
00000050: 4dc4 32bc e1b9 0fbe abba 86be 7de6 383d
00000060: eaa0 3f3d 5c18 4fbe efc6 c3be 1a97 dfbc
00000070: 2057 b73d 269c 6a3f 9d88 05be d421 babe

layers.2.weight f4 [16, 32]
0.11393971 0.13556285 -0.13220035 -0.13590798 0.15496705 0.06852852 0.24572688 0.046531707
0.86699176 0.20783627 -0.13330582 0.32338658 0.2145177 0.050466187 0.6400284 -0.093318276
0.24730481 0.029850107 0.10446224 0.041001957 -0.042768087 0.07664521 -0.13327152 -0.12920201
-0.0023922005 -0.08258627 -0.1193765 0.07204251 -0.017516414 0.089984 -0.066358045 0.053034954
-0.24603215 0.07766281 -0.039578464 0.051145982 0.12459739 -0.05660989 -0.07138198 -0.10992353
0.1890317 -0.27374643 -0.08498627 0.08886594 0.13815881 -0.21507941 0.38581252 -0.111958586
-0.11938522 0.08799685 0.12097705 -0.27570656 0.5748447 -0.095201746 0.038149193 0.25072056
0.23157157 0.007791752 -0.026051084 -0.08006808 0.296007 -0.4550531 0.0316722 -0.15598775
0.025338808 0.07833378 0.34414035 -0.14369182 0.10491448 0.2727002 0.22633654 -0.19618818
0.26721048 0.14374635 0.21444786 -0.13149603 -0.023975251 -0.17964664 0.20487767 0.16486585
-0.13647741 -0.109582625 0.29464728 0.119840264 0.056446973 -0.079804756 0.084786445 -0.15052602
0.053448197 0.13886009 0.11200795 -0.40681002 -0.6030563 -0.25424758 -0.09670805 0.06469808
1.5270802 0.053102776 0.23179987 -0.23281123 -0.0136493165 0.45727056 0.39121926 -0.19935118
0.32833567 -0.32498917 0.40026376 0.21293417 0.22125027 0.12550917 0.38505656 -0.09414833
-0.22795527 -0.091078505 0.39201525 0.057287756 0.25980935 -0.27399626 0.1257739 0.015683906
0.0090676 0.26317555 0.06299933 -0.24564113 -0.33659032 -0.02336878 0.21918124 0.17031224
-0.20561293 -0.10212318 0.18047382 0.22697523 0.016648713 0.1649102 -0.03654746 -0.072641134
0.29386628 -0.013595651 0.024013363 0.24156049 0.3011235 0.055465788 -0.004097421 0.061548308
0.08951949 -0.17232382 0.22287823 -0.16794135 0.2936574 -0.26442733 0.30266425 0.14716482
0.40384933 -0.039607763 0.038817234 0.021064678 0.34695104 0.15567593 -0.016221661 -0.14425269
-0.32127988 -0.1739329 0.08805185 -0.31804538 0.12862694 -0.053868648 -0.15910234 0.20147307
0.05425038 0.04693618 -0.19513758 -0.1681256 0.03113331 -0.12488018 0.109043814 0.11996486
-0.075237036 0.012646661 0.040647853 0.045686293 0.19195342 0.032360323 0.16145653 0.18444638
-0.0336048 0.07229978 0.01674834 0.039221756 0.032392196 -0.02376999 0.18675591 0.113274515
-0.3070644 0.048131153 -0.052787513 -0.0876492 0.12824978 0.24575503 -0.07224943 -0.056233983
0.2079233 0.1627809 0.13610762 0.30709574 0.27941385 0.12765394 0.0032787474 0.04325584
0.17597884 -0.0041078753 0.0069202804 0.077162944 0.40099174 -0.07197727 0.011820224 0.14271799
0.44900936 0.28019622 -0.038924042 -0.060365252 -0.18366133 0.08655791 -0.44833443 -0.032749698
-0.32088923 -0.15629688 0.10582648 0.015949348 -0.20236576 -7.7782184e-05 0.21578977 0.08150296
0.018907787 -0.15915607 0.1387465 0.34629807 -0.18124475 -0.09685087 0.19195364 -0.05726176
0.09137903 0.13523082 0.4097878 0.17659934 0.0025440007 0.26537412 0.4017425 0.007484921
0.08682333 0.044559143 0.18675706 0.35270575 0.029210608 0.15796453 0.07857419 0.1584495
00000000: 3959 e93d fdd0 0a3e 875f 07be 762b 0bbe
00000010: afaf 1e3e ae58 8c3d d49f 7b3e 0898 3e3d
00000020: 2cf3 5d3f 08d3 543e 5281 08be ed92 a53e
00000030: 87aa 5b3e a2b5 4e3d e7d8 233f a71d bfbd
00000040: 793d 7d3e 3688 f43c 4df0 d53d abf1 273d
00000050: 972d 2fbd 2af8 9c3d 5478 08be 884d 04be
00000060: 77c6 1cbb fe22 a9bd ab7b f4bd 068b 933d
00000070: 957e 8fbc 8849 b83d bae6 87bd 2e3b 593d
00000080: daef 7bbe ae0d 9f3d 071d 22bd 737e 513d
00000090: eb2c ff3d c6df 67bd b730 92bd 961f e1bd
000000a0: 8791 413e 7e28 8cbe 480d aebd 59ff b53d
000000b0: 8179 0d3e c73d 5cbe 3889 c53e 8b4a e5bd
000000c0: 3d80 f4bd b137 b43d d1c2 f73d 6929 8dbe
000000d0: 0629 133f 22f9 c2bd 5442 1c3d 725e 803e
000000e0: 1921 6d3e f451 ff3b 1569 d5bc bcfa a3bd
000000f0: 3b8e 973e b8fc e8be b5ba 013d 41bb 1fbe
00000100: 5593 cf3c 766d a03d 2a33 b03e f323 13be
00000110: 67dd d63d 5c9f 8b3e c4c4 673e 8ee5 48be
00000120: d0cf 883e 3e32 133e 3898 5b3e e5a6 06be
00000130: bf67 c4bc 4af5 37be 74cb 513e 98d2 283e
00000140: bcc0 0bbe db6c e0bd 02dc 963e d06e f53d
00000150: f134 673d ad70 a3bd 84a4 ad3d 7e23 1abe
00000160: 7fec 5a3d 5731 0e3e 6d64 e53d 6749 d0be
00000170: e661 1abf bd2c 82be df0e c6bd 6d80 843d
00000180: 5d77 c33f 4c82 593d f25c 6d3e 1166 6ebe
00000190: 62a1 5fbc 5e1f ea3e e44d c83e b722 4cbe
000001a0: 9d1b a83e fb64 a6be 5fef cc3e 6a0b 5a3e
000001b0: 6e8f 623e 7a85 003e 2226 c53e d7d0 c0bd
000001c0: 1b6d 69be 5e87 babd 39b6 c83e 91a6 6a3d
000001d0: bb05 853e 3d49 8cbe e0ca 003e 897b 803c
000001e0: 4590 143c f2be 863e cb05 813d 5989 7bbe
000001f0: 9155 acbe e26f bfbc 0c71 603e 5566 2e3e
00000200: 328c 52be f525 d1bd 21ce 383e 326c 683e
00000210: e262 883c 38de 283e cab2 15bd e0c4 94bd
00000220: a475 963e 4bc0 5ebc acb7 c43c a25b 773e
00000230: dc2c 9a3e 1830 633d a943 86bb 141a 7c3d
00000240: ff55 b73d a875 30be 313a 643e d1f8 2bbe
00000250: 435a 963e 0563 87be cff6 9a3e 60b2 163e
00000260: 57c5 ce3e c03b 22bd d2fe 1e3d d58f ac3c
00000270: 91a3 b13e 8369 1f3e 4ae3 84bc fab6 13be
00000280: cc7e a4be 771b 32be 8754 b43d d8d6 a2be
00000290: c8b6 033e 5fa5 5cbd b9eb 22be f54e 4e3e
000002a0: a535 5e3d 2740 403d 25d2 47be 1e29 2cbe
000002b0: 490b ff3c 2ec1 ffbd 5d52 df3d 23b0 f53d
000002c0: e015 9abd f133 4f3c 5d7e 263d 8d21 3b3d
000002d0: 708f 443e 428c 043d dc54 253e 83df 3c3e
000002e0: 30a5 09bd e811 943d d133 893c fea6 203d
000002f0: aead 043d 48b9 c2bc f13c 3f3e 78fc e73d
00000300: 8c37 9dbe 2c25 453d b837 58bd 6c81 b3bd
00000310: e953 033e 35a7 7b3e 82f7 93bd 9b55 66bd
00000320: d8e9 543e 09b0 263e cc5f 0b3e a73b 9d3e
00000330: 550f 8f3e b7b7 023e 41e0 563b 092d 313d
00000340: cc33 343e 5b9b 86bb 85c3 e23b 9b07 9e3d
00000350: ca4e cd3e d268 93bd 9da9 413c aa24 123e
00000360: 8ee4 e53e e175 8f3e d16e 1fbd 8e41 77bd
00000370: b711 3cbe 4645 b13d 178c e5be 8c24 06bd
00000380: 984b a4be 4a0c 20be 8ebb d83d 35a8 823c
00000390: f838 4fbe fe1e a3b8 fef7 5c3e 06eb a63d
000003a0: 81e4 9a3c cff9 22be 9013 0e3e fb4d b13e
000003b0: 3998 39be c059 c6bd 7f8f 443e 4f8b 6abd
000003c0: ee24 bb3d f379 0a3e b5cf d13e 75d6 343e
000003d0: 40b9 263b 1edf 873e 31b1 cd3e 1144 f53b
000003e0: 6ed0 b13d a683 363d 3e3d 3f3e d995 b43e
000003f0: 164b ef3c 74c1 213e 81eb a03d 9640 223e

layers.2.bias f4 [16]
0.5369501 0.18481083 -0.013913867 -0.021652874 0.6016538 0.4650813 0.8759628 0.119214304
-0.10143524 0.5380682 0.62897724 0.22588015 -0.019043839 0.17502771 0.6242509 0.2663802
00000000: 9075 093f 0d3f 3d3e fdf6 63bc 5e61 b1bc
00000010: fc05 1a3f 231f ee3e 193f 603f a126 f43d
00000020: 47bd cfbd d6be 093f a704 213f 204d 673e
00000030: d301 9cbc 773a 333e e8ce 1f3f fc62 883e

output.weight f4 [1, 16]
0.067696944 0.15687238 0.015740933 -1.008046 0.15852366 0.14259864 0.2698308 0.049277715
0.114368506 0.18430063 0.12494258 0.072191425 0.003232139 0.5929967 0.22052738 0.08343602
00000000: b2a4 8a3d 27a3 203e 21f3 803c a707 81bf
00000010: 0754 223e 6105 123e 4327 8a3e 6ed7 493d
00000020: 093a ea3d 4eb9 3c3e e5e1 ff3d 19d9 933d
00000030: 4bd2 533b a2ce 173f eed1 613e 81e0 aa3d
