vanilla_gan/19-02-22_10-55/discriminator.pt (torch_old, 1835 bytes, 5 tensors)

layers.0.weight f4 [16, 1]
0	0x3e9d8e4b	0.30772623
1	0xbf585cfa	-0.8451687
2	0xbe9399df	-0.28828332
3	0x3e9929d3	0.29914722
4	0xbe295cf2	-0.16539362
5	0xbf61eab1	-0.88248736
6	0xbda93b60	-0.08263278
7	0xbf2c3e25	-0.67282325
8	0x3f3b3b9f	0.7313785
9	0xbe859996	-0.2609374
10	0xbea3538a	-0.31899673
11	0x3f3faeaa	0.7487589
12	0xbe5b611f	-0.21423768
13	0xbeba1c77	-0.36349842
14	0xbe59c9ad	-0.2126834
15	0x3f4e500a	0.8059088

layers.0.bias f4 [16]
0	0xbfb857ab	-1.4401754
1	0x3f4815aa	0.78158057
2	0x3fadb85a	1.3571885
3	0xbfb3214a	-1.3994534
4	0x3f47ca97	0.780435
5	0x3f572741	0.8404427
6	0xbf5281b2	-0.8222915
7	0xbf2d38c3	-0.67664737
8	0xbf7fe1fe	-0.9995421
9	0xbeeddd90	-0.464581
10	0x3fc005b8	1.5001745
11	0xbf82a38c	-1.020616
12	0x3f8131f9	1.0093375
13	0x3fd96e06	1.6986701
14	0x3f80cb79	1.0062095
15	0xbf8d2687	-1.1027383

layers.1.weight f4 [8, 16]
0	0x4085154f	4.158851
1	0x3f3a0f87	0.7267994
2	0xc011d5aa	-2.278666
3	0x408df88a	4.4365892
4	0xc02e6361	-2.7248156
5	0x3e47dba7	0.19517384
6	0xbd766d68	-0.06016293
7	0xbe767f56	-0.24072012
8	0x3be7f041	0.007078201
9	0x3bc1a080	0.0059090257
10	0xc0124095	-2.2851918
11	0x3bfab89b	0.007651401
12	0xc02239a6	-2.5347686
13	0xc01025f6	-2.252317
14	0xc0191b33	-2.392285
15	0x3bf32e35	0.00742128
16	0xc071643b	-3.7717426
17	0xbf7c43d4	-0.98541
18	0xbe4e20ce	-0.20129701
19	0xc0824162	-4.0704813
20	0xbeaf6017	-0.34252998
21	0xbe80d6ac	-0.25163782
22	0xbd0ee320	-0.034884572
23	0x3de35eff	0.111021034
24	0x3bfe9fbc	0.0077705067
25	0x3de91fc4	0.11383012
26	0xbe3acd24	-0.18242317
27	0x3bb56884	0.005536141
28	0xbe8b5e17	-0.27220222
29	0xbe2da296	-0.16956553
30	0xbe879b10	-0.2648549
31	0x3be255ed	0.006907216
32	0xbe422530	-0.18959498
33	0x406c545e	3.6926494
34	0x3c782456	0.015145382
35	0xbf2b06c8	-0.6680722
36	0x3cb7c4c7	0.022432698
37	0x3fcefb64	1.6170468
38	0x3e3fadcc	0.18718642
39	0xbe3b2049	-0.18274035
40	0xbfed324d	-1.8530976
41	0x3de54c8b	0.1119624
42	0x3c44a410	0.012002006
43	0xc0069c02	-2.103272
44	0x3cca5793	0.024699962
45	0x3c6a541e	0.014302282
46	0x3cb17135	0.021660427
47	0xc000158f	-2.0013158
48	0x40868ec8	4.2049294
49	0x3f1b6849	0.60706
50	0xc00da339	-2.2130873
51	0x408bcf4f	4.369056
52	0xc02d5bdc	-2.7087317
53	0x3e0d3fa4	0.13793808
54	0x3e6731d6	0.22577605
55	0x3e8a3b22	0.2699824
56	0x3bf2202d	0.0073890896
57	0x3e6f47c2	0.23367217
58	0xc00ef1d7	-2.2335107
59	0x3be96f13	0.007123837
60	0xc01ad30b	-2.419131
61	0xc007961e	-2.1185374
62	0xc01fff50	-2.499958
63	0x3c006ac7	0.007837958
64	0xc0656bd7	-3.584707
65	0xbf4c0723	-0.7969839
66	0xbe3133c2	-0.173049
67	0xc0824d1b	-4.0719123
68	0xbe9b6bb0	-0.30355597
69	0xbeaeb2ad	-0.34120694
70	0x3dba6234	0.09100762
71	0x3ddec464	0.10877302
72	0x3c2330c4	0.009960357
73	0x3a87d800	0.0010364056
74	0xbe1ed8c0	-0.15512371
75	0x3c26f9f4	0.010191429
76	0xbe6dfaeb	-0.23240249
77	0xbe1061d1	-0.14099814
78	0xbe7058d6	-0.23471388
79	0x3c18e76f	0.009332522
80	0x408df746	4.4364347
81	0x3f4961ed	0.7866505
82	0xc017bb3c	-2.3708029
83	0x40904b54	4.5091953
84	0xc02f1bc4	-2.7360697
85	0x3dc7b4ea	0.097513035
86	0xbdb966e8	-0.09052831
87	0xbdd611dd	-0.10452626
88	0x3c1af148	0.00945694
89	0x3d59d5f3	0.053182553
90	0xc01ea3fe	-2.4787593
91	0x3c02b575	0.007977833
92	0xc02c6837	-2.6938608
93	0xc015e5b7	-2.3421457
94	0xc01b927c	-2.4308157
95	0x3c0bb3ae	0.008526726
96	0xc064b427	-3.5734956
97	0xbf5585aa	-0.8340708
98	0xbe204281	-0.15650369
99	0xc077b9b2	-3.870709
100	0xbe8b6172	-0.27222782
101	0xbebef6ed	-0.37297764
102	0xbe537b6a	-0.20652547
103	0xbeac1055	-0.3360621
104	0x3b982304	0.004642846
105	0x3e1e3841	0.15451147
106	0xbe0cbc06	-0.137436
107	0x3bdeac88	0.0067954697
108	0xbe579f8a	-0.21056953
109	0xbe0737ec	-0.13204926
110	0xbe58061c	-0.2109608
111	0x3b53e511	0.003233258
112	0x408a2b12	4.3177576
113	0x3f15aa31	0.58462816
114	0xc0125b0d	-2.2868073
115	0x408bbd6a	4.366872
116	0xc02dbee6	-2.7147765
117	0x3df82d91	0.12118066
118	0xbc9cb430	-0.019128889
119	0x3ddff240	0.109348774
120	0x3c075335	0.008259584
121	0xbe64c102	-0.22339252
122	0xc00f3aa4	-2.2379541
123	0x3c097184	0.008388881
124	0xc0292371	-2.6427882
125	0xc00a7a64	-2.1637201
126	0xc0198e36	-2.3993049
127	0x3bdea427	0.006794471

layers.1.bias f4 [8]
0	0x3c7136c0	0.014722526
1	0x3e2b74ab	0.16743724
2	0xbe539f13	-0.20666151
3	0x3c8910c8	0.016731635
4	0x3e10b6d1	0.14132239
5	0x3c9b4c66	0.018957328
6	0x3e02a6c8	0.12758934
7	0x3c805b06	0.015668403

output.weight f4 [1, 8]
0	0x40745ce9	3.8181708
1	0xbf2bcda6	-0.6711067
2	0x40449aab	3.0719402
3	0x4072fa0c	3.7965117
4	0xbf45a139	-0.7719913
5	0x405a4bb0	3.4108696
6	0xbf7331fd	-0.9499815
7	0x406d0dc0	3.7039642
