vanilla_gan/19-02-22_10-55/generator.pt (torch_old, 2544 bytes, 7 tensors)

layers.0.weight f4 [8, 1]
0.34049237 1.1032164 -0.11728678 0.31284225 -0.47969615 -0.08783553 1.0866599 0.38552976
00000000: 0455 ae3e 3236 8d3f 0d34 f0bd dc2c a03e
00000010: bc9a f5be 1de3 b3bd ac17 8b3f 2864 c53e

layers.0.bias f4 [8]
-0.91178846 0.4958693 0.7537766 -0.89560175 0.48959267 1.1252972 0.5907179 -0.80356693
00000000: f86a 69bf 95e2 fd3e 81f7 403f 2846 65bf
00000010: e4ab fa3e bd09 903f 4a39 173f 90b6 4dbf

layers.1.weight f4 [16, 8]
-0.17723006 0.63726485 -0.18019836 -0.113645315 -0.9784314 0.40774554 0.059426762 0.2688528
0.054573387 0.21743986 -0.058109343 0.11061466 0.1793398 -0.06406784 -0.275655 -0.2891846
0.3074892 0.21440609 0.05818259 0.037646115 -0.5035027 -0.34179392 0.5794254 0.20087
-0.067733705 0.42614204 0.2028951 0.20048949 -0.7091275 0.32123497 0.5098454 0.18149462
-0.2613848 0.07227212 -0.05324331 -0.16436587 0.203397 -0.31910905 -0.22517662 -0.15697357
-0.3283859 0.5332591 -0.025183618 -0.18971215 -0.981457 0.16473903 0.09105985 -0.14928944
0.32570782 0.025114983 -0.31139204 -0.07096076 -0.06499702 0.03636539 -0.17990424 -0.29554453
-0.12174243 0.6328399 -0.19160146 0.31101164 -0.67181927 0.28063986 0.2403821 -0.25569695
-0.2979004 -0.10783595 -0.33769992 -0.22893447 -0.1739199 0.11462018 -0.090339184 -0.20805193
0.015438974 0.079744734 -0.20887958 -0.11362411 0.06792083 0.14360431 0.086912386 -0.04887417
-0.09132564 0.6189287 -0.20905869 0.2062703 -0.9382689 -0.103199236 0.08994307 -0.004308343
0.27585927 0.23452374 -0.037988514 0.18515804 -0.8322652 0.28766748 0.26249304 -0.28325817
0.19794604 0.6573348 -0.24430715 0.23620388 -0.8931525 -0.21243332 0.43752414 0.27648756
0.21680674 0.11981515 -0.02797117 0.3104172 -0.71566445 0.36226046 0.5746121 -0.19898432
-0.3309367 0.37572294 -0.23906608 0.30650762 -0.59417737 0.044899993 0.46821013 0.33248982
-0.002668202 -0.11708681 0.1567763 -0.08248255 0.97365487 0.193026 0.18442771 -0.3267495
00000000: cc7b 35be ca23 233f eb85 38be e0be e8bd
00000010: 7b7a 7abf 06c4 d03e 7a69 733d 13a7 893e
00000020: 5888 5f3d 8ea8 5e3e 1004 6ebd f089 e23d
00000030: daa4 373e 0036 83bd a722 8dbe 0110 94be
00000040: 396f 9d3e 458d 5b3e de50 6e3d d032 1a3d
00000050: 8ee5 00bf 9dff aebe 3955 143f deb0 4d3e
00000060: f8b7 8abd 4a2f da3e bcc3 4f3e 1e4d 4d3e
00000070: 6189 35bf e978 a43e 3a85 023f bad9 393e
00000080: 3ad4 85be 6803 943d a815 5abd 874f 28be
00000090: 4e47 503e 4362 a3be b394 66be aebd 20be
000000a0: 3222 a8be ab83 083f e04d cebc e743 42be
000000b0: c440 7bbf 59b1 283e 967d ba3d 55df 18be
000000c0: 2dc3 a63e f0bd cd3c c76e 9fbe e053 91bd
000000d0: 281d 85bd e0f3 143d d138 38be 9d51 97be
000000e0: 1854 f9bd cc01 223f 2c33 44be eb3c 9f3e
000000f0: 59fc 2bbf 07b0 8f3e ba26 763e b6ea 82be
00000100: 6786 98be 18d9 dcbd 01e7 acbe cc6d 6abe
00000110: 0f18 32be fcbd ea3d c003 b9bd 910b 55be
00000120: c0f3 7c3c 3551 a33d 87e4 55be c2b3 e8bd
00000130: 131a 8b3d 020d 133e 1fff b13d 4830 48bd
00000140: f008 bbbd 1c72 1e3f 7b13 56be 8638 533e
00000150: 6432 70bf 1f5a d3bd 1334 b83d 002d 8dbb
00000160: 6d3d 8d3e fe26 703e d899 1bbd 129a 3d3e
00000170: 550f 55bf 2749 933e 7d65 863e 3707 91be
00000180: 5eb2 4a3e 1847 283f a72b 7abe 6edf 713e
00000190: a4a5 64bf 1f88 59be 2a03 e03e c78f 8d3e
000001a0: 9602 5e3e a561 f53d cc23 e5bc 01ef 9e3e
000001b0: c935 37bf 347a b93e c719 133f 8cc2 4bbe
000001c0: 8970 a9be c25e c03e bdcd 74be 91ee 9c3e
000001d0: 021c 18bf 0ee9 373d 3db9 ef3e 1b3c aa3e
000001e0: 00dd 2ebb 36cb efbd f789 203e 9cec a8bd
000001f0: 7241 793f 9ca8 453e 9eda 3c3e b64b a7be

layers.1.bias f4 [16]
0.08197819 -0.005715579 0.31380937 0.1262375 0.11526421 0.3858407 0.02747038 -0.24999902
-0.12210181 -0.30653775 0.4209983 0.1594916 0.13377525 0.4553179 0.3460781 -0.32816538
00000000: 2ee4 a73d c049 bbbb 9fab a03e 6744 013e
00000010: a40f ec3d ea8c c53e 9009 e13c beff 7fbe
00000020: 8410 fabd 84f2 9cbe 178d d73e c451 233e
00000030: 61fc 083e 6e1f e93e 2631 b13e 4b05 a8be

layers.2.weight f4 [8, 16]
0.33195236 0.06789243 0.1850013 0.40928027 -0.16820589 0.13037497 -0.061133683 0.3997001
-0.053130627 -0.24058834 0.28830773 0.43715745 0.3110138 0.24711657 0.34007004 -0.29078114
0.36707106 0.1773898 0.38584024 0.3298837 0.19321966 0.25177 0.013713628 0.17345972
-0.14937481 0.24048805 0.2410226 0.21201518 0.6005274 0.24719371 0.40078154 -0.2389627
0.0006800294 0.018779576 0.01178515 -0.14716089 0.1753419 0.22694212 0.11443454 -0.01605609
0.008728683 0.24739918 -0.06641719 -0.05008319 -0.18693897 -0.19599321 0.22140595 0.016972035
-0.163971 0.16097698 -0.007402969 0.14738761 -0.21511596 -0.062336084 0.07651675 0.22293037
-0.02291146 -0.11444086 -0.11216506 0.13329239 -0.24387597 -0.03542947 -0.2262047 0.18110262
0.09600878 -0.029025733 -0.0037780702 -0.22334042 0.007771164 0.10054526 0.23254707 -0.047634244
0.2400822 0.2339524 -0.23308447 0.19319528 0.07790497 0.099523306 -0.18037692 -0.082359135
0.048491184 -0.1840834 -0.15746714 0.078172 -0.14950901 -0.054368388 0.20718956 0.17650184
-0.04294005 0.21766955 -0.117575936 0.09815307 -0.35811183 0.04140223 0.07719989 0.19284369
-0.20113823 -0.09034824 0.11028537 -0.077466995 0.15568173 -0.022300452 -0.18013361 -0.06356549
0.14003977 -0.005003482 -0.041175902 -0.22545502 -0.24452636 0.08877534 0.24400741 0.029411316
0.07407075 -0.23392671 -0.16263759 -0.09755698 0.023550987 -0.17169207 -0.092574626 0.11022538
-0.19621897 -0.05959615 -0.0021581054 -0.10956973 0.051465064 -0.044558138 -0.11417821 0.20053416
00000000: a9f5 a93e 300b 8b3d fb70 3d3e 2f8d d13e
00000010: 2a3e 2cbe 0481 053e 5067 7abd 7ea5 cc3e
00000020: 809f 59bd ca5c 76be 129d 933e 1ad3 df3e
00000030: 333d 9f3e 200c 7d3e a91d ae3e 44e1 94be
00000040: bdf0 bb3e aca5 353e da8c c53e 84e6 a83e
00000050: 60db 453e ffe7 803e 20af 603c 6d9f 313e
00000060: b6f5 18be 8042 763e a1ce 763e 821a 593e
00000070: 2abc 193f 5920 7d3e 3d33 cd3e a3b2 74be
00000080: 0044 323a a0d7 993c 8016 413c 58b1 16be
00000090: d48c 333e 8463 683e a85c ea3d 1088 83bc
000000a0: c002 0f3c 3656 7d3e bc05 88bd 0824 4dbd
000000b0: ee6c 3fbe 72b2 48be 3eb8 623e f008 8b3c
000000c0: 04e8 27be 26d7 243e 9b94 f2bb c7ec 163e
000000d0: 5c47 5cbe 1f54 7fbd d0b4 9c3d dc47 643e
000000e0: d0b0 bbbc f85f eabd ccb6 e5bd cd7d 083e
000000f0: 9fba 79be 7e1e 11bd 34a2 67be f772 393e
00000100: 40a0 c43d 60c7 edbc 8099 77bb 5ab3 64be
00000110: 40a5 fe3b acea cd3d d220 6e3e 201c 43bd
00000120: 1cd8 753e 3891 6f3e b2ad 6ebe fcd4 453e
00000130: a48c 9f3d e0d2 cb3d bab4 38be e8ab a8bd
00000140: b19e 463d 5c80 3cbe 113f 21be a418 a03d
00000150: e418 19be 63b1 5ebd 8029 543e e6bc 343e
00000160: e8e1 2fbd c4e4 5e3e a7cb f0bd 7a04 c93d
00000170: 6f5a b7be 6295 293d fa1a 9e3d d178 453e
00000180: 2ef7 4dbe 8008 b9bd 4cdd e13d 04a7 9ebd
00000190: 086b 1f3e 70af b6bc f274 38be a02e 82bd
000001a0: 9666 0f3e 40f4 a3bb 10a8 28bd aedd 66be
000001b0: 1e65 7abe d8cf b53d 14dd 793e 00f0 f03c
000001c0: 68b2 973d 7c8a 6fbe 788a 26be f4cb c7bd
000001d0: 00ee c03c 0cd0 2fbe c497 bdbd d8bd e13d
000001e0: a0ed 48be 181b 74bd 006f 0dbb 1866 e0bd
000001f0: 08cd 523d 9882 36bd 44d6 e9bd d458 4d3e

layers.2.bias f4 [8]
0.3068405 0.0207969 -0.14550671 -0.082963556 -0.06458232 0.24043112 -0.21798241 0.07962087
00000000: 331a 9d3e 435e aa3c b6ff 14be cce8 a9bd
00000010: bc43 84bd 9333 763e c836 5fbe 4410 a33d

output.weight f4 [1, 8]
0.5733252 0.32404613 -0.2152276 -0.13111013 0.13119847 -0.5638391 -0.1477435 -0.21825993
00000000: 71c5 123f 60e9 a53e a064 5cbe bc41 06be
00000010: e458 063e c257 10bf 124a 17be 887f 5fbe
