vanilla_gan/19-02-26_22-49/discriminator.pt (torch_old, 3224 bytes, 7 tensors)

layers.0.weight f4 [16, 1]
-0.23986934 -0.3078043 -0.18783745 0.23008119 -0.36493197 0.3869722 -0.2941904 0.24733214
0.3227063 0.41289788 -0.2723009 -0.27782616 0.25403494 0.4495644 -0.35590032 -0.31356826
00000000: 4fa0 75be 8698 9dbe 7658 40be 679a 6b3e
00000010: 5dd8 babe 3821 c63e 20a0 96be a344 7d3e
00000020: c339 a53e 5a67 d33e 066b 8bbe 3b3f 8ebe
00000030: de10 823e 4e2d e63e 9138 b6be 058c a0be

layers.0.bias f4 [16]
1.1381541 1.0759803 0.89605516 -1.0907767 1.1849843 -1.2854298 1.1253697 -0.8706294
-1.5574006 -1.9821126 1.0533168 1.3218895 -1.2100549 -2.1234732 1.2271701 1.0850405
00000000: 09af 913f b9b9 893f df63 653f 929e 8bbf
00000010: 91ad 973f f788 a4bf 1d0c 903f 91e1 5ebf
00000020: e758 c7bf deb5 fdbf 16d3 863f ad33 a93f
00000030: 14e3 9abf fce6 07c0 e913 9d3f 9be2 8a3f

layers.1.weight f4 [16, 16]
2.2924936 -0.09456322 4.9547024 -2.448481 -0.14110686 0.09310197 -0.11181448 0.1021604
-2.4523673 -2.07855 -0.1550565 2.0684054 -1.4305135 -3.6154475 -0.16600959 -0.09910523
-2.3982286 0.09789289 -5.5242796 2.5109928 0.19304296 -0.13730857 0.21766028 -0.06124648
2.5142992 2.1245553 0.20581095 -2.254951 1.7690464 3.8777757 0.16961859 0.10821912
-2.537263 0.09294899 -5.0414376 2.734868 0.22778629 -0.16571108 0.15055788 0.0028781411
2.6669588 2.3551106 0.2974747 -2.5093129 1.8111008 3.7937083 0.2690345 0.18031506
0.8409176 -11.049213 0.4279296 -0.9352293 -10.973413 10.651382 -10.02383 8.800729
-0.86068195 -0.82895267 -12.109689 0.7215075 -1.009186 -0.10468298 -11.768026 -10.59483
-10.352157 -0.08845792 -1.351317 11.324534 -0.18130924 0.15272735 -0.14881347 0.07580254
6.112236 3.6616755 -0.1434669 -6.929779 9.978361 0.9131553 -0.09830469 -0.15753517
-1.1817349 -12.339411 -0.8459657 1.4527173 -11.913222 10.897432 -12.379798 8.72746
0.94127405 1.1535405 -12.091605 -0.84428567 1.1775781 0.22155999 -11.098409 -10.837162
-0.23985296 -11.256887 0.22961394 -0.07990632 -11.193279 10.3513155 -10.283598 8.534811
-0.005793561 -0.05097558 -11.697953 0.4514718 -0.10894344 -0.41122463 -11.348784 -10.442724
9.656961 0.14182407 1.256 -11.243812 0.016508196 -0.06881206 0.113277204 0.026516797
-6.1387033 -3.9067192 0.13083044 8.148617 -9.930801 -0.87114 0.03779363 0.16709132
-0.34251013 10.864615 -0.15968226 0.59427816 10.931166 -11.213351 9.510382 -8.744138
0.6944324 0.52725697 12.619748 -0.5723186 0.43702835 0.0066359625 11.446625 10.287969
9.211214 0.016123803 1.799337 -10.327178 0.18944488 -0.11329584 0.033120092 -0.2572953
-5.761907 -3.763089 0.07647224 6.9203806 -9.4980545 -0.9950846 0.072479755 0.097841196
9.103311 0.09541763 1.901703 -10.33237 0.099253535 -0.05610844 0.17916241 -0.13325652
-5.8576255 -3.6289794 0.24465561 7.01819 -9.831078 -0.5341979 0.008423488 0.31039125
-0.72109765 10.90598 -0.5721964 0.63930017 12.287965 -10.901807 10.816418 -8.418275
0.6429867 1.0832086 11.998624 -0.5336922 0.69874144 -0.058629 11.597748 11.057425
-0.8508998 -11.386539 -0.63324493 0.8144851 -10.829371 10.067732 -10.961553 8.52707
0.7188911 0.95705396 -10.979962 -0.49217102 1.1160574 0.3888781 -10.4892845 -11.084375
-0.002438796 12.084415 0.18067992 -0.6229966 11.802144 -10.908449 11.988861 -8.262731
-0.38247824 -0.4441477 11.388723 0.3597868 -0.18104291 0.0243465 11.368283 11.270354
0.39616475 -10.517611 0.25497898 -0.5154839 -11.5938 10.791925 -9.876632 9.633855
-0.25346795 -0.4329471 -13.75728 0.40971768 -0.48191285 0.12540418 -12.518735 -10.38839
-10.208934 -0.10643349 -1.8758196 11.005364 -0.092207216 0.12757029 -0.23639199 0.031047571
5.949826 3.8947754 -0.18338227 -6.931661 10.5015955 0.8278179 -0.17914079 -0.16670886
00000000: 37b8 1240 5daa c1bd ec8c 9e40 eab3 1cc0
00000010: 517e 10be 3fac be3d fdfe e4bd 7939 d13d
00000020: 96f3 1cc0 f706 05c0 22c7 1ebe c160 0440
00000030: 111b b7bf 7e63 67c0 6bfe 29be aff7 cabd
00000040: 947c 19c0 117c c83d e6c6 b0c0 1bb4 2040
00000050: 0ead 453e 9e9a 0cbe 56e2 5e3e 97dd 7abd
00000060: 47ea 2040 b7f8 0740 1bc0 523e 1e51 10c0
00000070: 1d70 e23f 7a2d 7840 7fb0 2d3e fca1 dd3d
00000080: 8462 22c0 0a5c be3d 7553 a1c0 1408 2f40
00000090: cf40 693e 2ab0 29be d82b 1a3e 329f 3c3b
000000a0: 74af 2a40 22ba 1640 9b4e 983e 9598 20c0
000000b0: 27d2 e73f 1ecc 7240 e4be 893e 83a4 383e
000000c0: 6046 573f 94c9 30c1 9719 db3e 306b 6fbf
000000d0: 1a93 2fc1 106c 2a41 9c61 20c1 c9cf 0c41
000000e0: a755 5cbf 3e36 54bf 49c1 41c1 b7b4 383f
000000f0: 022d 81bf 0864 d6bd d649 3cc1 6c84 29c1
00000100: 6fa2 25c1 6d29 b5bd f5f7 acbf 4b31 3541
00000110: 21a9 39be 8f64 1c3e 8f62 18be 5d3e 9b3d
00000120: 7097 c340 e458 6a40 fde8 12be c0c0 ddc0
00000130: 5ea7 1f41 8cc4 693f f853 c9bd e650 21be
00000140: 1743 97bf 3a6e 45c1 3591 58bf a4f2 b93f
00000150: 8f9c 3ec1 e25b 2e41 a713 46c1 ada3 0b41
00000160: 56f7 703f 37a7 933f 3777 41c1 1b23 58bf
00000170: e1ba 963f 9fe0 623e 1593 31c1 0465 2dc1
00000180: 049c 75be 361c 34c1 eb1f 6b3e eda5 a3bd
00000190: ac17 33c1 fd9e 2541 9e89 24c1 968e 0841
000001a0: ead7 bdbb c5cb 50bd d12a 3bc1 5027 e73e
000001b0: bd1d dfbd 098c d2be 9f94 35c1 6615 27c1
000001c0: ea82 1a41 543a 113e 9cc4 a03f a7e6 33c1
000001d0: 323c 873c 56ed 8cbd e1fd e73d c139 d93c
000001e0: 4270 c4c0 b007 7ac0 6af8 053e bc60 0241
000001f0: 90e4 1ec1 0803 5fbf 7ecd 1a3d fd19 2b3e
00000200: 7d5d afbe 77d5 2d41 bf83 23be 9d22 183f
00000210: 0ee6 2e41 e369 33c1 862a 1841 fde7 0bc1
00000220: 52c6 313f 50fa 063f 7dea 4941 7983 12bf
00000230: 2ec2 df3e 7d72 d93b 6025 3741 859b 2441
00000240: 2261 1341 1116 843c ad50 e63f 1f3c 25c1
00000250: d7fd 413e a607 e8bd efa8 073d 36bc 83be
00000260: 8b61 b8c0 73d6 70c0 7a9d 9c3d c273 dd40
00000270: 08f8 17c1 ddbd 7ebf 4470 943d f760 c83d
00000280: 29a7 1141 526a c33d 016b f33f 6351 25c1
00000290: 7045 cb3d f7d1 65bd 5a76 373e 6674 08be
000002a0: ab71 bbc0 3341 68c0 0087 7a3e 0395 e040
000002b0: 184c 1dc1 32c1 08bf ab02 0a3c 9aeb 9e3e
000002c0: db99 38bf e57e 2e41 777b 12bf 2da9 233f
000002d0: 819b 4441 cd6d 2ec1 0c10 2d41 41b1 06c1
000002e0: c79a 243f 94a6 8a3f 5dfa 3f41 0da0 08bf
000002f0: b8e0 323f f624 70bd 6090 3941 36eb 3041
00000300: 92d4 59bf 442f 36c1 571c 22bf 1882 503f
00000310: 1b45 2dc1 6e15 2141 8562 2fc1 e16e 0841
00000320: 3f09 383f 7d01 753f edad 2fc1 d7fd fbbe
00000330: f8da 8e3f 081b c73e 1cd4 27c1 9a59 31c1
00000340: 35d4 1fbb c459 4141 2804 393e b57c 1fbf
00000350: 95d5 3c41 0289 2ec1 60d2 3f41 2534 04c1
00000360: 30d4 c3be 5467 e3be 3638 3641 fa35 b83e
00000370: 5063 39be 5072 c73c 7de4 3541 5f53 3441
00000380: 1bd6 ca3e 2248 28c1 9b8c 823e c1f6 03bf
00000390: 3480 39c1 baab 2c41 af06 1ec1 4524 1a41
000003a0: 8dc6 81be 3eab ddbe d21d 5cc1 84c6 d13e
000003b0: 48bd f6be f469 003e bd4c 48c1 d836 26c1
000003c0: cb57 23c1 cdf9 d9bd db1a f0bf f915 3041
000003d0: 23d7 bcbd c9a1 023e be10 72be 7a57 fe3c
000003e0: f964 be40 0044 7940 90c8 3bbe 2bd0 ddc0
000003f0: 8906 2841 e0eb 533f af70 37be bab5 2abe

layers.1.bias f4 [16]
-0.17440146 0.26897615 0.33316413 0.83694965 -0.6662834 -2.5334468 -0.7309379 0.5089481
-0.50365347 0.6182009 0.7201846 -0.49789423 -2.1923978 1.4370743 0.55461824 -0.7547768
00000000: 4c96 32be 3eb7 893e 7d94 aa3e 5542 563f
00000010: 8d91 2abf fe23 22c0 bf1e 3bbf 6c4a 023f
00000020: 6fef 00bf 6a42 1e3f 055e 383f feeb febe
00000030: 3f50 0cc0 0df2 b73f 76fb 0d3f 0d39 41bf

layers.2.weight f4 [8, 16]
1.3887695 -1.2415572 -1.2855216 -0.040934704 -4.521435 -0.17306735 -0.051239133 4.8726377
0.012272651 1.7093412 1.0763563 0.03542776 -0.046176743 0.07678703 -0.041733686 -2.921992
0.12369192 -0.15181984 -0.13349903 0.13211699 -0.19900618 0.19510968 0.10973899 0.18391287
-0.094911456 0.17049947 0.20053558 -0.07636196 0.17806001 -0.13179438 0.09598412 -0.19931006
0.39870825 -0.13548516 -0.39387137 -4.3356104 0.42180616 -1.5549687 -1.8639385 -0.43416616
6.044204 -0.3564321 -0.60327363 4.811578 -1.3550628 1.9746333 -4.0752993 0.2094163
0.26370034 -0.32316482 -0.36507964 -2.2208054 -0.40286806 -5.42257 -2.9943104 0.45336613
2.1840515 0.51784295 0.34747896 2.2083905 -6.0160074 4.718756 -2.4225552 -0.383916
-0.038025517 -0.3425117 0.108508326 -2.292 0.5218323 -2.623305 -2.7955647 -0.6528623
3.394017 -0.92987835 -0.9055036 4.8369966 -3.3233552 4.544378 -2.6305263 0.57944244
1.4162234 -1.5865109 -1.2350948 -0.06722198 -2.465274 -0.16750702 -0.16370094 2.391
0.124339595 3.5368555 4.2218685 0.10765504 -0.244547 0.117684156 -0.080404304 -3.6377885
0.82943624 -0.18565309 0.05700594 -3.3061168 -0.28152865 -3.8569245 -4.093895 0.40003717
4.5216317 0.54554504 0.45603198 4.107697 -3.654687 3.4360201 -3.3746564 -0.47015616
-0.8468356 -0.10326313 0.33688736 6.5324836 -1.1969545 1.5003995 3.0379896 0.8250447
-5.1977735 1.0026588 1.030986 -5.670451 1.7212272 -1.9327707 3.7449932 -1.4496003
00000000: 33c3 b13f 59eb 9ebf f98b a4bf 26ab 27bd
00000010: 98af 90c0 9138 31be 20e0 51bd a6ec 9b40
00000020: 3b13 493c b1cb da3f 0bc6 893f b31c 113d
00000030: d323 3dbd 8542 9d3d f1f0 2abd eb01 3bc0
00000040: 3052 fd3d a976 1bbe f8b3 08be ad49 073e
00000050: 47c8 4bbe d5ca 473e d6be e03d a853 3c3e
00000060: f060 c2bd 6a97 2e3e 3359 4d3e a963 9cbd
00000070: 5d55 363e 1bf5 06be 5393 c43d f017 4cbe
00000080: 7d23 cc3e 9fbc 0abe 82a9 c9be 52bd 8ac0
00000090: faf6 d73e 3709 c7bf 8995 eebf 074b debe
000000a0: 1f6a c140 457e b6be 2470 1abf 72f8 9940
000000b0: b372 adbf c9c0 fc3f da68 82c0 3a71 563e
000000c0: bb03 873e dc75 a5be b8eb babe ad21 0ec0
000000d0: b944 cebe b285 adc0 c8a2 3fc0 9b1f e83e
000000e0: 80c7 0b40 5b91 043f c3e8 b13e 4556 0d40
000000f0: 2283 c0c0 0d00 9740 250b 1bc0 a390 c4be
00000100: a5c0 1bbd b25d afbe 9d39 de3d 21b0 12c0
00000110: cd96 053f 3be4 27c0 88ea 32c0 fc21 27bf
00000120: 9337 5940 820c 6ebf 15cf 67bf adc8 9a40
00000130: dab1 54c0 8b6b 9140 8b5a 28c0 5756 143f
00000140: cf46 b53f ca12 cbbf 9617 9ebf adab 89bd
00000150: 0dc7 1dc0 f686 2bbe 38a1 27be 2506 1940
00000160: c2a5 fe3d d75b 6240 8c19 8740 3f7a dc3d
00000170: 876a 7abe 6404 f13d 03ab a4bd 87d1 68c0
00000180: ef55 543f d81b 3ebe 0f7f 693d 6b97 53c0
00000190: 8624 90be dad7 76c0 3001 83c0 acd1 cc3e
000001a0: 35b1 9040 d7a8 0b3f 067d e93e 4172 8340
000001b0: 64e6 69c0 c1e7 5b40 5ffa 57c0 4fb8 f0be
000001c0: 38ca 58bf 9f7b d3bd 807c ac3e 1b0a d140
000001d0: ce35 99bf 170d c03f 6c6e 4240 2136 533f
000001e0: 2954 a6c0 2057 803f 59f7 833f 5674 b5c0
000001f0: 2c51 dc3f 0865 f7bf f8ad 6f40 818c b9bf

layers.2.bias f4 [8]
0.88205844 -1.0294809 -0.47798693 1.8161908 0.8262953 1.7043371 1.2296892 0.38996267
00000000: 95ce 613f 08c6 83bf b4ba f4be f178 e83f
00000010: 1788 533f b827 da3f 7566 9d3f 30a9 c73e

output.weight f4 [1, 8]
-0.09575552 -0.19334339 0.07997951 0.084715635 0.07530901 -0.09351475 0.06894145 -0.0765683
00000000: 781b c4bd cffb 45be 4ccc a33d 647f ad3d
00000010: 9c3b 9a3d a984 bfbd 2d31 8d3d d7cf 9cbd
