vanilla_gan/19-02-26_22-49/generator.pt (torch_old, 5891 bytes, 7 tensors)

layers.0.weight f4 [16, 1]
00000000: 43a9 76bf 3859 ac3e 17f1 a53f cc73 85be
00000010: 3fb4 9b3e 8d56 5c3e 8faa 87bf 854c 22bf
00000020: 0535 3dbd 4d69 4d3f 4ac1 8e3f afc6 103f
00000030: 0861 02be 5026 513e 3774 05bf 7a01 42bf
-0.9635202 0.33661819 1.29642 -0.26064909 0.30410954 0.21517392 -1.0598925 -0.6339801
-0.04619314 0.802388 1.1152737 0.5655317 -0.12732327 0.20424771 -0.52130455 -0.75783503

layers.0.bias f4 [16]
00000000: 58ea a83a 38c9 4dbf b334 ca3f 063e 503f
00000010: a080 3c3f 1118 5ebe 158f 66bb 3e4f 283e
00000020: ff03 ed3e 0a40 263f dc9d b23f bc1c a13f
00000030: 088b 6dbe 0c15 edbe 365a d43e 12fc 6abf
0.0012887223 -0.8038516 1.5797333 0.8134464 0.73633766 -0.21688868 -0.0035180498 0.16436478
0.4629211 0.64941466 1.3954425 1.2586894 -0.23197567 -0.4630512 0.41475075 -0.9179088

layers.1.weight f4 [32, 16]
00000000: 891c 35bd 4432 473e 2e89 56bf c055 aabe
00000010: 0544 61bd 3cb9 e5bd f482 aebc 4f59 72bd
00000020: d40d c43d 1503 383e 6611 f13e 03ef 65bc
00000030: 20e0 4e3c d817 b2bd f5d5 99bd 10cb ab3d
00000040: f7b2 2fbd c8b1 37bd 5a4c b4bd 7693 bbbc
00000050: ebd8 143d cece df3d 5a04 d13d 4e5c 7ebe
00000060: fa5e 58be 0b88 873d 721e 63be f932 41be
00000070: 2051 f23d 8075 70be 29ac e1bd 8a3d 033e
00000080: 68f5 d0bc 20ba 063c 5c99 b7be d026 81be
00000090: 0881 cd3d 984b c73d 66e5 3bbc 8712 003e
000000a0: 9888 e2bd b4d3 f8bd f288 413e 5f05 80be
000000b0: 3e68 333e aa9a 033e 67a5 e6bd aeff 5dbe
000000c0: 8e3c 64be 005a d6ba aede 04bf 87ad 88bd
000000d0: a20e b0bd 3c1e d03e 2631 c8bd 2104 4cbe
000000e0: f996 13be 64ee dd3d 5738 cc3e 3c61 213e
000000f0: 5cb9 7e3e f2ad 2ebe 523e 7eba 6426 9cbd
00000100: 6ad6 c7bd b004 8dbc 8235 9dbe f48b 903d
00000110: 1ee7 8ebe eddb 37be 5a87 33bd 0e3c e3be
00000120: 75c4 013e ec1d dc3d e7b8 54bd e858 5c3e
00000130: 50f5 9ebd c0c6 60be 2384 973e 3001 c83d
00000140: 0ce3 d9be cab2 42be 924b 64bd 8f41 5d3d
00000150: 5e5a a8be 0127 c4bb 937e 26be 684a 49bc
00000160: 04e8 82be e080 1d3d 38b3 5d3e 7a41 d8bc
00000170: b03b 713d f0e8 173d 0e6d 3c3b d0fd 16bd
00000180: 01d9 9ebd 3039 4abe cc95 c9be fd39 20bf
00000190: 850b 4cbe 6912 5a3e fcd7 88bd bb03 aebe
000001a0: bbf5 abbe c0c0 b7bd 4472 0f3e 233a 2abe
000001b0: 701c bf3d e48c 0abe 8c24 343d 687b de3d
000001c0: 354e 053e ac83 c63d e7a8 a2be 555d 233d
000001d0: 9429 a73d ab4d adbe 001f 3abe 7b14 d03d
000001e0: 7d12 c93d 84dd 4d3d 54b9 c7be ed65 8cbe
000001f0: 10f6 5dbd 9a2c 5b3e 2b9a 393e 509b ef3d
00000200: db4e 183e ba30 2a3e 0254 4f3e a4f7 8fbd
00000210: ddf4 65bd a9d0 e4bb 8538 643e 6363 443e
00000220: 4bec 6e3d cafb afbd 0633 783f 615c 87bb
00000230: b05f d73d 8ac3 1abe 6c4c 0e3e b65f 423e
00000240: 9557 c33c 9c7d 593e 88ff f1be 97e3 963e
00000250: 0753 883d 8bb1 ecbd ec6c 953c 5b25 a3be
00000260: 03d8 1ebf df4f 773c b259 1d3f 7acf 4a3e
00000270: 7c0e a4bd 5a18 67be 3732 213e 7a4e 71be
00000280: a920 92be 8806 183d 8c1d a3be 6131 b33d
00000290: edb3 99be 1588 afbd aa66 323e 54c8 94bc
000002a0: 4cdb 913e f074 d5bc c02b c43e 3af5 473e
000002b0: 00b6 c23d 6a7b 593e 46c8 5e3d 14f3 a4bd
000002c0: 8eed fb3d e064 e3bc b44e 0bbf f52f 0f3f
000002d0: aa8e 863e ada2 013e 657c 8abe 489c 803e
000002e0: b772 b73c 5a12 7b3d f9a4 b7bc 8c3a ed3d
000002f0: a89b 43bd f0e7 abbc da23 b83d 006e f63b
00000300: dd57 5f3d e037 0cbc acef 86be 1a04 97be
00000310: c1c5 9abe 34ae 40bd ce3b 08bd d7c1 3c3e
00000320: 990f 0dbe 528d 60be 2907 d13d 61a4 4dbd
00000330: f851 3a3e 92cd 633e 0bd0 06be 268a 4f3e
00000340: 8e6b 56bd b6da 5e3e 9445 3abe bb6d 20be
00000350: 4564 4abe d3ec bdbd 144c 8bbe 85ce ed3c
00000360: 142a 08bd 5303 2cbe 4314 f4bb 81f5 0ebe
00000370: 9653 09be 1052 353e 2d84 3cbe c061 693d
00000380: 72c1 3abe 3efb 7f3e 5396 b83c 6334 cabc
00000390: 685f adbe 0cc2 373d cf5e c13d f282 9a3e
000003a0: f34f d8bc 23c5 7abe ba60 0bbe 7cc5 d5bb
000003b0: c63a 20be b6d1 58be 03ad 6dbe 70c1 403e
000003c0: cf58 7b3e 8457 b1bd 413c 3e3f 6678 c93d
000003d0: ca8d ab3d 9917 b23e 18a2 7a3e a160 4c3e
000003e0: f632 9c3e d14d 0dbe c4e4 553f 90b8 9c3f
000003f0: 9cbf 9ebd f2e8 2cbe 7f80 0b3e b04d 993d
-0.044216666 0.19452769 -0.8380307 -0.33268547 -0.05499651 -0.11216971 -0.021302678 -0.059167203
0.0957295 0.17969926 0.47083586 -0.014034036 0.012626678 -0.08695954 -0.07511512 0.083883405
-0.042895284 -0.04484728 -0.088036254 -0.022897463 0.03633968 0.10928117 0.10205908 -0.24839899
-0.2112998 0.06617745 -0.22179583 -0.18867101 0.118318796 -0.23482323 -0.11019165 0.12816444
-0.025507644 0.008223087 -0.3585919 -0.25224924 0.100343764 0.09731215 -0.011468267 0.12507068
-0.110612094 -0.12149754 0.18899897 -0.25004098 0.17520234 0.12851968 -0.11262017 -0.21679565
-0.22288725 -0.0016353726 -0.5190228 -0.06673723 -0.08596541 0.40648067 -0.09774999 -0.1992345
-0.1441306 0.10836485 0.39886734 0.15759748 0.24875396 -0.17058542 -0.00096986175 -0.0762451
-0.09757693 -0.01721415 -0.30704886 0.07057944 -0.27910703 -0.17954989 -0.043830253 -0.44381756
0.12672599 0.10747895 -0.05193415 0.2151829 -0.077616334 -0.21950817 0.29593 0.097658515
-0.42556036 -0.19013515 -0.055736132 0.0540176 -0.32881445 -0.005986095 -0.16259222 -0.012285806
-0.2556764 0.038452983 0.21650398 -0.02639841 0.058894813 0.03708738 0.0028751525 -0.03686315
-0.07756234 -0.19748378 -0.39372098 -0.62588483 -0.1992627 0.21296085 -0.06681821 -0.3398722
-0.33585915 -0.08972311 0.14008433 -0.1662374 0.09331596 -0.13530308 0.043980166 0.108633816
0.13018115 0.09693083 -0.31769487 0.03988393 0.08162227 -0.33848318 -0.18175888 0.10160156
0.098179795 0.050260082 -0.39008582 -0.27421513 -0.05418974 0.21403733 0.18125217 0.116995454
0.14873831 0.1662015 0.2024689 -0.070296556 -0.056141723 -0.006982882 0.22287185 0.19178538
0.058330815 -0.08592947 0.96952856 -0.0041308855 0.10516298 -0.15113655 0.1389634 0.18981823
0.023845473 0.21239322 -0.47265267 0.29470512 0.06656461 -0.11557301 0.018240415 -0.31864437
-0.6204836 0.015094726 0.6146499 0.19805709 -0.08010575 -0.22567883 0.15741812 -0.23565093
-0.28540543 0.037115604 -0.3185848 0.08749653 -0.30020085 -0.085708775 0.17421976 -0.01816193
0.28487623 -0.026056737 0.3831463 0.1952714 0.0950737 0.21238485 0.054390214 -0.08054176
0.12301169 -0.027758062 -0.54416966 0.5593255 0.2628072 0.12659712 -0.2704803 0.25119233
0.022393567 0.0612968 -0.022417532 0.115834326 -0.047755867 -0.02098462 0.08991213 0.0075204372
0.054527152 -0.0085582435 -0.2635473 -0.29495317 -0.30229 -0.047041133 -0.03326016 0.18433319
-0.13775481 -0.2192891 0.10206444 -0.050205592 0.18195331 0.22246388 -0.131653 0.20267543
-0.052348666 0.21763119 -0.18190604 -0.15666859 -0.19764812 -0.09273686 -0.2720648 0.02902914
-0.033243254 -0.16798143 -0.0074487044 -0.1396084 -0.13410792 0.17707086 -0.18409796 0.056977987
-0.18237856 0.24998185 0.022532618 -0.024683183 -0.33861852 0.044862792 0.094419114 0.30178028
-0.02640531 -0.24489264 -0.13611117 -0.006523786 -0.1564742 -0.21173748 -0.2321053 0.1882379
0.24545597 -0.086592704 0.7431069 0.09837417 0.083766535 0.3478363 0.24475896 0.19958736
0.3050763 -0.13799216 0.83552194 1.2243824 -0.0775139 -0.16885737 0.13623236 0.07485521

layers.1.bias f4 [32]
00000000: e851 8fbe 05de 90be 5d7c 5ebe 57ba 1c3e
00000010: 7d8b 52be bd1e bebd 9c0e 0abf d2a2 00be
00000020: ced5 8fbd d102 c03d 0d7e 7c3c be81 9c3e
00000030: 049d 03bf 3c37 133c 05ff 76be 1a9d 2a3e
00000040: f192 cdbe b281 c8be bfbd 3f3f 5ef2 0cbe
00000050: 7cc0 043e 9df7 16be 7653 56be 2dc1 18be
00000060: cd93 aebe 1bf4 073c c945 f43d 3cb3 133e
00000070: ba2f 04bf 1336 78be de10 b53e adeb 89bc
-0.27992177 -0.28294387 -0.21727128 0.15305458 -0.20561023 -0.092832066 -0.5392854 -0.12562111
-0.07023202 0.09375537 0.015410912 0.30567735 -0.5141146 0.008985337 -0.2412072 0.16661492
-0.4015117 -0.3916145 0.74898905 -0.1376433 0.12964052 -0.14742894 -0.20930275 -0.1491744
-0.34097138 0.008297945 0.11927373 0.14423841 -0.51635325 -0.24239378 0.3536443 -0.016836012

layers.2.weight f4 [16, 32]
00000000: d668 26be 4f63 00be 5e78 343e f24e d93d
00000010: ebc8 813e 1f7c b83d 7eb9 9f3e 0c3b 91be
00000020: 8891 e23d f1fd f53d 2e5b e83e e28c 583e
00000030: 3825 8a3e c766 0f3f 1801 df3e 970b 233e
00000040: 06d8 fb3e 0e87 b3bd acc1 efbe 983f 543e
00000050: cce9 26be 4591 333e 7451 353e 06fa 933e
00000060: 5758 f93d dd26 103f e8ca 19bf b6ed e73e
00000070: aecd 1b3e 55d7 79bd abf0 f03d dfbb 623d
00000080: f124 54be 885a 10bc 3930 a53c 15c0 22be
00000090: 2235 5f3e ace4 1e3e 14a0 04bd 44fa 683e
000000a0: d062 77be 413b d3bd 00a0 67be 571d dc3d
000000b0: 70eb 3a3e a360 183e 4aff ddbd 4279 233e
000000c0: 450b 39be e196 123e ea9b c03d a593 e4bd
000000d0: 8a75 963c cbb0 80bd df9b 84be 8fd4 02be
000000e0: 305a be3d cf10 8e3e 1e79 1cbf 316d 16be
000000f0: b9e9 26bc 9d2b a63e d021 983e 3d87 833e
00000100: 7931 db3d 4bab fdbd a8dd 1dbe 59d1 e33e
00000110: c65c fc3d 8abf ca3e e52d dabc a256 233d
00000120: f710 0cbe fc7d 143f 296b 443f 4341 f63e
00000130: 50ec 8f3e 734f 943e 1500 8c3e f4fc 18bf
00000140: 9f32 4f3e dd4d d1bd 4402 603f e0a9 023f
00000150: af96 853e 1ca6 d23d bc79 da3e f16e 393d
00000160: 6136 353e 00f1 653e eead 2fbf cd01 c83e
00000170: 46cc 0d3e 0216 023e 3fa9 183e af72 e23d
00000180: 659c 7cbc 3e98 7b3d 1dc9 f1bd df04 1cbe
00000190: b602 bdbd c037 3abe 48b9 fb3b cb61 a0bc
000001a0: 23c8 99bd 7c17 0ebe 0ea4 dbbd 9806 59be
000001b0: 5591 1e3d 4f1b 0bbe d734 31be d49a 003b
000001c0: cfda c3bd 5c80 9cbd 6d47 e2be 727a d2bb
000001d0: ba8f 993c d499 2cbd 9e99 34be 020b 1bbe
000001e0: 0142 8c3d b1d3 11be 5b1d 09be f1ea c4bd
000001f0: 3edd 093e 9ea6 4f3b 3232 4dbe 5a88 50bd
00000200: 529e 15be 92ca dcbb d96e 75bd 2d64 9e3e
00000210: 830e b63e 9027 1d3e 1cf6 0e3d 9b4f d43e
00000220: fd29 09be d3d5 ea3e 9492 753e 0565 6b3f
00000230: 09fa 7bbd fe2d af3d 6466 583e fb17 20bf
00000240: 4013 a4bc 8317 c5bd 6fc1 543f fb0a f73e
00000250: 56fe 583d 58c1 9c3e 847f fe3d 2821 283e
00000260: 6b88 223e 5325 2d3f 72ed c8be 132f 0e3f
00000270: 27f8 103e ec9d 5b3d 7c61 093f f556 a83e
00000280: 3ac8 233f 961d 7cbd b3bb 983e c903 db3e
00000290: 25df 15be 70ae 053d f87a 2a3e 7d58 acbd
000002a0: 3080 173f fbb8 8f3d 7e87 0e3e a332 9ebe
000002b0: 10d7 ba3e bec7 543e 512f a8bb 1e92 9e3f
000002c0: f661 a93e 0614 1bbd cc18 25bf a026 1c3e
000002d0: 07ce c33e 2b3f 803e c31d 5d3e 0a27 093f
000002e0: b209 cd3e e489 f13d a388 183e de56 b93d
000002f0: 9f40 943e a5b3 183e 3263 e2be 973e 943c
00000300: 40b0 603e c1ce 473d 5e8c e43d 3ae8 12be
00000310: 75da 933e 0e8c efbd 8787 83be a822 ba3d
00000320: eb09 3abe c86f 8f3e 7385 1fbd 3da0 92be
00000330: bb48 7a3d 5659 463d 0c91 21be ba0c 443d
00000340: 9a86 803e cf25 2f3e 33e1 f9be 2cf0 243d
00000350: 1e59 323d 0c67 d83d 68c4 863d 1988 7f3e
00000360: 7566 72be 83f7 083e c56b 383d 36ec 2a3e
00000370: 43e5 3d3e cebd 20be 3385 33bd 829f 9d3e
00000380: 6aea 2e3e 7e0e 35bd 3a85 b2bc 6b96 9fbc
00000390: 9674 e93d 8ae2 ebba e4fd 073e 5667 603e
000003a0: 7d2a 8a3d 1f19 aa3e 9381 8f3e 7a77 34be
000003b0: e0d7 dc3d 769e 8e3e 51cb 263e 69b0 ff3e
000003c0: 7df3 9abd 2141 133e b257 b7be 66bb c1bd
000003d0: 9974 a23e 4045 223e b91c 1cbd 9989 eb3d
000003e0: 4e3f 31be d243 3b3d 3a3d b2be 87b5 943e
000003f0: 8943 fc3c 50e6 3cbe c435 eebd 36b5 b7bd
-0.16250929 -0.12537883 0.17624041 0.10610761 0.253486 0.09008049 0.31196207 -0.28365362
0.11062914 0.12011326 0.45382065 0.21147493 0.2698152 0.560162 0.43555522 0.1592239
0.4918825 -0.08765994 -0.46827447 0.20727384 -0.16300124 0.17535885 0.17706853 0.2890169
0.121750526 0.563093 -0.60075235 0.45298547 0.1521518 -0.060996372 0.11764654 0.05535495
-0.20717217 -0.008810647 0.020164596 -0.15893586 0.21797612 0.15516919 -0.032379225 0.22751719
-0.24158788 -0.10314036 -0.22619629 0.10747784 0.18253875 0.14880614 -0.10839708 0.15964225
-0.18070705 0.14315368 0.09404738 -0.111609735 0.018366594 -0.062837206 -0.2590017 -0.12776397
0.09294546 0.277472 -0.6112231 -0.1469009 -0.01018756 0.3245515 0.29713297 0.25689116
0.107027955 -0.12386187 -0.15416586 0.44495657 0.12322383 0.39599258 -0.026633212 0.03987754
-0.13678347 0.58004737 0.76726013 0.48096666 0.2810998 0.28966865 0.27343813 -0.59760976
0.20234154 -0.10219929 0.8750346 0.5104046 0.26091525 0.10285589 0.42671 0.045271818
0.17696525 0.22455215 -0.6862477 0.39063874 0.13847455 0.12703708 0.14908312 0.110570304
-0.015418147 0.061424486 -0.118059374 -0.15236233 -0.09229033 -0.1818533 0.0076819994 -0.019577881
-0.07508876 -0.13876146 -0.1072465 -0.21193922 0.03871282 -0.13584636 -0.17305313 0.0019623535
-0.09563219 -0.0764167 -0.4419512 -0.006423288 0.018745292 -0.04213889 -0.17636725 -0.15140918
0.06848527 -0.1424091 -0.13390104 -0.09615124 0.13463303 0.0031685005 -0.20038679 -0.050911285
-0.14611176 -0.0067380155 -0.059920166 0.30935803 0.35557947 0.15347123 0.034902677 0.41466984
-0.13394924 0.4586626 0.23981696 0.9195102 -0.06151775 0.08553694 0.21132809 -0.6253659
-0.02002871 -0.09623625 0.83107656 0.48250565 0.05297693 0.3061626 0.124266654 0.16418898
0.15872352 0.6763508 -0.39243656 0.5554058 0.14157163 0.053617403 0.53664374 0.32878843
0.63977396 -0.061551653 0.29830703 0.42776325 -0.14635904 0.03263706 0.16648471 -0.08415315
0.59179974 0.07017704 0.13918874 -0.30898008 0.36492205 0.2077932 -0.0051325937 1.2388341
0.3308255 -0.037860893 -0.6449096 0.1524911 0.38243124 0.25048193 0.21593384 0.53575194
0.4004646 0.11793879 0.14895873 0.09049772 0.28955552 0.14912279 -0.44216305 0.018096251
0.21942234 0.04878116 0.111595854 -0.143464 0.28877607 -0.11696635 -0.25689337 0.090886414
-0.18167846 0.2801497 -0.038945626 -0.28637877 0.061104517 0.04842504 -0.15777987 0.0478637
0.25102693 0.17104267 -0.48804626 0.04026811 0.04354202 0.1056653 0.0658043 0.24954261
-0.23671897 0.13375668 0.045024652 0.1669167 0.18544488 -0.15697405 -0.0438282 0.30785757
0.1708161 -0.044203274 -0.021792043 -0.019480905 0.1139919 -0.0017996591 0.13280445 0.2191442
0.06746385 0.3322229 0.28028545 -0.17623702 0.107833624 0.2785527 0.16288497 0.49939278
-0.07565973 0.14380313 -0.35809094 -0.094595715 0.31729582 0.1584673 -0.03811333 0.11500854
-0.17309305 0.045718975 -0.34812337 0.29044744 0.030793922 -0.18447232 -0.11631349 -0.0897011

layers.2.bias f4 [16]
00000000: fa7f 9b3d ecd3 5bbe d6e6 463e 097c 26be
00000010: a119 1bbc e67e 223c 547c 04bd 3cfa 8abd
00000020: 61f9 d7bd 97c5 bcbc 3c3d b4bd 2bf6 41be
00000030: 796e a5be ea06 9f3e 6e13 993e 64e8 243d
0.07592769 -0.2146756 0.19423994 -0.16258253 -0.00946656 0.00991795 -0.03234513 -0.0678601
-0.10545612 -0.023043437 -0.08800742 -0.18941562 -0.32310846 0.31059963 0.29897636 0.040260687

output.weight f4 [1, 16]
00000000: 36b3 86be 861a 8cbd 4bd7 56bf 70de 5f3d
00000010: 45e6 52bf 4cee 733f 188c 28bd f4f2 c9bd
00000020: 49d4 3d3b b1b3 1abf 3f0e 00be 108b 18be
00000030: 83b8 f9bd cb9a 32be bc86 e2bd ef35 19bf
-0.26308602 -0.068409964 -0.8392226 0.054655492 -0.82382613 0.9528549 -0.04114923 -0.09860793
0.0028965643 -0.6043044 -0.12505434 -0.14896798 -0.12193396 -0.17441861 -0.11060855 -0.5984792
