vanilla_gan/19-02-23_23-04/discriminator.pt (torch_old, 3224 bytes, 7 tensors)

layers.0.weight f4 [16, 1]
00000000: 9f50 0abe 6eb7 0abd 2220 d2be 0e97 aabf
00000010: 008a 6d3e 0b11 9dbe ee7e b0bd 7f86 dd3f
00000020: 55aa 563f 64b5 f63e 04a2 d3bd ac8e 80be
00000030: f748 afbe ea23 8fbe 6563 2a3e 88b5 033f
-0.13507317 -0.03386634 -0.4104014 -1.3327348 0.23197174 -0.30677065 -0.0861796 1.730667
0.83853656 0.48185265 -0.103336364 -0.2510885 -0.34235355 -0.27957088 0.16639479 0.5144887

layers.0.bias f4 [16]
00000000: 51a2 033f ec1d d0bd 53e8 bf3f b351 a0be
00000010: 8f59 39bf 8737 773f de77 563f d0d8 313f
00000020: 4d2b b53e 4f8b 7ebf 8c02 cb3e 31d9 4c3f
00000030: 80d5 283f 2da6 633f 79ec 81be 2295 adbf
0.5141955 -0.10161957 1.4992775 -0.31312332 -0.7240228 0.96569103 0.8377665 0.69471455
0.35384598 -0.9943132 0.3965038 0.8001891 0.65950775 0.8892544 -0.25375727 -1.3561137

layers.1.weight f4 [16, 16]
00000000: 91c4 a03e d568 45be 194e c13f d009 a4bc
00000010: 1ce5 febd 098c 2c3f 024b ba3c bd0d ca3c
00000020: d97f 333d 20e6 8f3c 1093 0d3e cc6e ab3e
00000030: 57ff d538 9547 043f 0654 00bd ff84 043c
00000040: 8115 4bbd 6612 4a3d ab58 2c3e 9393 3e3d
00000050: 2fa4 1cbe 750f 7d3e 6c2e 983c ce51 03bd
00000060: 0034 e4bd 3152 13bd 622c 0b3e dc70 5c3e
00000070: 64b5 0fbd 89c5 783d 78c3 0fbd 18a8 103e
00000080: 9f2b 033e cc4b dfbc c2f5 eebe d6b9 dbbd
00000090: 2d0b 883d 051a d2be a24c b03c 6c11 0e3e
000000a0: cf6c 9c3d 93f4 d63c 34f0 2dbe d9da 61be
000000b0: d2b0 0dbe a773 97be 82d7 adbc fd52 083e
000000c0: 3d4c 57bd 0867 1f3e 1c38 cdbf 4444 a33c
000000d0: 97cd ac3e f20e 27bf 0267 a2bc 682a 1abc
000000e0: 9b0c bdbb dafd a7bb 6d54 253d 103d 1cbf
000000f0: c132 6cbd 6db4 97be 313b 88bb 821e a13c
00000100: bb49 d2be d9c2 40bc 609c 94bd 4452 00bd
00000110: 2000 a53e 83a6 7cbe 4d90 d33d 39b4 97ba
00000120: 8768 9abc ba45 c53c 85c3 d8be 6800 78be
00000130: 05e4 d4bd 329a 7bbe 056a fdbd 5e52 0a3c
00000140: 3bb3 56bf f12b 7cbd a378 e3bd e426 a9bc
00000150: e006 6a3f 60c4 91be 19e5 13bd de5b e83c
00000160: 1d15 60bd 7803 3f3c ecd3 56bf 968a a7be
00000170: 5e69 23be af19 eabe 2c46 843e f407 c03d
00000180: f848 443d 3944 76bd b40c 5cbe 93dd 65bd
00000190: d468 a23e 7dec bfbe add5 8a3d fdac 7c3d
000001a0: d4ce 933c bd82 a13d a3a0 4fbe a1ea 03bf
000001b0: 1e0b 02be 43fc 9abe d523 173e 8738 473d
000001c0: 2e3b 79bf 133f 14be 2b31 c03c 7fed 47bd
000001d0: f0d3 203f 70b6 29be 5fa4 9c3b 11d9 a03d
000001e0: b4bd e13c bd36 2abd e037 5ebf 6c3c 09bf
000001f0: 9b12 633c 7ea7 efbe 9109 f33d beea 2a3d
00000200: eb69 2e3d 203c c8bc 26b7 ad3e 4a14 7c3c
00000210: 4a13 acbe e0fc ed3e 673d 8ebd 907c 6c3c
00000220: 63b1 61ba 2542 9cbe fb08 673e 690c b23e
00000230: 4634 ad3e 7fdb bc3e 2395 85be 103f dabe
00000240: c781 95bd a0df 50be 0fe4 cebc ebc4 0dbd
00000250: e992 163e fafe 89be f961 ed3c 0c37 1a3d
00000260: 066f 8a3d 4e30 2a3d 87cc 9fbe 8e5d f3be
00000270: 0a9f 23be 7ef8 dcbe 8c3a 873d befe 603e
00000280: ecdd 80be d442 1abd 4ece 93bb 1a10 9abc
00000290: 21bb b93e 2aaf dabe 2ccd 31bd 7766 4f3c
000002a0: 772c 9f3d bfd5 863e 6178 c2bd 51fc b3be
000002b0: a859 6ebe a2c1 88be 4e0f ab3e 9265 e03e
000002c0: c223 1a3f f763 e33d a2b2 8d39 99b7 9e3c
000002d0: ed2d 2fbe a336 4d3d 9691 743c 2190 413c
000002e0: fd77 1fbc 20f2 f3bb 006e 0a3f d3c8 e23e
000002f0: 522d ff3b 8739 8a3e 24cc 4b3d ec0c 08be
00000300: f576 7bbd 76c8 473e f239 9fbf a5e3 293c
00000310: c80b 113e 9c0e 0fbf 88da 0fbd a668 b2bb
00000320: 41aa 36bc 0ba9 cebc 4fbd 6ebc 7b6e c0be
00000330: f9e9 163b 35af 12bf 7cb8 8d3d c37b 99bc
00000340: f092 49bf 93bb 46be 9a32 423d bfe5 a83b
00000350: 1ac0 a03e 5dab 34bd 8dbe d63d 970c 8f3c
00000360: d8ad a63c c20c a73d dffb 5fbf f60c d6bd
00000370: 4e43 2dbd dcc3 b3be b641 9f3d 03e1 283e
00000380: 0089 1ebf caa9 99be 896e b73d 8b0b 683d
00000390: abb8 143f 9ef0 90be bacf fbbc 2a90 513c
000003a0: 7833 fbbb 6c95 373e 0779 2bbf 29ba e3be
000003b0: 14e6 283c 08ad efbd 39cb 443e bb5c 8fbd
000003c0: e3be 6bbe 5bee ca3c cb84 8cbf 72c3 ecbc
000003d0: 99a9 033e f7ec debe 7178 3a3d 7b27 053c
000003e0: bb01 f93c 736c 8f3d a049 13be bd61 a8be
000003f0: 9bac 00bd 02ab c5be 32b4 f63d d820 823d
0.31399968 -0.19278271 1.5101959 -0.02002421 -0.12446043 0.67401177 0.022740845 0.024664754
0.043823097 0.017565787 0.13825631 0.3348297 0.00010204192 0.51671726 -0.03133013 0.008088349
-0.049581055 0.049333952 0.16830699 0.046527456 -0.15297006 0.24712928 0.018576823 -0.032060437
-0.11142731 -0.035967056 0.1359115 0.21527427 -0.035085097 0.06073526 -0.035098523 0.14126623
0.12809609 -0.027257822 -0.46671873 -0.10728805 0.066427566 -0.41035476 0.021520916 0.13873833
0.07637941 0.026239669 -0.16986161 -0.2205614 -0.13836983 -0.29580423 -0.021220926 0.13312908
-0.05256294 0.15566647 -1.6032748 0.019930013 0.33750603 -0.6525718 -0.019824509 -0.0094095245
-0.005769325 -0.005126697 0.040363718 -0.61030674 -0.05766559 -0.2962984 -0.004157447 0.019667868
-0.41071877 -0.011765205 -0.07256389 -0.031328455 0.32226658 -0.24672894 0.103302576 -0.0011574096
-0.01884867 0.0240811 -0.4233667 -0.24218905 -0.10395054 -0.2457054 -0.12373737 0.008442489
-0.83867234 -0.061565343 -0.11106994 -0.020648427 0.9141674 -0.28470135 -0.036107156 0.028364118
-0.054707635 0.011658542 -0.8391712 -0.3272292 -0.15958163 -0.4572272 0.25834787 0.09376517
0.04792115 -0.060123656 -0.21489221 -0.056119513 0.31720603 -0.37485114 0.06779037 0.061688412
0.01804296 0.078862645 -0.20276122 -0.5152989 -0.12699553 -0.30270585 0.14759763 0.048637893
-0.97355926 -0.14477186 0.023460945 -0.04881048 0.6282339 -0.165735 0.0047803367 0.07853902
0.027556278 -0.04155611 -0.8680401 -0.5360782 0.013859416 -0.46807474 0.11867059 0.041727774
0.04258148 -0.024442732 0.33928794 0.015385697 -0.33608466 0.4648199 -0.06945305 0.014433995
-0.00086095015 -0.30519214 0.2256202 0.34775093 0.33828944 0.36886212 -0.26090345 -0.42626238
-0.07300144 -0.20397806 -0.025255231 -0.034611624 0.1470448 -0.26952344 0.028977381 0.037650153
0.06759457 0.041549973 -0.3121073 -0.47532314 -0.15978637 -0.43158334 0.06602964 0.21972176
-0.25169313 -0.03766139 -0.0045106774 -0.018806506 0.3627558 -0.42711765 -0.043408558 0.012658707
0.07772153 0.2633495 -0.09495617 -0.3515344 -0.23276389 -0.2671023 0.33410114 0.43827492
0.6021081 0.11103051 0.00027026708 0.019374656 -0.17107363 0.050100934 0.0149272885 0.011814148
-0.009733197 -0.007444635 0.54074097 0.44293842 0.007787385 0.26997015 0.04975523 -0.1328618
-0.061392743 0.19510064 -1.2439559 0.010369216 0.1416465 -0.5588167 -0.035120517 -0.005444604
-0.01114899 -0.02522709 -0.014571502 -0.3758429 0.0023027642 -0.57298595 0.06919953 -0.018735772
-0.78739834 -0.19407491 0.04741154 0.005154341 0.31396562 -0.044108737 0.104855634 0.017462058
0.020346567 0.0815673 -0.874937 -0.10451691 -0.042300515 -0.35110366 0.07776205 0.16492085
-0.61927795 -0.3001235 0.0895663 0.056651633 0.5809428 -0.28308576 -0.0307387 0.012790719
-0.0076660477 0.17928094 -0.6698155 -0.44477966 0.010308761 -0.11702925 0.19218148 -0.07000109
-0.23022036 0.02477186 -1.0978025 -0.02890179 0.12857665 -0.43540165 0.045525018 0.008127089
0.030396333 0.07003107 -0.14383554 -0.32887068 -0.03141461 -0.3860703 0.12046088 0.06353921

layers.1.bias f4 [16]
00000000: 7054 1cbe 5ddd 7ebe 76bf 0fbd ff98 0cbc
00000010: 0afd 62be 08c1 6cbe cc9a 193e a5f1 9cbe
00000020: b16f 623e e7a4 52be 1c5b 8fbe 945e cfbd
00000030: 3f08 103e 8ccb 10be 2f42 21be 5e25 543e
-0.15266585 -0.24889131 -0.0350947 -0.008581399 -0.22166839 -0.2312051 0.15000457 -0.3065311
0.2211292 -0.20570718 -0.27999198 -0.10125461 0.14065646 -0.14140147 -0.15747903 0.2071738

layers.2.weight f4 [8, 16]
00000000: 1fc0 ffbd dc52 6cbd d1be c03e 2ea4 8b3b
00000010: 5e4b 723d 1446 3cbc 537a 9b3e d008 2cbd
00000020: 6bdb b9be f9ca 9f3e 784d a93e 9130 93bd
00000030: fe4d ba3d 10d0 513d 7fb4 123d a3c3 313e
00000040: 7f93 e53e 25ce 043d fc48 acbc 4e14 d0be
00000050: 31e9 0e3e 3ce9 4b3d 3b30 bbbd 09df 893d
00000060: d8e8 493d 5578 cbbd 3619 473b 352d be3c
00000070: 42e2 e9be 5bbb ed3c ccb1 783d adbf ebbe
00000080: 9622 9f3d 2e97 babb 1701 56be f10c f3bc
00000090: 4015 a73c 3727 0d3c f9d3 5cbe f1e8 193c
000000a0: c0f4 8b3e 8b11 4cbe 1bdf b7be 9689 ecbd
000000b0: ab61 e23c 8055 bc3c 7cf3 993d a124 61be
000000c0: f831 21bd 53c1 7cbd 9599 ab3e 2cf8 e13d
000000d0: 4b1e d0bc 3415 4d3d ff21 823e f7a3 b6bd
000000e0: b536 f0be aa20 1d3e a59e cf3e c42f 03be
000000f0: 6a4f 563e 7163 00bd d96d 9dba bd4c 993e
00000100: ee2e 843d 633a a83e 0d18 37be a950 1e3d
00000110: 844a 35be 5fbf f0bc cef3 9bbe a038 f6bd
00000120: 77c1 863e 23dc ccbe ca4f 2dbe eb43 bd3e
00000130: 70e9 d93c 6d3e babe be66 47be 0caa 40bd
00000140: 6837 9dbd dabb 083f 91b1 4ebd 34f9 2cbd
00000150: cbe9 34bf d52a c7bd 5e50 5bbe a499 d2be
00000160: f3c0 393b afd9 a4be c2ee 9fbd 24ef 833f
00000170: 3c6d e6bd a8b7 81bf d82e f2be 4228 833c
00000180: a645 023f 0c7b ff3c 7c6f 8ebe 4b20 2bbf
00000190: 45bb 86bd 11d5 af3c 5150 923d e980 4abc
000001a0: 7bd4 003e a85c 5f3d a0f3 bf3d 5d03 f2bd
000001b0: e855 1dbf 962d 853d e765 433d 9fcf 04bf
000001c0: 629e 65bf 5cf9 88bd b5bf 373e 7855 343f
000001d0: 015b 2e3b ec04 15bd 71d8 f53d e831 98bd
000001e0: 91d3 8cbd 6054 063d 8482 ddbc 4811 d0ba
000001f0: c3f0 8e3f 88e2 9d3c 24fc eabc 586e c93e
-0.12487816 -0.05769621 0.3764558 0.004261515 0.059153907 -0.011491317 0.30366763 -0.04200059
-0.36300215 0.31209543 0.33066916 -0.07186998 0.09096907 0.051223814 0.035816666 0.17359786
0.44839093 0.032423157 -0.021030895 -0.4064049 0.13956143 0.049782977 -0.091400586 0.06731994
0.049294323 -0.09935061 0.0030380017 0.023214916 -0.45680434 0.029020002 0.060716435 -0.46044675
0.077702686 -0.0056942916 -0.20898853 -0.029669257 0.020395875 0.008615307 -0.21565236 0.009393916
0.27335167 -0.19928567 -0.35912403 -0.1154968 0.027634462 0.022989988 0.07517144 -0.21986629
-0.039354295 -0.061707806 0.3351561 0.11033663 -0.02540507 0.05006905 0.25416562 -0.089179926
-0.46916738 0.15344492 0.40550724 -0.1281119 0.20928732 -0.031344835 -0.0012010887 0.2994136
0.06454264 0.32857046 -0.17880268 0.038651142 -0.17704207 -0.029388128 -0.30459446 -0.12022519
0.26319477 -0.400117 -0.16924968 0.3696588 0.02660057 -0.36375752 -0.19472787 -0.04703717
-0.076765835 0.5341164 -0.05046231 -0.042229846 -0.7066924 -0.097249664 -0.21417376 -0.41132843
0.0028343766 -0.3219733 -0.07809211 1.0307355 -0.112513036 -1.0134172 -0.47301364 0.016010407
0.50887525 0.031186603 -0.2781943 -0.6684615 -0.065786876 0.021463903 0.071442254 -0.012359836
0.12581055 0.054531723 0.0937264 -0.11817048 -0.6145921 0.065028355 0.047704604 -0.51879305
-0.896948 -0.066881865 0.17944224 0.70442915 0.0026604536 -0.036381647 0.120041735 -0.07431394
-0.068762906 0.03279531 -0.027039774 -0.0015874291 1.1167225 0.019273058 -0.028684683 0.39341998

layers.2.bias f4 [8]
00000000: 067c 4dbe e560 47be 5211 863d f5b6 f4bd
00000010: fb79 003e 7da7 0f3e 6952 f5bd 84ea 623e
-0.20066842 -0.19470556 0.06546272 -0.11948959 0.12546532 0.14028735 -0.11978609 0.22159773

output.weight f4 [1, 8]
00000000: ef8c c73c aae4 ebbb c566 19bc 199e ff3b
00000010: 5e04 39bd 7c54 5bbd 6a4a 54bc 47cf 193c
0.024359195 -0.0071988897 -0.009362881 0.007800829 -0.04517018 -0.053547367 -0.012957195 0.009387798
