vanilla_gan/19-02-23_23-04/generator.pt (torch_old, 5869 bytes, 7 tensors)

layers.0.weight f4 [16, 1]
0	0xbf54b1ad	-0.8308361
1	0xbf044ebe	-0.5168265
2	0xba381ae8	-0.00070230523
3	0xbf5373c4	-0.8259852
4	0x3c3e85e1	0.011628599
5	0x3ee039f9	0.4379423
6	0x3ed8409c	0.42236793
7	0x3f56d4bf	0.83918375
8	0x3d2bbd5f	0.041928645
9	0x3f366f16	0.71263254
10	0x3f2e727b	0.68143433
11	0x3f1b4eb7	0.60666984
12	0x3f2722d4	0.6528752
13	0xbf5145ac	-0.81746936
14	0xbd5996ee	-0.053122453
15	0x3de7af26	0.11312704

layers.0.bias f4 [16]
0	0x3f392ec2	0.7233697
1	0xbf21d414	-0.6321423
2	0xbf621330	-0.8831053
3	0x3f009eb1	0.50242144
4	0xbda628f3	-0.08113279
5	0xbe5899d1	-0.21152426
6	0x3e7fbe69	0.2497498
7	0xbd250abf	-0.04029345
8	0x3f3c4a65	0.7355102
9	0x3c85f719	0.016353177
10	0xbf7f972a	-0.99840033
11	0xbf32892c	-0.6974056
12	0xbcbc22d5	-0.022965828
13	0x3e338a27	0.1753317
14	0xbf0fb136	-0.5612978
15	0x3f11e3d5	0.5698827

layers.1.weight f4 [32, 16]
0	0x3d2eff42	0.0427239
1	0xbce75934	-0.028240778
2	0xbe839b0a	-0.25704223
3	0xbe4c9607	-0.19979106
4	0x3d8b66ca	0.06806715
5	0x3cc1022a	0.023560602
6	0x3e036d68	0.12834704
7	0xbe2b9e34	-0.16759568
8	0xbe20caf3	-0.15702419
9	0x3e34eb59	0.17667903
10	0x3de756b5	0.11295835
11	0xbdb3858d	-0.08765707
12	0x3d24efc0	0.040267706
13	0xbe0bd1fe	-0.13654324
14	0x3af929da	0.0019009665
15	0xbdf5d53d	-0.120035626
16	0xbddd650f	-0.10810291
17	0x3e457047	0.19281112
18	0xbbdb36db	-0.006689889
19	0x3eefc97e	0.46833414
20	0x3de87ddb	0.1135213
21	0xbd597c38	-0.05309698
22	0xbc0e4174	-0.008682597
23	0x3c824688	0.015902773
24	0x3dc72340	0.0972352
25	0x3d4bc1b8	0.04974529
26	0x3d373470	0.044727743
27	0xbd0d563d	-0.03450607
28	0xbdf8daa4	-0.121510774
29	0x3da4f1a2	0.080539
30	0x3d54110f	0.05177408
31	0x3d49ae1d	0.049238313
32	0x3d5a7295	0.05333193
33	0xbd6cd97d	-0.0578246
34	0x3db5d100	0.08877754
35	0xbede6e5d	-0.43443576
36	0x3e061a5f	0.13095997
37	0x3e5562bf	0.2083845
38	0xbe7f23d9	-0.24916019
39	0x3e4224ee	0.189594
40	0x3dc310a0	0.09524655
41	0x3e6d9eb2	0.23205069
42	0x3e29f636	0.16597828
43	0xbd367c6d	-0.044552255
44	0x3e6805a0	0.22658396
45	0x3d47999f	0.04873049
46	0x3d836455	0.06415621
47	0x3ca30456	0.019899528
48	0x3e5ee195	0.2176574
49	0xbe8c5936	-0.27411813
50	0xbe39e192	-0.18152454
51	0xbe8106ad	-0.25200406
52	0x3e2e2fcd	0.17010422
53	0x3dc68dfd	0.09695051
54	0xbc9ed263	-0.01938743
55	0x3e481928	0.19540846
56	0xbe4a3ee0	-0.19750547
57	0xbd5921f5	-0.0530109
58	0xbe623176	-0.2208918
59	0xbd925f6d	-0.07147107
60	0x3d3ad8d8	0.045616955
61	0xbe815a71	-0.25264314
62	0x3e0ed96e	0.1395013
63	0x3de76ce7	0.11300068
64	0x3c47b0fe	0.012188194
65	0xbd83ae52	-0.06429733
66	0xbde125a6	-0.10993509
67	0x3d276d48	0.040875703
68	0x3e949baa	0.29025012
69	0x3cf239bb	0.029568544
70	0x3d7e0346	0.06201484
71	0x3e5a6a24	0.21329552
72	0x3dbc8d0d	0.09206591
73	0xbe1fad65	-0.15593489
74	0xbe0fe576	-0.14052376
75	0x3db2a346	0.08722548
76	0x3e00ebcf	0.12589954
77	0x3d0c28b6	0.034218512
78	0x3b78be1e	0.0037955116
79	0x3b622e6d	0.0034512535
80	0x3d10d90e	0.03536325
81	0x3e2683ef	0.16261266
82	0x3e6078dc	0.21921104
83	0x3eac779e	0.3368501
84	0x3e35e6ea	0.17763868
85	0x3d964746	0.07337813
86	0xbd89d8d7	-0.06730812
87	0xbe45cc70	-0.19316268
88	0x3df4078a	0.119155005
89	0xbcdc3e3d	-0.026885146
90	0xb9a43aad	-0.00031324234
91	0x3e15f8bb	0.14645664
92	0xbe8dd3a9	-0.27700546
93	0x3d5acefc	0.053420052
94	0x3cad541b	0.021158269
95	0xbe43d29e	-0.19123313
96	0x3c0f935f	0.008763163
97	0xbd8fdc7e	-0.070244774
98	0xbd25c2ff	-0.040469166
99	0xbe8bf8db	-0.273383
100	0xbdb85fbb	-0.09002634
101	0xbc1dc80a	-0.009630213
102	0xbd9219af	-0.07133805
103	0x3dd741fc	0.105106324
104	0xbd3afff6	-0.04565426
105	0x3e247292	0.1605933
106	0xbe79e67a	-0.24404326
107	0xbe227d39	-0.15868081
108	0xbdc17a90	-0.09447205
109	0xbd255149	-0.040360723
110	0xbe1aec5f	-0.15129231
111	0x3e6d5c80	0.23179817
112	0xbdf07e9c	-0.11742899
113	0x3e8832ce	0.2660126
114	0x3d302f7c	0.043014035
115	0xbd177661	-0.03697813
116	0xbddbe795	-0.1073753
117	0xbe2de540	-0.16981983
118	0xbcfc819b	-0.03082352
119	0x3dfefea0	0.124509096
120	0x3e17c061	0.1481948
121	0xbdfe9682	-0.12431051
122	0xbe507c92	-0.2036002
123	0x3e82bd5b	0.25535092
124	0xbdcfe164	-0.10150412
125	0x3d6c4db1	0.05769128
126	0x3e30cef4	0.17266446
127	0xbd857164	-0.06515768
128	0xbdbcb419	-0.092140384
129	0x3e106676	0.14101586
130	0x3e109e11	0.14122798
131	0xbd4a7415	-0.04942711
132	0x3e63ca91	0.22245242
133	0xbe5f27d3	-0.21792535
134	0xbe900e74	-0.28136027
135	0x3d1fb64c	0.03899221
136	0x3dde1684	0.10844138
137	0x3e31adff	0.1735153
138	0xbdcb11bd	-0.09915493
139	0xbb978918	-0.004624497
140	0x3e32ded3	0.17467813
141	0x3dfac804	0.12245181
142	0x3d57f59b	0.052724462
143	0x3dc8a1dd	0.09796498
144	0x3d918e3d	0.07107208
145	0xbe07f237	-0.13275991
146	0x3e136745	0.14394863
147	0xbe9cc5f8	-0.30619788
148	0x3deeac92	0.11654009
149	0x3c1c85c5	0.0095533775
150	0x3e36c8c6	0.17850026
151	0x3e4ddaa6	0.20102939
152	0xbde581f2	-0.11206426
153	0xbe01099e	-0.12601325
154	0x3d9c9e52	0.07647385
155	0xbd528b35	-0.05140229
156	0x3e4822af	0.1954448
157	0xbc57441b	-0.013138796
158	0xbe526d37	-0.20549475
159	0xbe48de57	-0.19616066
160	0xbe88704d	-0.2664818
161	0x3ddd3e77	0.1080293
162	0x3e6dde65	0.23229368
163	0x3e8ca97d	0.2747306
164	0x3e2287ba	0.15872088
165	0xbe15b478	-0.14619625
166	0xbb9393ab	-0.0045036874
167	0xbe6815ae	-0.2266452
168	0x3dc1ec32	0.09468879
169	0x3e101f4b	0.14074437
170	0x3e58db05	0.211773
171	0x3e20b262	0.15693048
172	0x3dfdd793	0.12394633
173	0xbd9e59f0	-0.07731998
174	0x3e7afb52	0.24509934
175	0xbe8aae93	-0.27086315
176	0x3e10bca3	0.14134459
177	0x3d84c05d	0.06482003
178	0xbd478be8	-0.04871741
179	0xbe9dfb9d	-0.30856028
180	0x3e4e9ff1	0.201782
181	0x3e541654	0.20711643
182	0xbc19c138	-0.009384446
183	0x3e72fcd1	0.23729254
184	0x3e4622f8	0.19349277
185	0xbd06f0be	-0.032944433
186	0x3d920588	0.07129961
187	0xbd9265fd	-0.07148359
188	0xbd816e53	-0.06319871
189	0xbcf28a74	-0.029607035
190	0xbd89520d	-0.06705103
191	0x3e25c274	0.16187459
192	0xbcf75ba9	-0.030195074
193	0xbd376a1f	-0.04477894
194	0x3b7ddb8c	0.0038735596
195	0x3e1c38d1	0.15256049
196	0x3d22fe69	0.039793406
197	0xbeadc090	-0.33935976
198	0x3e344acb	0.17606656
199	0xbe32414f	-0.17407726
200	0xbe885b47	-0.2663214
201	0xbd6d9849	-0.05800656
202	0x3e6323c2	0.2218161
203	0x3e0e3ad7	0.13889633
204	0x3ce3dd6e	0.027815547
205	0xbe2d722a	-0.16938081
206	0x3e94de5a	0.2907589
207	0xbe58c4f8	-0.21168888
208	0xbd185364	-0.037188902
209	0xbe070afb	-0.13187782
210	0xbdd230ba	-0.102632
211	0x3ef1e334	0.47243655
212	0x3cb184b5	0.021669725
213	0xbe5666b2	-0.20937613
214	0xbe7fbdb1	-0.24974705
215	0xbe4c8514	-0.1997264
216	0x3d3b2866	0.045692824
217	0x3e1cd614	0.1531604
218	0x3e49f6a7	0.19722997
219	0xbdf946b9	-0.121716924
220	0xbd5dc082	-0.054138668
221	0x3e84968b	0.25896105
222	0x3cf8825b	0.030335596
223	0xbe2cf5fc	-0.1689071
224	0xbdfbbd53	-0.1229197
225	0x3e6c6d16	0.23088488
226	0xbe19e7b2	-0.15029791
227	0xbedd7607	-0.4325411
228	0x3d895db0	0.067073226
229	0xbce16456	-0.027513664
230	0x3cd90499	0.02649145
231	0xbd6af3de	-0.057361476
232	0x3e51d083	0.20489697
233	0x3e8d0461	0.27542403
234	0xbdd8af24	-0.105802804
235	0x3e360afe	0.1777763
236	0x3dc3e46b	0.09565052
237	0xbe9919bf	-0.29902455
238	0x3d3a0399	0.045413587
239	0x3e575759	0.21029414
240	0xbe002620	-0.12514544
241	0xbda18457	-0.0788657
242	0xbe65fd18	-0.22459829
243	0xbe6208d8	-0.22073686
244	0x3e571e52	0.2100766
245	0xbd9e9ddb	-0.07744952
246	0x3e970992	0.2949949
247	0x3e3802a6	0.1796976
248	0xbe3d00eb	-0.18457381
249	0xbe3a38ae	-0.18185684
250	0xbe857c11	-0.26071218
251	0xbc976838	-0.018482313
252	0xbc55695e	-0.01302561
253	0x3d1d16b9	0.03835175
254	0xbbc215f1	-0.005923026
255	0x3e2217cb	0.15829389

layers.1.bias f4 [32]
0	0x3cf278b7	0.029598577
1	0xbd97fd46	-0.07421355
2	0xbe243b24	-0.16038185
3	0x3e2cae27	0.16863309
4	0xbe9c06db	-0.3047398
5	0x3e3e39ea	0.1857678
6	0x3e306aa4	0.1722818
7	0x3d11cb43	0.035594236
8	0xbe1a7ac4	-0.15085894
9	0x3e80d8ef	0.25165507
10	0xbe7a48d7	-0.24441849
11	0x3e82bc18	0.2553413
12	0xbd8d1e25	-0.06890515
13	0xbe3ec22f	-0.18628763
14	0xbc121c11	-0.008917824
15	0x3e828f6a	0.2550004
16	0x3d57aa94	0.05265291
17	0x3e53c3de	0.20680186
18	0x3e3ec6fd	0.18630596
19	0x3e5685f8	0.20949543
20	0xbe8b750d	-0.2723774
21	0xbcf89a50	-0.03034702
22	0xbdfa079c	-0.122084826
23	0xbd919bc9	-0.07109792
24	0x3dd62799	0.104567714
25	0xbd3e9d9b	-0.046537023
26	0x3dd8c48a	0.10584362
27	0x3ded774b	0.11595019
28	0x3d06dde1	0.032926444
29	0x3dedabff	0.11605071
30	0xbd492caa	-0.04911486
31	0x3e2cbb14	0.1686824

layers.2.weight f4 [16, 32]
0	0xbd03ad9b	-0.032147985
1	0xbd774aa9	-0.060373936
2	0xbde6680a	-0.112503126
3	0x3e335c18	0.175156
4	0xbae8d6b9	-0.0017764188
5	0xbe3b2690	-0.18276429
6	0xbd9088e8	-0.07057363
7	0xbd906f76	-0.070525095
8	0x3e36c145	0.17847164
9	0x3ad1d226	0.0016008064
10	0xbb9c6377	-0.0047725993
11	0x3cf1670c	0.029468082
12	0xbbc81e63	-0.006107138
13	0xbe20b492	-0.15693882
14	0xbcf8e0cc	-0.030380629
15	0x3ccd1e4b	0.025038859
16	0xbd93ef80	-0.072234154
17	0xbca1117a	-0.019661654
18	0xbdc89e1c	-0.09795782
19	0x3ca42236	0.020035844
20	0xbd43f049	-0.047836576
21	0xbdb9be19	-0.090694614
22	0xbdd9361f	-0.10606026
23	0xbd51fd8a	-0.051267184
24	0xbdaf7910	-0.08568013
25	0xbe6850a8	-0.22687018
26	0x3da32542	0.07966091
27	0x3df38d8c	0.11892232
28	0x3e38f947	0.18063842
29	0xbd9a2aec	-0.07527718
30	0xbdb23e6d	-0.08703313
31	0x3db723a6	0.08942346
32	0xbe230b43	-0.15922265
33	0xbdfb4828	-0.12269622
34	0x3ded418c	0.11584768
35	0x3e38bac1	0.18039991
36	0x3dcc9b91	0.099906094
37	0x3dc32201	0.0952797
38	0xbdeb39c8	-0.1148563
39	0xbdfe0bd0	-0.12404597
40	0x3cc58668	0.024111941
41	0x3e495964	0.19663006
42	0xbc982bed	-0.018575633
43	0xbd8a73ac	-0.06760344
44	0xbe2b2a24	-0.16715294
45	0xbd7f1ec3	-0.062285196
46	0xbc2e6ca6	-0.010646021
47	0x3d5c76db	0.053824287
48	0xbe0eb709	-0.1393701
49	0xbdec25a4	-0.11530617
50	0xbe38f6ab	-0.18062846
51	0xbbaf7b6f	-0.0053552906
52	0x3da5830f	0.08081638
53	0xbd119cc8	-0.03554991
54	0x3e0c12ea	0.1367909
55	0xbdc7dcd9	-0.0975892
56	0xbdb92c8b	-0.09041699
57	0xbe466b4b	-0.19376867
58	0x3cbdaecb	0.023154637
59	0xbd15f34e	-0.036608987
60	0xbe126ba3	-0.14298873
61	0xbd861ae8	-0.06548101
62	0xbe346cf2	-0.17619684
63	0xbde49068	-0.11160356
64	0x3e0ad1ba	0.13556567
65	0xbdd6edad	-0.10494552
66	0x3e1cec60	0.15324545
67	0xbcb7da7f	-0.022443054
68	0xba410380	-0.0007362887
69	0xbe2729b5	-0.16324504
70	0x3e50cbec	0.2039029
71	0x3dad20ec	0.08453545
72	0x3de970ec	0.11398491
73	0x3e5d1216	0.2158893
74	0xbe1b7760	-0.15182257
75	0x3de701a2	0.11279608
76	0xbc8456e2	-0.01615471
77	0x3e0a379a	0.13497773
78	0xbc9f0b17	-0.019414468
79	0x3e5cbfbc	0.21557516
80	0x3d9ca2c0	0.076482296
81	0xbde883fb	-0.11353298
82	0x3dfa830a	0.12232025
83	0x3d23c856	0.039985977
84	0x3dba3f89	0.090941496
85	0xbd459c18	-0.048244566
86	0x3d2a84b1	0.04163045
87	0x3c8906b6	0.016726833
88	0x3dff580e	0.12467967
89	0xbd9c595c	-0.076342314
90	0x3cc3d487	0.023905052
91	0xbdbe330f	-0.092870824
92	0x3e4b4962	0.19852212
93	0x3e193593	0.14961843
94	0x3d256029	0.04037491
95	0x3cfbc498	0.030733392
96	0x3c859eef	0.016311137
97	0x3cf632bc	0.030053489
98	0x3e3deefa	0.18548194
99	0x3d97404e	0.07385312
100	0x3d210d64	0.03931941
101	0x3c9b8955	0.018986383
102	0x3e5c474c	0.21511573
103	0xbd7288a2	-0.059212334
104	0x3cf1ca6f	0.029515473
105	0x3daf4896	0.085587665
106	0xbe13d5c6	-0.14437017
107	0x3debd7f1	0.11515797
108	0xbe5ab61c	-0.21358532
109	0x3dc3b290	0.095555425
110	0x3dbc2d63	0.09188344
111	0xbd9c8cdc	-0.07644054
112	0xbe1573d8	-0.14594972
113	0x3e3d93a3	0.1851335
114	0xbcdca746	-0.026935231
115	0xbb0e6872	-0.0021729735
116	0x3d9fcfdc	0.07803318
117	0x3d187b01	0.03722668
118	0x3e41625a	0.18885174
119	0x3dd800d8	0.10547036
120	0xbe2ad711	-0.16683604
121	0x3dbe74e2	0.092996374
122	0xbd453f2b	-0.048155945
123	0x3d6c7ed8	0.057738155
124	0x3ddd3779	0.10801596
125	0xbd32e229	-0.043672714
126	0xbe5d2d71	-0.21599366
127	0x3b1774b2	0.0023110327
128	0x3dc8fcd6	0.0981385
129	0xbd9b6e5b	-0.07589408
130	0x3e0579de	0.1303477
131	0xbda70f50	-0.081572175
132	0xbe03b47c	-0.12861818
133	0xbe2e68d3	-0.17032175
134	0xbdbf06b3	-0.0932745
135	0x3e22b7a8	0.15890372
136	0xbe2a3aa6	-0.16623935
137	0x3d4e304d	0.050339032
138	0x3d864438	0.065559804
139	0xbdbac324	-0.09119251
140	0xbe5062f7	-0.20350252
141	0x3dd3ce37	0.10342067
142	0xbcd7367c	-0.026271097
143	0xbd2cc357	-0.042178478
144	0xbdfea774	-0.12434283
145	0x3c5716e6	0.013128018
146	0xbd34477b	-0.04401348
147	0xbdd58486	-0.104256675
148	0xbdee018d	-0.116213895
149	0xbe287502	-0.16450885
150	0x3e6fabf5	0.2340544
151	0xbe4e8e6c	-0.20171517
152	0xbc340ad4	-0.01098891
153	0xbe30b505	-0.17256553
154	0x3c14150c	0.009038221
155	0xbdfbf30d	-0.12302218
156	0x3e2575f2	0.16158274
157	0x3d3daaaa	0.046305336
158	0xbd261637	-0.04054853
159	0x3da7bda7	0.0819047
160	0x3d98e114	0.07464805
161	0xbe31cc8c	-0.17363185
162	0xbd5ad8a0	-0.053429246
163	0xbda53541	-0.08066798
164	0xbdd5b51a	-0.10434933
165	0x3daf5ed7	0.08563011
166	0x3dd00313	0.10156836
167	0x3e322b2c	0.17399281
168	0xbdcfa773	-0.1013936
169	0xbcfe87d4	-0.031070627
170	0xbcac90a3	-0.021065062
171	0xbd36f3ee	-0.044666223
172	0x3df58e8b	0.119900785
173	0xbdee42e3	-0.116338514
174	0x3e563732	0.20919493
175	0x3de5fcc6	0.11229853
176	0x3c19e509	0.009392985
177	0xbd1850cb	-0.037186425
178	0xbd02174a	-0.03176049
179	0xbe01a2e0	-0.12659788
180	0xbe413985	-0.18869598
181	0x3d514a7c	0.051096424
182	0xbd2dd631	-0.042440597
183	0xbc3dab29	-0.011576452
184	0xbe016a7a	-0.12638274
185	0xbde28191	-0.11059869
186	0xbd88d35c	-0.066809386
187	0x3e37b4cc	0.17940062
188	0x3e3ae760	0.18252325
189	0x3e17acc2	0.14811996
190	0x3d8fa52d	0.07013927
191	0x3a172acf	0.0005766572
192	0xbdb49c01	-0.08818818
193	0x3e0e2827	0.13882504
194	0xbd0b693d	-0.03403591
195	0xbcf07d24	-0.029356547
196	0xbd041664	-0.032247916
197	0x3e620ff7	0.22076403
198	0xbdad509d	-0.084626414
199	0xbe1f847f	-0.15577887
200	0xbe08437c	-0.13306993
201	0x3daa6c7d	0.08321474
202	0xbdbc135f	-0.09183382
203	0xbdeffe97	-0.11718481
204	0xbd42a211	-0.04751784
205	0xbe0db3ca	-0.13838115
206	0x3dc80c60	0.09767985
207	0x3dc11a1c	0.09428808
208	0xbe4a39e2	-0.19748643
209	0x3e072aad	0.13199873
210	0x3e4afa21	0.19821979
211	0x3dedfac9	0.11620099
212	0x3e2d9a26	0.16953334
213	0x3d23a60e	0.039953284
214	0xbe34fdd9	-0.1767496
215	0xbdf0d033	-0.11758461
216	0xbd8c4ecf	-0.06850969
217	0xbcea81ed	-0.028626407
218	0x3dde6f6d	0.108610965
219	0xbe386ddb	-0.18010657
220	0x3e01a64a	0.1266109
221	0xbe02367d	-0.12716098
222	0xbc960be2	-0.018316213
223	0x3dc1c380	0.09461117
224	0x3d0a7624	0.033804074
225	0xbde99ccb	-0.11406859
226	0x3e18927e	0.14899632
227	0x3deaa74b	0.1145769
228	0xbc2473ba	-0.010037357
229	0x3e0e5705	0.13900383
230	0x3d897e90	0.06713593
231	0xbdcf7e95	-0.101315655
232	0x3cdbf702	0.026851181
233	0x3d8d3c47	0.068962626
234	0xbc23f3af	-0.010006829
235	0x3e474135	0.19458468
236	0xbd6b29fb	-0.057413083
237	0xbe032597	-0.12807308
238	0x3e02884e	0.12747309
239	0xbd8da857	-0.06916874
240	0x3dc313c6	0.09525256
241	0xbde9b9d1	-0.11412395
242	0xbd2981dc	-0.04138361
243	0xbdf08a28	-0.11745101
244	0xbdec84fe	-0.11548804
245	0x3de6799c	0.11253664
246	0xbdbeaf47	-0.09310775
247	0xbe4d9e09	-0.20079817
248	0x3c39ea73	0.011347401
249	0xbd8a4876	-0.06752102
250	0x3d2dae6c	0.04240267
251	0xbdbb3a28	-0.09141952
252	0xbd5ca625	-0.053869385
253	0x3d5dcbd7	0.054149475
254	0x3dc210d2	0.094758645
255	0xbdd48b5b	-0.103781424

layers.2.bias f4 [16]
0	0x3e503ce2	0.20335725
1	0x3da69089	0.08133037
2	0x3e01fa2b	0.12693088
3	0x3e298eae	0.16558334
4	0x3e303030	0.17205882
5	0x3e3450c3	0.17608933
6	0x3d7cf7c9	0.061759744
7	0x3d9d80a4	0.07690552
8	0xbe08408f	-0.13305877
9	0x3e2b118b	0.16705911
10	0xbc52f42e	-0.0128756
11	0xbcbc2c68	-0.022970393
12	0xbda5cf3e	-0.08096169
13	0x3dd047a2	0.10169913
14	0x3e581af2	0.21104029
15	0x3d185fea	0.037200846

output.weight f4 [1, 16]
0	0x3e19093c	0.14944929
1	0x3e92115e	0.28528875
2	0x3e2b9329	0.16755356
3	0x3e984792	0.29742104
4	0x3ec00575	0.37504163
5	0x3ea1b785	0.31585327
6	0xbe1f4e33	-0.15557174
7	0x3e9577a7	0.2919285
8	0xbe6ad113	-0.22931318
9	0x3ebea288	0.37233377
10	0x3e8b66ff	0.27227017
11	0xbdf6ebb1	-0.12056673
12	0xbea303f7	-0.31838962
13	0x3eaafd01	0.33396152
14	0x3eb8efbc	0.36120403
15	0x3eb0f1b0	0.34559393
