vanilla_gan/19-02-26_22-37/discriminator.pt (torch_old, 3224 bytes, 7 tensors)

layers.0.weight f4 [16, 1]
0	0xbe690cea	-0.22758833
1	0x3f089590	0.53353214
2	0xbe91991d	-0.2843713
3	0xbe7345fa	-0.23757163
4	0xbe52003e	-0.20507905
5	0x3f2cf1ed	0.6755665
6	0x3f20cb34	0.62810063
7	0xbf04a355	-0.51811725
8	0x3e705daf	0.23473237
9	0xbe6e8a35	-0.2329491
10	0xbf211352	-0.62920105
11	0x3ecd1fcb	0.4006332
12	0x3ed76f02	0.4207688
13	0xbe8fff23	-0.2812434
14	0x3f0ce25f	0.55032915
15	0xbe9790f6	-0.29602784

layers.0.bias f4 [16]
0	0x3f006382	0.50151837
1	0xbf9510af	-1.1645716
2	0x3f1b9e17	0.607881
3	0x3f04a415	0.5181287
4	0x3ee71c21	0.45138648
5	0xbfbaba4f	-1.4588107
6	0xbfaedd88	-1.3661356
7	0x3f90753f	1.1285781
8	0xbf04de73	-0.5190193
9	0x3f007d8f	0.5019159
10	0x3fae4d16	1.3617275
11	0xbf65fe96	-0.8984159
12	0xbf6a5e59	-0.91550213
13	0x3f1e98ed	0.61952096
14	0xbf98bce3	-1.1932644
15	0x3f734a20	0.9503498

layers.1.weight f4 [16, 16]
0	0x3efa12c7	0.4884245
1	0xc11920ff	-9.570556
2	0x3f041eef	0.516097
3	0x3ef10492	0.470738
4	0x3f05e511	0.5230265
5	0xc0dc0711	-6.8758626
6	0xc0e80d8a	-7.2516527
7	0x41365168	11.394875
8	0xbeddcf6b	-0.4332231
9	0x3ed84af3	0.42244682
10	0x4137677a	11.462763
11	0xc06781af	-3.6172903
12	0xbf0c310a	-0.5476233
13	0x3f1956ef	0.59898275
14	0xc15e455d	-13.891934
15	0x3b6d2f00	0.0036191344
16	0xc10a867c	-8.657833
17	0x3f299c2e	0.66253936
18	0xc0fa16ad	-7.815268
19	0xc1129869	-9.1622095
20	0xc10c079b	-8.751857
21	0x3f3a265d	0.7271479
22	0x3f39e43c	0.72613883
23	0xbf2c0711	-0.6719828
24	0x40f6acaf	7.7085795
25	0xc10e60d6	-8.898642
26	0xbf393f1b	-0.72361916
27	0x3f120ed1	0.5705386
28	0x406e4a1a	3.7232728
29	0xc0e2fedf	-7.093612
30	0x3f2dd9c0	0.67910385
31	0xbf31f718	-0.6951766
32	0x3eee5ff8	0.46557593
33	0xc10bb13c	-8.73077
34	0x3eca3bdb	0.3949879
35	0x3eee1a69	0.46504524
36	0x3ec2722c	0.3797773
37	0xc0c62c91	-6.19294
38	0xc0cd35a2	-6.412797
39	0x4127e235	10.492726
40	0xbea9fae9	-0.33199242
41	0x3efe5d5b	0.496806
42	0x412c39f2	10.764147
43	0xc0416200	-3.0216064
44	0xbed6d687	-0.41960546
45	0x3ee01960	0.4376936
46	0xc14f8387	-12.969611
47	0x3b8578d6	0.0040732427
48	0xbf043054	-0.5163624
49	0x41281ea9	10.507485
50	0xbefbb413	-0.49160823
51	0xbef19e34	-0.47191012
52	0xbf12461d	-0.57138234
53	0x40fd34ca	7.912694
54	0x40ffac63	7.9897933
55	0xc14d4761	-12.8299265
56	0x3ee2cd43	0.44297227
57	0xbed65455	-0.41861215
58	0xc13ae666	-11.68125
59	0x407c8061	3.9453356
60	0x3f06996e	0.52577865
61	0xbeea0d94	-0.45713484
62	0x41697079	14.589959
63	0x3d08e538	0.033421725
64	0xc108a19e	-8.539457
65	0x3f27668d	0.65390855
66	0xc0fb25c2	-7.848359
67	0xc10f63ff	-8.961913
68	0xc1144914	-9.267841
69	0x3f3ca5b9	0.7369037
70	0x3f2c2c65	0.6725524
71	0xbf353b1c	-0.7079332
72	0x40eccfdf	7.400375
73	0xc113916b	-9.223002
74	0xbf2bccb7	-0.67109245
75	0x3f19740e	0.5994271
76	0x40428240	3.0391998
77	0xc0d518d3	-6.6592803
78	0x3f1f3bce	0.6220063
79	0xbf2421d2	-0.64114106
80	0x3f023b84	0.50872064
81	0xc118f6b1	-9.560227
82	0x3f09a9f3	0.53774947
83	0x3f0ceb46	0.550465
84	0x3ec58732	0.38579708
85	0xc0d7ddd8	-6.7458305
86	0xc0e4427f	-7.133117
87	0x4136755a	11.40365
88	0xbf039df3	-0.51412886
89	0x3f2b9f6f	0.6704015
90	0x41346426	11.27445
91	0xc04b6460	-3.1780014
92	0xbf05b04b	-0.52222127
93	0x3f04db10	0.5189676
94	0xc15b05d6	-13.688925
95	0xbc680f8a	-0.014163861
96	0x410e4486	8.891729
97	0xbf26b1d6	-0.65115106
98	0x40f97df8	7.796627
99	0x410f99b8	8.975029
100	0x4115c68e	9.360975
101	0xbf4080d1	-0.7519656
102	0xbf407cab	-0.7519023
103	0x3f388857	0.7208304
104	0xc0fd55d1	-7.9167256
105	0x41132cd8	9.198448
106	0x3f31045b	0.6914727
107	0xbf0af5a0	-0.54281044
108	0xc0522e4c	-3.2840757
109	0x40da6948	6.8253517
110	0xbf3127c7	-0.6920132
111	0x3f0d4eee	0.5519856
112	0xbf02960d	-0.5101021
113	0x41214f25	10.081822
114	0xbf045afe	-0.51701343
115	0xbf1da335	-0.6157716
116	0xbee94023	-0.45556745
117	0x40f6723b	7.701444
118	0x40fd56c7	7.916843
119	0xc1427a9b	-12.154933
120	0x3f05d3a2	0.5227605
121	0xbf0a9507	-0.5413365
122	0xc1409a02	-12.0376
123	0x40663040	3.596695
124	0x3f06cfb9	0.5266071
125	0xbeb450b9	-0.35217836
126	0x4159f876	13.623159
127	0xbc2ca4e3	-0.010537359
128	0xc10d3227	-8.824744
129	0x3f203a8c	0.62589335
130	0xc0f595a0	-7.674515
131	0xc1106470	-9.024521
132	0xc1176922	-9.463167
133	0x3f3083a4	0.6895087
134	0x3f324212	0.69632065
135	0xbf244949	-0.64174324
136	0x41027f10	8.156021
137	0xc115fe75	-9.374623
138	0xbf2c8d30	-0.67402935
139	0x3ef97aab	0.487264
140	0x404db2c2	3.2140355
141	0xc0d8a61b	-6.7702765
142	0x3f198e89	0.59983116
143	0xbf198bcd	-0.59978944
144	0xbef1094d	-0.47077408
145	0x4110b6fc	9.044674
146	0xbf000130	-0.5000181
147	0xbf009c4a	-0.5023848
148	0xbed3b587	-0.41349432
149	0x40d7bdc9	6.741917
150	0x40dac202	6.8361826
151	0xc13271f6	-11.1528225
152	0x3f07c0b0	0.5302839
153	0xbef3cfda	-0.47619516
154	0xc133197c	-11.193722
155	0x40581bad	3.3766892
156	0x3ed603d6	0.41799802
157	0xbf07189b	-0.5277192
158	0x4157cfe2	13.488253
159	0x3d28d483	0.041218292
160	0x3ef96d77	0.48716328
161	0xc12ccf2c	-10.800579
162	0x3f0e414e	0.555684
163	0x3efbffad	0.49218503
164	0x3f280d01	0.6564484
165	0xc10f5c27	-8.959998
166	0xc10aa69e	-8.665678
167	0x41575934	13.459278
168	0xbf0d1cf0	-0.5512228
169	0x3f01ebee	0.50750625
170	0x41498e5b	12.597255
171	0xc0776900	-3.8657837
172	0xbf1a51f2	-0.6028129
173	0x3ee928c5	0.45538917
174	0xc16e8063	-14.906344
175	0xbdbd4f0b	-0.09243592
176	0xbee6684e	-0.45001453
177	0x4120c8ad	10.048993
178	0xbeea546f	-0.45767543
179	0xbefd199f	-0.4943361
180	0xbeb650b4	-0.35608447
181	0x40f4c15a	7.6486025
182	0x40f3857f	7.610046
183	0xc13fdd54	-11.991535
184	0x3f047009	0.5173345
185	0xbeccb4da	-0.3998173
186	0xc14965f3	-12.58739
187	0x4072368f	3.78458
188	0x3f10e96b	0.5660617
189	0xbef72e61	-0.48277572
190	0x4166bae8	14.420631
191	0x3d5b38dd	0.053521026
192	0x4110eeac	9.0582695
193	0xbf2d29fc	-0.6764219
194	0x4102a526	8.165319
195	0x41162c22	9.385775
196	0x411f0a72	9.94005
197	0xbf3d5686	-0.7396015
198	0xbf3cc109	-0.7373205
199	0x3f2abe2c	0.6669643
200	0xc10425f7	-8.259269
201	0x41168b1f	9.408965
202	0x3f2e389b	0.68055123
203	0xbf06228b	-0.5239646
204	0xc04f1d85	-3.2361767
205	0x40dd32e7	6.9124637
206	0xbf1fabeb	-0.623717
207	0x3f1b6575	0.60701686
208	0xc1167d1b	-9.405543
209	0x3f38a705	0.7212985
210	0xc1069d84	-8.413456
211	0xc11ff0ee	-9.996321
212	0xc124939e	-10.286039
213	0x3f43526e	0.7629765
214	0x3f316149	0.6928907
215	0xbf393e5f	-0.72360796
216	0x410b2e50	8.698807
217	0xc122240a	-10.133799
218	0xbf28b640	-0.6590309
219	0x3f041df9	0.51608235
220	0x406f11b4	3.7354555
221	0xc0e9c1ab	-7.304891
222	0x3f2fb08d	0.6862877
223	0xbf5aedbe	-0.85519016
224	0x3f730299	0.9492584
225	0xbef00077	-0.46875355
226	0x3f2b2823	0.6685812
227	0x3f544def	0.8293142
228	0x3f9f8bdd	1.2464558
229	0xbeebfe7c	-0.46092594
230	0xbeb5d413	-0.35513362
231	0x3f0ba5ae	0.5454968
232	0xbf4da7ee	-0.80334365
233	0x3f7bbb56	0.98332727
234	0x3ed29d3d	0.41135588
235	0xbf59749e	-0.8494357
236	0xbde5dd92	-0.11223902
237	0x3f133803	0.5750734
238	0xbefc7ddf	-0.49314782
239	0x3f8148e8	1.0100374
240	0x3f99dc28	1.2020311
241	0xbe8175ec	-0.2528528
242	0x3f6e4364	0.9307158
243	0x3f91f2e6	1.1402252
244	0x3faa4e88	1.3305216
245	0xbd80c2b4	-0.06287137
246	0xbe1c8a91	-0.15287234
247	0x3e677d37	0.2260636
248	0xbf9ce2de	-1.2256734
249	0x3f8c42c6	1.0957878
250	0x3e25caf9	0.16190709
251	0xbeafeeb6	-0.3436181
252	0xbf199ddb	-0.60006493
253	0x3f671089	0.90259606
254	0xbe2ce08d	-0.16882534
255	0x3fb58408	1.4180918

layers.1.bias f4 [16]
0	0xbe098989	-0.13431372
1	0x3f19d17e	0.60085285
2	0xbe4eb374	-0.20185643
3	0x3e6f8bc5	0.23393162
4	0x3f01fc20	0.5077534
5	0xbe2cb585	-0.16866119
6	0xbf0c557a	-0.54817927
7	0x3e3398ee	0.17538807
8	0x3f08fcce	0.5351075
9	0x3e2f2f99	0.17108001
10	0xbe677165	-0.2260185
11	0x3e27148d	0.16316433
12	0xbf067d03	-0.525345
13	0x3f27f0bc	0.65601707
14	0x40829564	4.080736
15	0x4072e95f	3.7954938

layers.2.weight f4 [8, 16]
0	0xbf71eaf7	-0.9449915
1	0x3ff551ae	1.9165552
2	0xbf785b3f	-0.9701423
3	0x3f6a3ac4	0.9149592
4	0x406bb5fd	3.6829827
5	0xbf65d465	-0.89777213
6	0xc03f192e	-2.9859118
7	0x3f6fc73b	0.93663377
8	0x4012f947	2.2964647
9	0x3f7f5c2c	0.9975002
10	0xbf77ec3d	-0.96844846
11	0x3f702e95	0.9382108
12	0xc01cbd80	-2.4490662
13	0x3fe54878	1.7912741
14	0xbed4ba46	-0.41548365
15	0xbf1cbeee	-0.61228836
16	0xc0531f4c	-3.2987852
17	0x3f13f7bf	0.57799906
18	0xc0847c3c	-4.1401653
19	0x3ff0e497	1.881976
20	0x3f090f03	0.5353853
21	0xc07a8c3a	-3.9148088
22	0xbf1f2f2f	-0.6218137
23	0x4044fc66	3.0779052
24	0x3ef376d9	0.4755161
25	0x4082a786	4.0829496
26	0xbfd4d949	-1.662881
27	0x40207f34	2.5077639
28	0xbf22b3eb	-0.63555783
29	0x3f01dcfe	0.5072783
30	0xbdd83c32	-0.10558356
31	0xbe0d5fb2	-0.13806036
32	0x405643b0	3.3478813
33	0xbf172dab	-0.5905406
34	0x405c82c7	3.445482
35	0xc026cdaf	-2.606304
36	0xbf4148d1	-0.75501734
37	0x404f1c43	3.2361
38	0x3f34461c	0.7041948
39	0xc0253998	-2.5816402
40	0xbf28b7be	-0.6590537
41	0xc057e51b	-3.3733585
42	0x3fe79c42	1.8094561
43	0xc005a461	-2.088158
44	0x3f48e68b	0.7847678
45	0xbf07dd85	-0.53072387
46	0x3d51f365	0.05125751
47	0x3e183fb0	0.14868045
48	0xbf8b9dc5	-1.0907522
49	0x404d1758	3.2045498
50	0xbf89a3fc	-1.0753169
51	0x3f831d86	1.0243385
52	0x3fc3ba54	1.5291238
53	0xbf64c959	-0.8936973
54	0xbfe89262	-1.8169672
55	0x3f82b801	1.0212404
56	0x403cf6ec	2.952571
57	0x3f9067c3	1.1281666
58	0xbf8cd345	-1.1001974
59	0x3f91dd5e	1.1395681
60	0xc03f732a	-2.991404
61	0x3fbcbcca	1.4745114
62	0xbf01da59	-0.507238
63	0xbf152d7b	-0.5827252
64	0x406a5177	3.6612222
65	0xbf3280ed	-0.69727975
66	0x408a14d7	4.315044
67	0xbfeeae39	-1.8646919
68	0xbf25559d	-0.6458376
69	0x40820970	4.063652
70	0x3f2e4630	0.6807585
71	0xc039f539	-2.9055922
72	0xbf093314	-0.53593564
73	0xc088cf71	-4.2753224
74	0x3fb5e12f	1.4209346
75	0xc0247383	-2.5695503
76	0x3f2f7b65	0.6854766
77	0xbf142bcb	-0.5787932
78	0x3e396f29	0.1810881
79	0x3e129ce4	0.14317662
80	0xbf85bed1	-1.0448858
81	0x3eff8674	0.49907267
82	0xbf603117	-0.87574905
83	0x3f6d0696	0.92588174
84	0x3f2a6e3a	0.6657444
85	0xbf805d53	-1.002848
86	0xbf171fb7	-0.5903277
87	0x3f81b4f2	1.0133345
88	0x3f2004be	0.62507236
89	0x3f903b52	1.1268103
90	0xbf71afc5	-0.9440883
91	0x3f6ceda2	0.925501
92	0xbf18addc	-0.5964029
93	0x3f0ac28f	0.5420312
94	0xbe5f2892	-0.2179282
95	0xbe68bfde	-0.22729442
96	0x3f8bbdc4	1.0917287
97	0xc0235742	-2.5522008
98	0x3f7d5380	0.98955536
99	0xbf696ffa	-0.9118649
100	0xc0242432	-2.5647092
101	0x3f7a5cd0	0.9779787
102	0x401c1bdd	2.4392006
103	0xbf74d992	-0.95644486
104	0xc02e1ea2	-2.7206197
105	0xbf89034f	-1.0704135
106	0x3f81ef3a	1.0151131
107	0xbf86c773	-1.0529617
108	0x403b6b36	2.9284186
109	0xbfdc8c24	-1.7230268
110	0x3eb66617	0.35624763
111	0x3f21346b	0.6297061
112	0x3cacb0e9	0.021080451
113	0xbc85bf6f	-0.016326634
114	0x3cb32eec	0.02187296
115	0xbcc964c2	-0.024584178
116	0xbc7203e2	-0.014771434
117	0x3c9f014f	0.019409804
118	0x3c8a9d7f	0.016920803
119	0xbccff899	-0.025387095
120	0xbcaec45e	-0.02133387
121	0xbcb6bad6	-0.022305887
122	0x3c873f2a	0.016509611
123	0xbcca72cd	-0.024712944
124	0x3c879442	0.016550187
125	0xbc763cfe	-0.01502919
126	0xbdb0ca06	-0.08632283
127	0xbdb3720e	-0.087619886

layers.2.bias f4 [8]
0	0x3f0eebbc	0.5582845
1	0xbe4a1d1a	-0.19737664
2	0x3e9c92b6	0.30580682
3	0x3f53c6e7	0.82725376
4	0x3ea611ec	0.32435548
5	0xbe5feb1e	-0.21867034
6	0xbf06024c	-0.52347255
7	0x3ea41215	0.32045045

output.weight f4 [1, 8]
0	0xbe007a7f	-0.12546729
1	0xbdef3225	-0.11679486
2	0x3ddb1eb5	0.10699216
3	0xbdf6666f	-0.120312564
4	0x3dee5d75	0.11638919
5	0xbe014ce0	-0.12626982
6	0x3dea0298	0.11426276
7	0x3fb6b49a	1.4273865
