vanilla_gan/19-02-26_22-37/generator.pt (torch_old, 5891 bytes, 7 tensors)

layers.0.weight f4 [16, 1]
0	0xbf27884c	-0.6544235
1	0x3e141931	0.14462735
2	0x3f4c3439	0.79767185
3	0xbf80993c	-1.0046763
4	0x3f20aa82	0.62760174
5	0x3f5bf8fd	0.859268
6	0x3eb0e54c	0.3454994
7	0x3f39e422	0.7261373
8	0xbf3493b5	-0.70537883
9	0x3f0eb438	0.5574374
10	0xbf7cd7aa	-0.9876658
11	0xbf67add6	-0.9049963
12	0xbf20148d	-0.6253136
13	0x3f1d11fa	0.61355555
14	0x3f4e2aca	0.8053404
15	0x3f83feee	1.0312173

layers.0.bias f4 [16]
0	0x3f846899	1.0344421
1	0x3f205a3b	0.6263768
2	0x3f1ac48f	0.60456175
3	0x3e7b2c36	0.24528584
4	0x3eb18646	0.34672755
5	0x3d975c08	0.073906004
6	0x3ec90440	0.39261055
7	0x3e4fe2f1	0.20301415
8	0x3f80c960	1.0061455
9	0x3d137cbe	0.036007635
10	0xbe31ab30	-0.17350459
11	0xbef3239c	-0.47488105
12	0x3f91db40	1.1395035
13	0x3fe64708	1.7990427
14	0xbf4f504b	-0.8098189
15	0xbc565135	-0.013080885

layers.1.weight f4 [32, 16]
0	0xbe110958	-0.1416372
1	0x3e38c1d6	0.18042693
2	0xbc44e19c	-0.01201668
3	0xbc9c76e4	-0.01909966
4	0xbdd8a4cc	-0.105783075
5	0x3e29b95d	0.16574617
6	0x3daa1682	0.08305074
7	0x3dd890aa	0.105744675
8	0xbd584216	-0.0527974
9	0x3e693f57	0.22778068
10	0x3e4dbdd6	0.20091948
11	0x3e443f00	0.19164658
12	0x3e6b8e37	0.2300347
13	0x3ed5970e	0.41716808
14	0x3d7acb58	0.06122908
15	0xbdca3cf6	-0.098749086
16	0x3dbe1b64	0.09282568
17	0x3e1fd4fa	0.15608588
18	0x3e6c492f	0.23074792
19	0xbe9f4afc	-0.31111896
20	0xbe864889	-0.26227215
21	0x3dc62bd3	0.096763276
22	0x3e5d1777	0.21590982
23	0x3eb8346a	0.3597749
24	0xbddcc741	-0.10780192
25	0x3e9fee07	0.31236288
26	0x3e378842	0.17923072
27	0xbdb222c4	-0.08698037
28	0x3e3ebb57	0.18626152
29	0xbe8d4d39	-0.2759798
30	0xbd467f6b	-0.04846136
31	0xbd683f56	-0.056701027
32	0x3ea15018	0.3150642
33	0xbdb2ccd6	-0.087304756
34	0x3ea25723	0.31707105
35	0x3e81cf07	0.25353262
36	0x3ebc26d9	0.36748388
37	0x3ed1605b	0.40893826
38	0xbdd412df	-0.10355162
39	0x3cdc3512	0.026880775
40	0xbd4ce293	-0.050020766
41	0x3c7d39d9	0.0154556865
42	0x3e73129c	0.23737568
43	0x3e2dc95e	0.16971347
44	0xbe85933b	-0.2608889
45	0x3f05ce2e	0.5226773
46	0xbe718e54	-0.2358945
47	0xbd8e559d	-0.06949923
48	0x3d91da0e	0.07121669
49	0xbc81d70e	-0.015849616
50	0xbda45ce5	-0.08025531
51	0x3e9212f3	0.28530082
52	0x3ddc6a25	0.10762433
53	0x3ec4979c	0.3839692
54	0x3e71e758	0.23623407
55	0xbbf3152b	-0.007418295
56	0x3e9533d5	0.29141107
57	0x3e184729	0.14870895
58	0xbe72dc56	-0.23716864
59	0x3c7426a0	0.014901787
60	0x3dc70b52	0.09718956
61	0xbf0c786b	-0.54871243
62	0x3ca9bf15	0.020720998
63	0x3ec96260	0.39332867
64	0x3d9b94d1	0.07596744
65	0x3dd3d9fe	0.10344313
66	0xbe6bcca7	-0.23027287
67	0x3c59f7a2	0.013303669
68	0xbe3d6e13	-0.18499021
69	0xbd9669a3	-0.07344367
70	0xbd939cc0	-0.07207632
71	0x3d58196f	0.05275863
72	0x3e155b10	0.14585519
73	0xbe6dc297	-0.23218761
74	0xbc7027c0	-0.014657915
75	0x3df4c424	0.11951473
76	0xbd8ed9ce	-0.06975137
77	0x3ef444ef	0.47708842
78	0xbe6f3216	-0.2335895
79	0xbde642fc	-0.11243245
80	0x3e04bfe4	0.12963825
81	0xbd9384c3	-0.07203057
82	0x3ecf9f28	0.40551114
83	0x3e631654	0.22176486
84	0x3eee3cca	0.46530753
85	0x3e2e489a	0.17019883
86	0xbe8f930c	-0.28041875
87	0x3ade11ce	0.0016942562
88	0xbd2e9748	-0.04262474
89	0x3e48d4bc	0.19612402
90	0xbe4409e0	-0.19144392
91	0x3c28ca40	0.010302126
92	0x3d9ae252	0.075626984
93	0x3f114c1a	0.56756747
94	0xbe3a8d3e	-0.18217942
95	0x3e7b7152	0.24554947
96	0x3e28ebda	0.1649622
97	0x3e08665e	0.133203
98	0xbdc899d2	-0.09794964
99	0x3e95bd40	0.2924595
100	0x3e80a3e7	0.25125048
101	0x3e85e741	0.26152995
102	0xbbba3a2a	-0.005683203
103	0xbba0c17c	-0.0049058776
104	0xbe29a62f	-0.165673
105	0x3e00731e	0.12543914
106	0x3e7095d0	0.23494649
107	0x3d8b7a34	0.06810418
108	0xbe884612	-0.2661596
109	0x3ec1c263	0.37843618
110	0xbdcb6243	-0.09930851
111	0x3bbe1abf	0.005801528
112	0x3bafe484	0.0053678174
113	0x3e1ea873	0.15493946
114	0xbde377b7	-0.11106818
115	0x3e1d6fb5	0.15374644
116	0xbd281939	-0.04103968
117	0x3d82aa2b	0.06380113
118	0xbe112f09	-0.14178099
119	0xbe17fb7b	-0.14842026
120	0x3e229528	0.15877211
121	0xbe2072a2	-0.15668729
122	0x3e44eb4c	0.19230384
123	0xbda77eb0	-0.081784606
124	0x3e169a42	0.14707282
125	0x3f108441	0.56451803
126	0x3e0c865d	0.1372313
127	0x3dd46665	0.10371093
128	0x3d1686eb	0.03674976
129	0xbbd16bb8	-0.006391015
130	0x3c4b2f35	0.012401392
131	0x3e16b4ff	0.14717482
132	0xbd9ef32d	-0.07761226
133	0xbda378a0	-0.07981992
134	0xbcf9e91b	-0.030506661
135	0xbd5efb76	-0.05443903
136	0x3e055737	0.13021551
137	0x3e024f07	0.12725459
138	0x3d41f5a8	0.047353417
139	0xbe06ccfc	-0.13164133
140	0x3d88d542	0.06681301
141	0x3f172a89	0.5904928
142	0x3e4ca54e	0.19984934
143	0x3d3cd993	0.046105932
144	0xbc870288	-0.0164807
145	0xbe14376c	-0.14474267
146	0x3c979c35	0.018507103
147	0x3e5dde5e	0.21666858
148	0x3ce5a325	0.028031895
149	0xbcb84e96	-0.02249841
150	0xbd24bef7	-0.04022118
151	0x3e6c9804	0.23104864
152	0xbe4e61b5	-0.2015446
153	0x3e326a22	0.17423299
154	0xbdc4d3e8	-0.096107304
155	0x3d5176a0	0.05113852
156	0xbe8495d8	-0.25895572
157	0x3efa6500	0.48905182
158	0x3df1365d	0.11777947
159	0xbd594c5c	-0.053051338
160	0x3e15dfff	0.14636229
161	0xbba7cd31	-0.0051208963
162	0xbdf8c603	-0.12147143
163	0x3e1d1f92	0.15344074
164	0xbdc80bd4	-0.09767881
165	0xbd10f140	-0.035386324
166	0x3e933091	0.2874799
167	0x3dbe2e38	0.09286159
168	0xbe0debbc	-0.13859457
169	0x3e034b26	0.12821636
170	0x3e7c8fb2	0.2466419
171	0xbda95af0	-0.08269298
172	0x3e8786fe	0.26470178
173	0x3e21a2e9	0.15784802
174	0xbc9c3e10	-0.019072562
175	0xbe8c7088	-0.27429605
176	0xbda11ab5	-0.07866422
177	0x3a97225b	0.0011530624
178	0x3d908774	0.07057086
179	0x3e4bb911	0.19894816
180	0x3d52a06d	0.051422525
181	0x3e500197	0.20313106
182	0xbd97655a	-0.07392378
183	0xbdec3ed4	-0.11535421
184	0xbdc24e84	-0.09487632
185	0xbe479770	-0.19491363
186	0x3e26ceec	0.16289872
187	0xbe51411a	-0.2043499
188	0xbe4dc6c6	-0.20095357
189	0x3eddaf72	0.43297917
190	0x3e7c2a9e	0.24625632
191	0x3d1d9da4	0.038480416
192	0xbd723519	-0.05913267
193	0xbe417ad5	-0.18894513
194	0xbd68cd98	-0.056836694
195	0x3e80bdbc	0.25144756
196	0x3db8493e	0.08998345
197	0x3d683d6a	0.056699194
198	0xbe671554	-0.2256673
199	0x3e1147ea	0.1418759
200	0x3e11e8ec	0.14249009
201	0x3d9ba5c9	0.075999804
202	0x3e628e5c	0.22124618
203	0x3e2d134e	0.16901895
204	0xbcba99da	-0.02277844
205	0x3f007e23	0.5019247
206	0x3d80adb2	0.0628313
207	0xbe8248c3	-0.25446138
208	0x3eac8897	0.3369796
209	0xbe192672	-0.14956072
210	0x3e509190	0.20368028
211	0xbe12a01f	-0.14318894
212	0xbc8880e6	-0.016663026
213	0xbe19e7db	-0.15029852
214	0x3c5e7bd2	0.013579326
215	0x3e7c8f26	0.24663982
216	0xbd5e68aa	-0.054299034
217	0x3e3b72ae	0.18305466
218	0x3e531a82	0.2061558
219	0xbe2f96cc	-0.17147368
220	0xbe5064ce	-0.20350954
221	0x3f0b43ac	0.54400134
222	0x3e015406	0.12629709
223	0xbdea38f5	-0.11436645
224	0x3dad6345	0.084662
225	0x3f1f8de5	0.6232589
226	0x3ef363bc	0.4753703
227	0xbb4a90e3	-0.0030909113
228	0x3d95d695	0.07316319
229	0x3edb832d	0.42873517
230	0x3edef6da	0.43547708
231	0x3cb3f157	0.021965666
232	0x3e8d7e3a	0.27635366
233	0x3e6e08a1	0.23245479
234	0xbe6fe1f0	-0.23426032
235	0x3e41be52	0.18920258
236	0x3e802bdb	0.2503346
237	0xbf68886a	-0.9083315
238	0x3d1ef5fa	0.0388088
239	0x3dcac7c0	0.099013805
240	0x3c49f5a0	0.012326628
241	0x3d9c6a73	0.07637491
242	0x3d8dd75b	0.069258414
243	0x3e1895a9	0.14900841
244	0xbea8e354	-0.32985938
245	0x3c6e924e	0.014561249
246	0xbe478391	-0.19483782
247	0xbe1c51d3	-0.15265588
248	0xbd151df3	-0.036405515
249	0xbe8eb858	-0.27875018
250	0xbe04057a	-0.12892714
251	0x3e71f276	0.23627648
252	0x3e1325e5	0.14369924
253	0x3ef1f3aa	0.47256213
254	0x3e086861	0.13321067
255	0x3c9fab96	0.019490998

layers.1.bias f4 [32]
0	0xbe8f6a83	-0.2801095
1	0x3e3f1265	0.1865936
2	0xbe19adde	-0.15007731
3	0x3f218d5e	0.63106334
4	0xbdd1bfa8	-0.10241634
5	0x3e4a6429	0.1976477
6	0xbe5bbcf9	-0.21458806
7	0xbe0f7a48	-0.1401149
8	0xbeb34229	-0.35011414
9	0x3d924aff	0.071432106
10	0xbda1c5a9	-0.07899029
11	0xbe3d76f9	-0.18502416
12	0xbeb1b87d	-0.34711066
13	0xbe2267bb	-0.15859883
14	0x3eea96a4	0.45818055
15	0xbcea6052	-0.028610382
16	0xbeaf0dc0	-0.34190178
17	0xbe3bc25a	-0.18335858
18	0x3dfe4149	0.12414796
19	0xbe80202e	-0.2502455
20	0xbe08cbc0	-0.13358974
21	0x3d6f2bf6	0.058391534
22	0x3dbd16f2	0.09232892
23	0x3f1f709e	0.62281215
24	0xbe90d596	-0.28287953
25	0x3f225b9c	0.63421035
26	0x3ed50ff0	0.41613722
27	0x3efa4a55	0.48884836
28	0xbe8f08e5	-0.27936473
29	0x3f0366ac	0.5132854
30	0xbc977696	-0.018489163
31	0xbdb00a92	-0.08595766

layers.2.weight f4 [16, 32]
0	0x3eb9ac8e	0.3626446
1	0xbe89e08b	-0.26929125
2	0x3eb8736b	0.36025557
3	0xbf304c86	-0.68866765
4	0x3efca8cd	0.49347535
5	0x3ecf7e86	0.40526217
6	0x3e4e9838	0.20175254
7	0x3e9b06bc	0.30278575
8	0x3e9d4b50	0.3072152
9	0x3ecde07d	0.40210333
10	0x3d9a49e1	0.075336225
11	0x3e9930e5	0.29920116
12	0x3ea3ecf0	0.32016706
13	0x3eac04db	0.33597454
14	0xbf376c03	-0.7164919
15	0x3e23fc70	0.16014266
16	0x3e83617d	0.25660315
17	0x3e1b4b56	0.15165457
18	0xbefb1a65	-0.49043575
19	0x3f0cc23f	0.54983896
20	0x3ee9fe19	0.45701674
21	0x3e15c8a3	0.14627318
22	0x3cd55475	0.026041249
23	0xbedd8d71	-0.43271974
24	0x3ea92e3e	0.33043092
25	0xbf165787	-0.58727306
26	0xbf3ba4ab	-0.7329814
27	0xbf5ae298	-0.85502005
28	0x3ecbef17	0.3983085
29	0xbf1a5714	-0.6028912
30	0x3ec00075	0.3750035
31	0x3eb0b428	0.34512448
32	0xbe486361	-0.1956916
33	0xbdb6b188	-0.0892058
34	0xbe09f9bb	-0.13474171
35	0x3e95ff87	0.29296514
36	0x3cfa9ddc	0.030592851
37	0x3df331c3	0.11874726
38	0xbe3e90f6	-0.18609986
39	0xbe807be8	-0.25094533
40	0xbcdab442	-0.026697282
41	0xbab117f1	-0.0013511163
42	0x3cc68878	0.024234995
43	0x3d5ac73a	0.053412654
44	0xbce0f7bf	-0.027461885
45	0x3b2f0096	0.002670323
46	0x3e271f3d	0.1632051
47	0xbcd8e49b	-0.026476195
48	0x3df7ca2f	0.1209911
49	0x3cc96456	0.024583977
50	0x3ee70969	0.45124367
51	0xbc6f3254	-0.0145994015
52	0xbc64f930	-0.013975427
53	0x3dbe7d22	0.09301211
54	0x3e1d846c	0.15382546
55	0x3ecdf955	0.40229288
56	0xbdf061ab	-0.11737379
57	0x3ed259c8	0.41084123
58	0x3e2ed56b	0.170736
59	0x3f1ce50d	0.61287004
60	0xbcfac610	-0.030612022
61	0x3f00cd08	0.5031285
62	0x3d052fc7	0.032516267
63	0xbe605e8f	-0.21911071
64	0x3dbfe3a9	0.093695946
65	0xbd82d5d5	-0.063884415
66	0x3d1a2b62	0.03763903
67	0xbd924e23	-0.0714381
68	0xbc9a8af2	-0.018865082
69	0xbe313dd1	-0.17308737
70	0xbd84ce13	-0.06484618
71	0xbcadb5ec	-0.021204911
72	0xbd2e66f4	-0.042578653
73	0x3d9e56bd	0.07731388
74	0x3d1808ae	0.037117653
75	0xbe02b11f	-0.12762879
76	0xbd763194	-0.060105875
77	0x3d85e951	0.06538642
78	0xbd627368	-0.05528584
79	0xbe2516e8	-0.1612202
80	0xbdef7ecc	-0.116941065
81	0x3cd5e7b7	0.026111467
82	0xbd197083	-0.037460815
83	0x3e1fc2f6	0.15601715
84	0xbe03e8cc	-0.12881774
85	0x3e12612c	0.1429488
86	0xbdb66c59	-0.089073844
87	0xbe327ec8	-0.17431176
88	0x3c2a3bcf	0.010390236
89	0xbd57deb6	-0.052702628
90	0xbea97d0f	-0.33103225
91	0xbe8e4a82	-0.2779122
92	0xbe248e8d	-0.16070004
93	0xbe018d3a	-0.1265153
94	0x3d400031	0.046875183
95	0xbd2a3330	-0.041552722
96	0xbc6941b9	-0.014236861
97	0x3dea2309	0.11432464
98	0xbe42d5cf	-0.19026874
99	0xbe135ac9	-0.143901
100	0xbe6f0a3f	-0.23343752
101	0x3c2ba172	0.010475503
102	0xbe7bfdb2	-0.24608496
103	0x3db0ae25	0.086269654
104	0xbdc68b82	-0.09694578
105	0xbea19358	-0.31557727
106	0x3e30399f	0.1720948
107	0xbe52675f	-0.20547245
108	0xbc22c0bd	-0.009933648
109	0xbc41469d	-0.011796621
110	0x3d156a2f	0.036478218
111	0xbe987e50	-0.2978387
112	0x3e458168	0.19287646
113	0xbed9219c	-0.42408454
114	0xbd31622a	-0.043306507
115	0xbe1f2912	-0.15543011
116	0xbdfa2193	-0.12213435
117	0xbc8ffc7d	-0.01757645
118	0x3d40f3c7	0.047107484
119	0x3de77f90	0.113036275
120	0xbe01a6f4	-0.12661344
121	0xbe45a093	-0.19299535
122	0xbdee49f1	-0.11635197
123	0xbb0779f8	-0.0020672064
124	0xbcfb5176	-0.030678492
125	0x3e57793e	0.21042344
126	0x3d4763ed	0.04867928
127	0xbe30cbb7	-0.17265211
128	0xbd722caa	-0.059124626
129	0x3e420383	0.18946652
130	0x3da8c0fe	0.08239935
131	0x3eedb362	0.4642592
132	0xbe96f9fb	-0.29487595
133	0xbd8e719a	-0.069552615
134	0xbe2592a3	-0.16169219
135	0xbe928edc	-0.28624618
136	0xbc03860b	-0.008027564
137	0x3dd9b25a	0.10629721
138	0xbe43e727	-0.19131146
139	0xbe877538	-0.26456618
140	0xbd5ae521	-0.05344117
141	0xbcbe565d	-0.02323454
142	0x3dd522e2	0.10407044
143	0x3b8da192	0.004322239
144	0x3da8cee1	0.08242584
145	0xbe4ee5e6	-0.20204887
146	0x3e8c6745	0.27422538
147	0xbd9e0e3f	-0.07717561
148	0x3c8ad067	0.016945077
149	0xbd8385f0	-0.06422031
150	0x3d36bcca	0.044613637
151	0x3e41b5b9	0.18916978
152	0xbc716e1e	-0.014735727
153	0x3ecd8967	0.40143892
154	0x3d793953	0.060845684
155	0x3f2af8d4	0.6678593
156	0xbd768bf6	-0.06019207
157	0x3ebeb7ab	0.37249503
158	0x3e3aaaf9	0.18229283
159	0x3a3cb009	0.0007197862
160	0x3dfe5e8b	0.124203764
161	0xbbe08025	-0.0068512135
162	0x3d82b30e	0.06381808
163	0xbe2d73d7	-0.1693872
164	0xbd9d028f	-0.07666504
165	0x3ceb2c04	0.028707512
166	0x3d976a0f	0.07393276
167	0x3e20e0c9	0.15710749
168	0x3d51c0d1	0.051209275
169	0x3ddd0d4e	0.10793553
170	0x3e7d3a25	0.24729212
171	0x3d0c3099	0.034226034
172	0xbd53449c	-0.051579103
173	0x3d7b8c96	0.06141337
174	0xbe9821b3	-0.2971321
175	0xbbd8dfde	-0.006618484
176	0xbd277108	-0.04087928
177	0xbba8e3fa	-0.00515413
178	0xbd1565d8	-0.03647408
179	0x3d8c16d9	0.06840295
180	0x3d4d4faf	0.05012482
181	0xbdbdb586	-0.092631385
182	0x3e3c7278	0.18403041
183	0x3d2ec7ec	0.04267113
184	0x3ddd8d83	0.10818007
185	0xbe1e4988	-0.15457737
186	0xbe6cac84	-0.23112684
187	0xbe910aea	-0.2832864
188	0xbb1d9bd7	-0.0024049187
189	0xbe0a32f8	-0.13496006
190	0xbb137b76	-0.0022504008
191	0xbdddec26	-0.10836057
192	0xbe3277b3	-0.17428474
193	0xbe5afcf7	-0.21385561
194	0xbc42beca	-0.011886308
195	0x3e27a4e5	0.16371496
196	0xbdc8c80d	-0.09803782
197	0xbe051cbc	-0.12999243
198	0x3d86837d	0.06568048
199	0xbb7843a2	-0.003788211
200	0xbd8918c9	-0.066941805
201	0xbe04143c	-0.12898344
202	0x3da22f98	0.07919234
203	0xbd8bc465	-0.06824569
204	0xbe237f9f	-0.15966652
205	0xbdf3c904	-0.11903575
206	0xbe2b596b	-0.16733329
207	0xbc98fc08	-0.018674865
208	0xbdfa50a6	-0.12222414
209	0xbe9b9064	-0.303836
210	0x3e1c510d	0.15265293
211	0x3c85d217	0.01633553
212	0xbd1963a9	-0.03744856
213	0xbd1c8449	-0.038212094
214	0xbd9ff702	-0.07810785
215	0x3e13bee4	0.14428288
216	0xbd3be647	-0.045873906
217	0x3e955365	0.29165187
218	0x3d1a0074	0.03759809
219	0x3dea644f	0.114449136
220	0xbde446e4	-0.11146334
221	0x3e02351c	0.12715572
222	0x3c837145	0.016045222
223	0xbdb85e53	-0.09002366
224	0xbdbd3cd8	-0.09240121
225	0xbe507ded	-0.20360537
226	0xbe51b0a2	-0.20477536
227	0xbd817994	-0.06322017
228	0xbdc568d1	-0.09639133
229	0x3bbfb475	0.0058503696
230	0x3c6e95d7	0.014562092
231	0xbd4635d4	-0.04839118
232	0xbde07c1d	-0.10961173
233	0x3bca3cd5	0.0061718025
234	0xbdb6acb2	-0.08919658
235	0xbd761e68	-0.06008759
236	0xbbdb0679	-0.006684121
237	0xbda8cef0	-0.08242595
238	0xbdc0d0a6	-0.094147965
239	0xbe1bf382	-0.1522961
240	0xbe7e07f2	-0.24807718
241	0x3cb7e830	0.022449583
242	0xbe12387b	-0.14279358
243	0x3d288aee	0.04114812
244	0x3aa61c2f	0.0012673194
245	0xbe5a0d03	-0.21294026
246	0xbda9f391	-0.0829841
247	0xbd6d10cc	-0.057877347
248	0xbcc067ce	-0.023486998
249	0x3dccd34b	0.100012384
250	0xbe831780	-0.25603867
251	0xbdb80724	-0.08985737
252	0xbe802f87	-0.2503626
253	0xbdb55c86	-0.08855538
254	0xbe15fc3d	-0.14647003
255	0x3acf34eb	0.0015808617

layers.2.bias f4 [16]
0	0xbe4f3d71	-0.20238282
1	0xbc8c7067	-0.017143441
2	0x3da24e66	0.079251096
3	0xbdd42d66	-0.103602216
4	0x3d7bd194	0.061479166
5	0x3d5036ed	0.05083363
6	0xbd073227	-0.033006813
7	0xbe22fa3b	-0.15915768
8	0x3edf29a7	0.43586466
9	0x3e2a26e4	0.16616398
10	0x3d9cab8c	0.076499075
11	0xbe8f7e7d	-0.2802619
12	0xbdccded4	-0.100034386
13	0x3e86028b	0.26173815
14	0xbdf70fbd	-0.12063549
15	0x3d3d36d0	0.04619485

output.weight f4 [1, 16]
0	0x3f5b1a37	0.85586876
1	0xbeca1480	-0.39468765
2	0x3caa6805	0.020801554
3	0xbdc57a4f	-0.09642469
4	0xbee8be06	-0.45457476
5	0x3db5089b	0.08839532
6	0xbe7033c4	-0.23457247
7	0xbca67e6e	-0.020323958
8	0xbeea002b	-0.45703253
9	0xbe62f036	-0.22161946
10	0x3d8edf6b	0.06976207
11	0x3c461d00	0.012091875
12	0x3d6d99ca	0.058007993
13	0xbeb4c85f	-0.3530912
14	0xbdd810f7	-0.10550111
15	0x3d9294f6	0.07157318
