vanilla_gan/19-02-22_14-06/discriminator.pt (torch_old, 1835 bytes, 5 tensors)

layers.0.weight f4 [16, 1]
000000 78 0d 2f bf 74 29 6f 3e 50 27 89 be ca 0a 83 bf
       -0.68379927 0.23355657 -0.26787806 -1.0237668
000010 fd 7d 09 bf b9 45 94 be 00 86 20 3f d8 14 41 3f
       -0.5370787 -0.28959444 0.6270447 0.7542243
000020 9f 76 14 3f 95 d2 34 3e 77 44 62 3f d5 fa 96 be
       0.579935 0.17658456 0.8838572 -0.29488245
000030 c6 a8 4e be f8 3d 1f 3e d7 00 98 be 85 72 2a 3e
       -0.2018157 0.15550983 -0.2968814 0.16645248

layers.0.bias f4 [16]
000000 2a 57 0c 3f 45 df ad bf 1e e1 2d bf fa 70 53 bf
       0.548205 -1.3583761 -0.67921627 -0.82594264
000010 d1 d1 dc 3e 9d b4 b2 3f e4 7d 00 bf 4c 39 18 bf
       0.43128827 1.3961369 -0.50192094 -0.5946243
000020 4f 56 e9 be bb 8e 83 bf 91 c9 4f bf 02 57 b4 3f
       -0.4557366 -1.0277933 -0.8116694 1.4089053
000030 d4 73 7a 3f 2f a9 67 bf cf 1e b7 3f 41 54 78 bf
       0.9783299 -0.9049253 1.4306277 -0.9700356

layers.1.weight f4 [8, 16]
000000 cf a7 f4 3f 40 fd 52 40 e6 43 68 be 5e c0 e2 3c
       1.9113711 3.2967072 -0.22682151 0.027679618
000010 52 c7 82 3f 1c 7d eb bf ce 66 0b ba 48 04 d2 b9
       1.0217078 -1.8397555 -0.00053177483 -0.0004005751
000020 9b 72 ca b8 19 c0 4d 40 ae e6 2a ba a8 53 ca bf
       -9.6534575e-05 3.2148497 -0.00065193593 -1.580678
000030 67 38 e7 bf c7 9e 62 40 29 98 df bf 12 e9 64 40
       -1.8064088 3.540941 -1.746831 3.5767255
000040 a4 a7 cb bf 1f 8e 9d bf 60 4d e2 3d d6 51 92 be
       -1.5910535 -1.2308997 0.11049914 -0.2857806
000050 26 89 e5 bf 40 7e 04 bf 46 a2 54 be 3a 58 1c be
       -1.7932479 -0.5175514 -0.20765027 -0.15268031
000060 fd c8 88 3c a6 55 94 bf 5c 4f 39 be a1 91 06 bf
       0.016697401 -1.1588638 -0.1809668 -0.5256596
000070 f1 e0 31 bf 60 ad b4 bf 43 93 ff be 64 6e c6 bf
       -0.6948386 -1.411541 -0.4991704 -1.5502439
000080 a5 86 7b be f4 79 42 40 4a 1d 40 3e 94 b4 55 3e
       -0.24563082 3.0386934 0.18761173 0.20869666
000090 60 31 2f bf 7b 76 be bf e3 b3 ad b9 f3 22 61 ba
       -0.68434715 -1.4879907 -0.00033131157 -0.00085882767
0000a0 6e ec 0f b8 93 aa 46 40 f6 ae 1b ba a7 4f b4 bf
       -3.431405e-05 3.104161 -0.0005938852 -1.4086808
0000b0 2e 47 cc bf e9 bb 56 40 22 a3 cd bf 3b 1f 4a 40
       -1.5959222 3.3552191 -1.6065409 3.1581562
0000c0 24 ca e6 3f f1 31 4f 40 a0 f7 7e bd d7 dd 0f 3e
       1.8030438 3.2374232 -0.062247872 0.14049469
0000d0 9f fd 6f be 62 e4 d8 bf 80 5d 89 ba 80 e5 73 b8
       -0.23436593 -1.6944697 -0.0010480136 -5.8149453e-05
0000e0 04 84 3e ba a1 ec 53 40 47 f1 cd b8 f2 ed c7 bf
       -0.00072675967 3.3113177 -9.820103e-05 -1.561949
0000f0 3e cf cb bf 6e 68 60 40 15 c7 db bf f3 84 56 40
       -1.592262 3.506374 -1.717013 3.3518646
000100 53 52 90 40 e0 a0 51 3f a2 55 63 be 8a 04 a4 3e
       4.5100493 0.818861 -0.22200635 0.32034713
000110 94 c0 7e 40 8b dc b9 3a f2 75 87 bf 84 48 a0 bf
       3.980504 0.0014180107 -1.0582869 -1.252213
000120 39 9e 10 c0 29 b5 a3 3f cf 1c d6 bf 5d e7 00 3b
       -2.2596571 1.2789661 -1.6727542 0.0019669153
000130 e8 1d 54 3b 4f d6 8d 3f d4 ed ad b9 60 c7 55 3f
       0.0032366458 1.1081027 -0.00033174327 0.8350735
000140 2f 5b b1 bf 7e 21 c4 bf 78 df 7f be 2c 47 46 3e
       -1.3855952 -1.5322721 -0.2498759 0.19363087
000150 d2 60 d0 bf 9f a2 3b bf 0a 98 3b be 50 c8 16 be
       -1.6279547 -0.73295015 -0.18319717 -0.1472485
000160 f9 a7 e5 3c 91 39 c5 bf d6 ca 31 3d e9 d5 42 bf
       0.028034197 -1.5408193 0.04340633 -0.7610765
000170 14 84 80 bf f0 64 d0 bf 60 93 2f bf 34 3b e7 bf
       -1.0040307 -1.6280804 -0.6858425 -1.8064942
000180 1a 2a b4 bd 43 92 49 40 0c 7e 2c 3e 09 44 20 3e
       -0.08797093 3.149552 0.16844958 0.15650953
000190 6a b3 51 bf ea 45 aa bf 03 74 c2 b9 6a 56 dd b9
       -0.8191439 -1.3302586 -0.00037089 -0.00042216788
0001a0 7b 5d 3b 3a 4a 65 3e 40 1f 30 cb b8 16 57 b2 bf
       0.00071474136 2.9749322 -9.6887576e-05 -1.3932827
0001b0 80 99 d6 bf 7b dd 46 40 5a 32 ac bf 57 11 4c 40
       -1.6765594 3.107268 -1.3452866 3.1885583
0001c0 1f c4 e4 3f f3 c6 43 40 2c 6b 2a 3e ae ee 78 3e
       1.7872351 3.059018 0.16642445 0.24309799
0001d0 8b 31 21 3f 40 05 f1 bf c4 f3 c7 ba 9d db 21 ba
       0.6296622 -1.8829727 -0.0015255143 -0.00061743875
0001e0 a9 fa d7 39 39 0e 4e 40 e5 2b 27 ba 1f df b8 bf
       0.00041194752 3.219618 -0.0006377085 -1.4443091
0001f0 2e de e6 bf 49 5d 5b 40 2f b6 f6 bf bc d6 60 40
       -1.8036554 3.4275687 -1.9274348 3.5131063

layers.1.bias f4 [8]
000000 93 3b a7 bb 84 63 a2 3e 60 c5 35 bc ba 17 0a bc
       -0.0051035373 0.3171655 -0.011094421 -0.008428508
000010 20 07 05 3c d9 81 5b 3e 9c cf 16 bc 88 9d a2 bb
       0.0081193745 0.21436252 -0.009204771 -0.004962627

output.weight f4 [1, 8]
000000 e2 51 82 40 2c 2a 83 bf bf d0 91 40 91 3b 84 40
       4.0724955 -1.0247245 4.5567317 4.1322713
000010 b8 83 6d 40 ce 55 84 bf 2d d4 92 40 5a a3 85 40
       3.7111645 -1.0338686 4.5884004 4.1761904
