vanilla_gan/19-02-22_14-06/generator.pt (torch_old, 2544 bytes, 7 tensors)

layers.0.weight f4 [8, 1]
0	0x3fb02218	1.3760405
1	0x3ef939c4	0.48676884
2	0x3fb19146	1.3872459
3	0x3fb066da	1.3781388
4	0x3f6d1234	0.926059
5	0x3f47c8f8	0.7804103
6	0x3edf0aec	0.4356302
7	0x3f9da388	1.2315531

layers.0.bias f4 [8]
0	0x3f099c25	0.5375388
1	0x3a8eebc8	0.0010904009
2	0x3f42810b	0.75978154
3	0x3f092f12	0.5358745
4	0x3d917a86	0.071034476
5	0x39f3722f	0.00046433645
6	0xbf79f9ce	-0.97646797
7	0x3eaf2b71	0.3421283

layers.1.weight f4 [16, 8]
0	0x3eb47162	0.35242754
1	0x3e070619	0.1318592
2	0x3daeed12	0.08541311
3	0x3e7d0066	0.24707183
4	0x3edebe82	0.4350472
5	0x3d596d2f	0.05308264
6	0xbbac6080	-0.005260527
7	0x3ecf1c18	0.4045112
8	0x3d12b4da	0.035817005
9	0x3e6379ca	0.22214428
10	0x3e5f29c6	0.21793279
11	0x3f04981a	0.5179459
12	0x3e993d38	0.2992952
13	0x3f17a32d	0.5923336
14	0x3e40d346	0.18830594
15	0x3e8b2de2	0.27183443
16	0xbeaec63a	-0.3413561
17	0x3dde3764	0.10850409
18	0x3e832005	0.25610366
19	0xbe25c26e	-0.1618745
20	0xbe80b7be	-0.25140184
21	0x3e8eeba8	0.27914166
22	0xbeab17ca	-0.33416587
23	0x3e77cf88	0.2420026
24	0xbea32fb6	-0.31872338
25	0xbe218e2d	-0.15776892
26	0x3d9811be	0.07425259
27	0xbe77ebce	-0.24211046
28	0xbeaa201d	-0.33227625
29	0x3d0f6dc3	0.035016786
30	0x3da49dbc	0.08037898
31	0x3ea0ce50	0.31407404
32	0xbe2ad732	-0.16683653
33	0xbe9b0461	-0.30276778
34	0xbdb8087c	-0.08985993
35	0xbea8c8a6	-0.32965583
36	0x3dd23c98	0.102654636
37	0xbe7fdc5c	-0.24986404
38	0xbe939a70	-0.28828764
39	0x3e48cc56	0.19609198
40	0x3e875537	0.264322
41	0xba241e00	-0.0006260574
42	0xbe99fc12	-0.30075127
43	0xbe584933	-0.21121673
44	0xbcf7ec20	-0.03026396
45	0xbe02e8c9	-0.12784113
46	0x3d747ac8	0.059687406
47	0xbea9deda	-0.33177835
48	0xbdef3df2	-0.11681737
49	0x3e732e6a	0.23748174
50	0x3e81fafd	0.253868
51	0x3e231e76	0.15929589
52	0xbe76d5bf	-0.24104975
53	0x3cfe0f10	0.031013042
54	0x3e9c679b	0.30547795
55	0xbe757c1d	-0.23973127
56	0x3e8d605e	0.27612585
57	0x3ed115e8	0.40837026
58	0x3ebf9ed2	0.37425858
59	0x3ddd6bb4	0.10811558
60	0x3e2843bd	0.1643209
61	0x3f16d53e	0.5891913
62	0x3e8e2bf3	0.27767906
63	0x3e8966bc	0.26836193
64	0x3f06890c	0.52552867
65	0x3f1760e6	0.5913223
66	0x3c99d173	0.018776631
67	0x3e8ce4fe	0.27518457
68	0x3ea61a4d	0.3244194
69	0x3f313a2f	0.69229406
70	0xbe974c8d	-0.2955059
71	0x3eb680d2	0.35645157
72	0x3ec14f96	0.37756032
73	0x3e2e3075	0.17010672
74	0x3e6b832e	0.2299926
75	0xbc86758e	-0.016413476
76	0x3e57795b	0.21042387
77	0x3e4664fc	0.1937446
78	0x3e160dea	0.14653745
79	0x3e1297e5	0.14315756
80	0xbd22d8f0	-0.03975767
81	0x3e27a872	0.1637285
82	0xbe6aed85	-0.22942169
83	0x3ea27287	0.31728002
84	0x3eae23b3	0.3401161
85	0xbe1633dc	-0.1466822
86	0xbe365f4d	-0.17809792
87	0xbe6f1986	-0.2334958
88	0x3e928e14	0.28624022
89	0x3eec117a	0.46107084
90	0x3ea8dff0	0.3298335
91	0x3e1f237e	0.15540883
92	0x3d19d635	0.0375578
93	0x3ebe4dae	0.3716864
94	0x3e4bf632	0.19918135
95	0x3ef45fe0	0.47729397
96	0xbdda6146	-0.10663085
97	0xbd5362a0	-0.051607728
98	0x3e823497	0.25430748
99	0xbe2fae73	-0.17156391
100	0xbe332740	-0.17495441
101	0x3e232ee0	0.1593585
102	0x3e6bd5da	0.23030797
103	0x3e6bbe9e	0.23021933
104	0xbe0e34fc	-0.138874
105	0x3e8dffb5	0.2773415
106	0xbe3184d9	-0.17335834
107	0xbe3abf66	-0.18237075
108	0xbeb14e7e	-0.34630197
109	0xbe177e8b	-0.14794366
110	0xbe938b18	-0.28817058
111	0x3e62af0e	0.2213709
112	0xbe93366e	-0.28752464
113	0xbe7e433c	-0.24830335
114	0xbe3bdbf7	-0.18345629
115	0xbe055c0e	-0.13023397
116	0x3cee5880	0.029094934
117	0xbd6e12e8	-0.0581235
118	0x3e06bb72	0.13157442
119	0xbe8e87ad	-0.27837887
120	0xbc13cf24	-0.009021554
121	0x3e18ce65	0.14922483
122	0x3dc5f27a	0.09665389
123	0x3daaf620	0.08347726
124	0x3d8eaa77	0.06966107
125	0x3e8304d4	0.2558962
126	0xbea23e8d	-0.31688347
127	0xbe80d996	-0.25166005

layers.1.bias f4 [16]
0	0x3e6e321e	0.23261306
1	0xbece267d	-0.4026374
2	0xbc798080	-0.015228391
3	0x3e207d19	0.15672721
4	0xbe7fda56	-0.24985632
5	0xbe735e1e	-0.23766372
6	0xbe7ff201	-0.24994661
7	0xbe9558dd	-0.2916936
8	0xbdc1f437	-0.094704084
9	0x3d83df1a	0.064390376
10	0xbea1a83e	-0.3157367
11	0x3e4ec97e	0.2019405
12	0xbe9dcc81	-0.30820087
13	0x3d19d5c0	0.037557364
14	0x3e08e0ee	0.13367054
15	0xbea3314c	-0.31873548

layers.2.weight f4 [8, 16]
0	0x3de28174	0.110598475
1	0x3db8ef98	0.09030074
2	0xbd3c1060	-0.045914054
3	0x3b5fb700	0.0034136176
4	0xbe4f16fe	-0.20223615
5	0xbdedfe28	-0.11620742
6	0xbe2ce3f0	-0.16883826
7	0xbe02d91c	-0.12778133
8	0x3bbeb380	0.005819738
9	0xbd0db2c0	-0.034594297
10	0xbe3e164c	-0.18563193
11	0xbd846c74	-0.06465998
12	0xbe6031b4	-0.2189396
13	0x3e15e20c	0.14637011
14	0x3d58e858	0.052955955
15	0x3dd687f8	0.10475153
16	0xbdaf740e	-0.085670575
17	0x3e6d105b	0.2315077
18	0xbe1647ab	-0.14675777
19	0xbe0a2e40	-0.13494205
20	0x3e5dad92	0.21648243
21	0xbe0c426c	-0.13697213
22	0xbe36a35e	-0.17835757
23	0x3ecb682d	0.39727917
24	0x3ed6d09c	0.4195603
25	0x3de2ee5d	0.110806204
26	0x3d6b6a80	0.057474613
27	0x3ebc74b8	0.368078
28	0xbe543e12	-0.20726803
29	0x3e11b8d8	0.14230669
30	0xbdb582c4	-0.08862832
31	0xbe11980d	-0.14218159
32	0xbde30a3c	-0.110859364
33	0xbe571090	-0.21002412
34	0x3e47171e	0.19442412
35	0x3aaa4b00	0.0012992322
36	0xbd397c00	-0.04528427
37	0xbe6eb21c	-0.23310131
38	0x3d0e5b20	0.034754872
39	0x3d307920	0.043084264
40	0x3e71ceea	0.23614088
41	0x3daffdb8	0.08593315
42	0xbe53fb6a	-0.20701376
43	0xbc8965c0	-0.016772151
44	0xbcf34730	-0.02969703
45	0x3e0f9416	0.14021334
46	0x3e2dc79a	0.16970673
47	0x3d671ee8	0.05642596
48	0x3e8a03ac	0.26955926
49	0x3f0a0f79	0.5392986
50	0xbde6e902	-0.112749115
51	0x3d4dd443	0.050251257
52	0x3ca69620	0.020335257
53	0x3db1be38	0.086788595
54	0x3e49168c	0.19637507
55	0x3ed7cd60	0.42148876
56	0x3edd251a	0.4319237
57	0x3ed742bc	0.42043102
58	0x3c93f690	0.018061906
59	0x3eb636c3	0.35588655
60	0xbdcf76d8	-0.101300895
61	0xbe61c180	-0.2204647
62	0x3e13e28e	0.14441893
63	0xbdd42bf3	-0.10359945
64	0xbd9266c0	-0.07148504
65	0x3d5ad7f0	0.05342859
66	0xbd0f00d5	-0.034912903
67	0x3d4f15d0	0.05055791
68	0xbe309024	-0.17242485
69	0x3da59680	0.08085346
70	0xbe4eb912	-0.20187786
71	0xbde229b1	-0.11043108
72	0xbe2cc7fb	-0.16873161
73	0xbdf178ba	-0.11790605
74	0xbdfc48ac	-0.123185486
75	0xbe3ad4c8	-0.18245232
76	0xbd72b2f5	-0.059252698
77	0xbd4a6758	-0.049414963
78	0xbdf0eff8	-0.117645204
79	0x3df67fb8	0.12036079
80	0xbe1c886e	-0.15286419
81	0x3de8f02c	0.11373934
82	0x3e74821a	0.23877755
83	0x3e2cfc44	0.16893107
84	0x3dc84b60	0.09780002
85	0xbdbae36c	-0.091254085
86	0x3da79894	0.08183399
87	0x3e61b6ec	0.22042435
88	0xbe5e5d20	-0.21715212
89	0xbe390c04	-0.1807099
90	0xbd6e4608	-0.058172256
91	0xbe4b9f68	-0.19885027
92	0xbe44fc9c	-0.19236988
93	0x3d27f1a8	0.041001946
94	0x3e0cea0e	0.1376116
95	0xbe5288a6	-0.2055994
96	0xbd877a21	-0.06615091
97	0x3e215970	0.15756774
98	0x3e3ed48a	0.18635765
99	0x3d84aa7c	0.0647783
100	0x3c86cd60	0.016455352
101	0xbe1f9f04	-0.15588003
102	0x3c9d8bd0	0.019231707
103	0x3d837593	0.0641891
104	0xbd2c7fe4	-0.042114154
105	0xbdee978a	-0.116499975
106	0x3e42895e	0.18997714
107	0x3d7d919c	0.061906442
108	0xbdad969a	-0.084759906
109	0xbe1be3ac	-0.15223569
110	0xbcf4d170	-0.029885024
111	0xbe163455	-0.146684
112	0x3d3b16ee	0.045676164
113	0x3e45c5ec	0.19313782
114	0xbdf21ce3	-0.11821916
115	0x3e0afcac	0.13572949
116	0x3e796000	0.24353027
117	0x3ccb52e0	0.024819791
118	0xbe2ce08c	-0.16882533
119	0x3eb4d5db	0.3531941
120	0x3e3591e6	0.17731437
121	0x3d7ce784	0.061744228
122	0x3c77d5a0	0.015126616
123	0x3e486704	0.19570547
124	0x3d357091	0.044296805
125	0x3e1c4148	0.15259278
126	0xbe029af8	-0.12754428
127	0xbe5cbdac	-0.21556729

layers.2.bias f4 [8]
0	0xbd5633b0	-0.052295387
1	0xbe9ef4c2	-0.3104611
2	0xbe4ad256	-0.198068
3	0xbded0e17	-0.11574953
4	0x3e6ba274	0.2301119
5	0x3dffa0ac	0.124818176
6	0xbe456a2e	-0.19278786
7	0x3dea7a41	0.11449099

output.weight f4 [1, 8]
0	0xbe9c5bd8	-0.3053882
1	0x3e8f9008	0.28039575
2	0x3e018124	0.1264692
3	0x3f0dc1f8	0.553741
4	0xbe9f9128	-0.31165433
5	0x3dbd223c	0.09235045
6	0xbe8ead15	-0.27866426
7	0x3f07ee75	0.5309823
