vanilla_gan/19-02-23_23-27/discriminator.pt (torch_old, 3224 bytes, 7 tensors)

layers.0.weight f4 [16, 1]
00000000: 7f54 d13e fe54 893e f530 09be 3c3d a13e
00000010: 028b a0be 0712 65be 616c 5ebe 1955 d83e
00000020: 6b72 94be f3c9 c2bd 5185 453e ba54 5cbe
00000030: 7f1b 9a3d dfe3 79be d586 48be 497c 873e
0.40884778 0.26822656 -0.13397582 0.3149203 -0.31356055 -0.22370158 -0.21721031 0.42252424
-0.28993544 -0.09511175 0.19289137 -0.21516696 0.07524776 -0.24403332 -0.19582684 0.2646201

layers.0.bias f4 [16]
00000000: 25ba f7bf 3baa a4bf 30e7 1f3f 35aa babf
00000010: bd1c bd3f 7f35 8a3f 844a 863f 1410 fdbf
00000020: d8d3 b13f 94e0 093f 645c 67bf ab3d 813f
00000030: 7f4a a7be 48d9 973f a487 793f 9970 9fbf
-1.9353682 -1.286445 0.6246214 -1.4583193 1.4774395 1.0797576 1.049149 -1.9770532
1.3892775 0.53858304 -0.9037535 1.0096945 -0.32674024 1.1863184 0.97472596 -1.2456237

layers.1.weight f4 [16, 16]
00000000: 1368 ab40 2005 2140 f903 23bd b6bc 7240
00000010: 7cf9 4fc0 634c 97bf 91f8 d3bf 8c82 ae40
00000020: 187d 35c0 9584 0b3d afb7 293f f934 54bf
00000030: f900 2b3d 8471 dabf 07d3 77be 3eee 1c40
00000040: d743 9740 20ec bb3f 7676 00bd be10 4e40
00000050: e9cd 28c0 3436 6bbf e298 4cbf 9605 9440
00000060: 54e9 2bc0 d22d 073d 6091 003f 18fb 4fbf
00000070: e54b 353d 5cbc 82bf 8614 96be 67f2 ea3f
00000080: 2259 9840 c0be 0a40 eb43 17bd bc93 2540
00000090: ce92 21c0 6465 77bf e27b 57bf 8ccf 9940
000000a0: 1a96 18c0 2980 dfbd e396 7a3e 5e87 07bf
000000b0: 87f4 0fbd 8ddd 98bf b0eb b1be b6f0 dc3f
000000c0: f4f6 cf40 f762 3c40 92f3 45bd bc88 9040
000000d0: 8e25 6dc0 a17a f0bf 1a27 ecbf 65c0 b740
000000e0: d48a 70c0 140c 853d 417b 823f 5a19 61bf
000000f0: 7f08 7b3c bf2c 01c0 0b4f 72be b9f4 3940
00000100: 15b5 b6c0 ae1a 3fc0 d7a7 41bc 87f1 72c0
00000110: 0274 5b40 294b b63f 25da c93f 871e b1c0
00000120: 4b40 5440 fdc3 6f3d 442e 38bf ebfc 713f
00000130: 00be 95bd 5269 0540 8162 803e 87df 19c0
00000140: c063 ac40 61ef 2f40 7040 ac3d 3fe9 7540
00000150: 92c7 67c0 fc09 c9bf 3eba d4bf 63ab b640
00000160: 905a 4fc0 da11 f7bd 1097 663f 742b 52bf
00000170: c466 27bd 3e56 f7bf 5171 1abe b62d 2840
00000180: a6d3 94c0 4efb d8bf 0a65 333d dd26 40c0
00000190: 8f1e 2940 f038 8a3f c9ec 3f3f 77a5 9fc0
000001a0: 338d 2540 deda c13d 3501 c2be f61e cc3e
000001b0: ea9c c8bb 27d8 323f 4de2 a83e b545 f1bf
000001c0: b16b a740 89ac 3940 2b50 993c 69a8 6140
000001d0: ad33 59c0 3d7d 55bf dc73 99bf d2db ac40
000001e0: b436 2dc0 fbf7 f63c b266 f43e 0779 90bf
000001f0: 72e3 fabc 9117 1ec0 e852 62be bd5b fc3f
00000200: 687f a5c0 d287 04c0 aac1 cd3d b98c 4bc0
00000210: a3e8 5440 c65d 7f3f ef51 a73f a531 a3c0
00000220: a31c 2340 d4d2 71bc 114e ffbe 4c34 063f
00000230: daea 0c3d 5add da3f d5c4 463e 709e 06c0
00000240: 0336 9dc0 ef53 09c0 31ff 903d 93c2 67c0
00000250: 9a81 3d40 1e56 983f a86e 873f 88af a9c0
00000260: 7030 2540 a942 90bc 6fb5 5bbf 4673 403f
00000270: ed17 ad3d 4c99 ec3f a6ab 863e 0e3b 08c0
00000280: 98b2 cc40 b481 2c40 1830 353d 8b62 8740
00000290: cc9a 6dc0 0dcd 17c0 5aee f6bf d3b3 b840
000002a0: 9c25 62c0 032e 9e3c 55f5 303f 7c51 4bbf
000002b0: 3656 363d cafb f8bf 6160 6abe 6e6e 3e40
000002c0: 2354 93c0 c6e2 1dc0 b473 903d bc04 4cc0
000002d0: 857c 4440 7850 7d3f 2f14 523f fb71 a9c0
000002e0: cc2a 1c40 ed78 49bd c9b5 aebe 9de8 3f3f
000002f0: 61b0 33bd f30c d93f f83f ce3e f971 0ac0
00000300: 9784 a5c0 969d 20c0 2585 843b bbbf 55c0
00000310: 8e6a 4840 f8f1 633f f289 a73f d7d5 acc0
00000320: 5385 3240 7496 423d bb34 d4be ff64 733f
00000330: 484c aabc 02e0 0c40 76bc 643e 2dad 06c0
00000340: 0f2d 98c0 dd29 cfbf 4a8b adbd da3c 53c0
00000350: d77c 2540 0d61 773f cc6f 133f f63a a5c0
00000360: 78e1 2240 a156 6f3d c84e 96be 6264 443f
00000370: d75f 84bd a880 a33f f2aa 5c3e 2cbb ddbf
00000380: c9e5 9740 f7ba 2d40 6d41 1a3c 8eb7 5340
00000390: 111c 3bc0 437b 23bf 8201 78bf 2f95 9740
000003a0: ea95 22c0 d471 4a3c 36e7 cf3e 4b56 37bf
000003b0: 23b8 713d 6a07 04c0 b5ca 23be 7986 f63f
000003c0: 30c8 af40 83ce 3340 59cb 02be ec2c 6b40
000003d0: 88b9 48c0 3a2f bfbf d4d3 87bf ef45 ae40
000003e0: fef1 33c0 491f 22bc 3b62 243f 1e18 54bf
000003f0: 5385 debd 1424 f1bf 3f70 d9be cbeb 2840
5.3564544 2.5159378 -0.03979871 3.792768 -3.2496023 -1.1820186 -1.6560231 5.453436
-2.83576 0.034061987 0.66295904 -0.8289333 0.041748974 -1.7065892 -0.24201594 2.4520411
4.727031 1.4681435 -0.031362973 3.2197719 -2.6375678 -0.9187958 -0.7992078 4.625682
-2.6861162 0.033002682 0.50221825 -0.81242514 0.04426183 -1.0213733 -0.29312533 1.8355225
4.7608805 2.1678925 -0.036930006 2.587142 -2.5245852 -0.96639085 -0.84173405 4.8065853
-2.3841615 -0.109131165 0.24471621 -0.5294093 -0.03514531 -1.1942612 -0.34750128 1.7260959
6.4988956 2.9435403 -0.04832799 4.516691 -3.7054172 -1.8787423 -1.8449433 5.7422357
-3.7584734 0.06496444 1.0193864 -0.8792931 0.01532185 -2.018356 -0.23662965 2.9055617
-5.7096047 -2.9860034 -0.011819801 -3.7959917 3.4289556 1.4241687 1.5769697 -5.5349765
3.3164241 0.05853652 -0.71945596 0.9452655 -0.0731163 2.0845532 0.25075153 -2.404268
5.3871765 2.7489855 0.08410728 3.8423612 -3.6215558 -1.5706172 -1.6619337 5.708421
-3.2399025 -0.12063952 0.90074253 -0.82097554 -0.04086949 -1.9323194 -0.1508229 2.62779
-4.650836 -1.6951692 0.04379753 -3.002372 2.6424901 1.0798626 0.7497068 -4.9889483
2.586743 0.09465574 -0.37891546 0.3986737 -0.0061222212 0.6986107 0.32985154 -1.8849398
5.231896 2.9011557 0.018714985 3.525904 -3.393779 -0.83394223 -1.1988482 5.4018335
-2.7064638 0.030147543 0.477346 -1.1286935 -0.030626033 -2.4701884 -0.22101939 1.9715496
-5.1718025 -2.0707898 0.10046704 -3.180464 3.326699 0.9975246 1.3071879 -5.09981
2.5486228 -0.014759738 -0.49864247 0.5242355 0.03440366 1.7098801 0.19411023 -2.1034203
-4.912843 -2.145748 0.07079924 -3.6212509 2.9610353 1.1901281 1.0580645 -5.302677
2.5810814 -0.017609911 -0.8582372 0.75175893 0.08451829 1.8484282 0.26302832 -2.1286044
6.396801 2.6954165 0.04423532 4.230779 -3.712573 -2.3718903 -1.9291489 5.771951
-3.5335455 0.01930905 0.69124347 -0.7942121 0.04451581 -1.945184 -0.22888328 2.97549
-4.6040206 -2.4669662 0.070533186 -3.187789 3.0701 0.9895091 0.8206205 -5.2951636
2.440112 -0.04918759 -0.34123066 0.74964315 -0.04386938 1.6957077 0.4028318 -2.1632063
-5.1724353 -2.5096183 0.0040441924 -3.3398273 3.1315036 0.8904109 1.3088973 -5.4011035
2.7893875 0.047506765 -0.4144648 0.9507598 -0.020788327 2.2011724 0.22337517 -2.1043198
-4.7555003 -1.6184651 -0.08473833 -3.300589 2.5857446 0.9663246 0.57592463 -5.1634474
2.5450115 0.058432225 -0.2935698 0.7671567 -0.064635925 1.2773638 0.21549585 -1.7322745
4.7468 2.7145364 0.009415013 3.3080783 -2.923588 -0.6385996 -0.968773 4.736961
-2.5404 0.01235624 0.40606087 -0.7161605 0.059013497 -2.0629525 -0.15995295 1.9259788
5.493187 2.8094795 -0.12772883 3.6746168 -3.136324 -1.4936287 -1.061152 5.446037
-2.811645 -0.009895154 0.6421239 -0.828493 -0.10865273 -1.8839135 -0.4246845 2.6393917

layers.1.bias f4 [16]
00000000: 846d 35be f1a1 2fbe c79e 06be d653 54be
00000010: 6e6c 293e 4db6 3cbe e14d f83d 06de 07be
00000020: 3c45 403e 9f05 0b3e ed3c 4fbe be20 0b3e
00000030: f14d 3f3e 10dd 153e 7b7f 2cbe 8b0c 25be
-0.17717558 -0.1715162 -0.13146506 -0.20735106 0.16545269 -0.18428917 0.12124229 -0.13268289
0.18776411 0.13576363 -0.20238085 0.13586709 0.18682076 0.1463511 -0.16845505 -0.16118066

layers.2.weight f4 [8, 16]
00000000: 1025 e840 acf7 a940 5dc5 ad40 7d15 cd40
00000010: 6d1c fac0 f0ef d740 0695 eac0 0e6b aa40
00000020: 0a86 fbc0 4a44 b6c0 b350 dc40 4f30 cec0
00000030: 7b60 e0c0 1201 cfc0 f06b b740 d955 eb40
00000040: 9331 ecc0 ee05 a9c0 0e29 b4c0 ba5e dcc0
00000050: e62a f040 16f5 e3c0 181f d640 9e05 a1c0
00000060: f9ba eb40 3d83 b740 0c29 d6c0 46d3 c740
00000070: 6608 de40 731e cd40 a35a b9c0 f24c e7c0
00000080: 73eb f2c0 3b45 b0c0 7204 c7c0 29b0 c9c0
00000090: 3763 f440 42cd cec0 c221 d940 6b26 c2c0
000000a0: 2294 fe40 51cb c540 f326 dac0 bcfc c840
000000b0: 8798 d840 03b6 e340 6a5e b3c0 d7e3 e4c0
000000c0: eb18 fa40 47ed a840 6567 ba40 f7a3 d740
000000d0: 5231 e5c0 5ea5 c940 2ee9 e2c0 f6e4 b640
000000e0: a519 f6c0 2421 b9c0 b072 c140 eaaf bcc0
000000f0: cea5 d3c0 65e1 d1c0 3590 b240 ed14 dc40
00000100: 584e ea40 a9b4 af40 59c0 aa40 48c8 df40
00000110: 361e 02c1 6f89 d840 4798 cdc0 6fd9 af40
00000120: 4e1f ecc0 19ec bfc0 d3c7 bf40 becc c9c0
00000130: 79f6 d8c0 aa59 cdc0 3bb6 b640 5c08 ec40
00000140: a286 ec40 4982 b440 89d4 bd40 86e9 d140
00000150: fe50 eec0 0bf2 d640 2342 e4c0 0c59 bd40
00000160: 8eb4 e5c0 d9b9 b2c0 0592 c440 4772 d0c0
00000170: 67c8 d8c0 2e3d cbc0 519a c840 5a89 d840
00000180: b634 ea40 7619 b040 32f4 b340 4c08 ce40
00000190: f77a f4c0 2e86 da40 edbe dac0 0f7a c440
000001a0: 7fac fec0 6476 ccc0 3bca d640 9ff9 c7c0
000001b0: e8dd eec0 7210 d5c0 2c0b c840 aed6 ed40
000001c0: 1fe5 e540 5de0 b440 e8e4 c240 3ef6 bf40
000001d0: 6010 fbc0 ae3f e340 5450 e1c0 7738 d040
000001e0: 52ec f2c0 63fa ccc0 9ace c340 f79b cec0
000001f0: 640b d1c0 6e07 d5c0 0bdf b940 b004 f640
7.254524 5.3114834 5.430342 6.408873 -7.81597 6.7480392 -7.3306913 5.325568
-7.860112 -5.695836 6.884851 -6.443397 -7.0117774 -6.4688807 5.731926 7.3542295
-7.3810515 -5.281974 -5.6300116 -6.8865633 7.5052366 -7.1236677 6.6912956 -5.0319357
7.366574 5.7347703 -6.6925106 6.24454 6.938525 6.409967 -5.792314 -7.2281427
-7.5912414 -5.508451 -6.2192926 -6.302754 7.637111 -6.462556 6.785371 -6.0671897
7.9555826 6.181069 -6.8172545 6.2808514 6.768619 7.115968 -5.605275 -7.1528125
7.8155417 5.2789645 5.8251214 6.7387652 -7.1622705 6.3014364 -7.0909643 5.7154493
-7.6906304 -5.7852955 6.04525 -5.896474 -6.61399 -6.558764 5.5801034 6.8775544
7.3220634 5.4908032 5.33598 6.9931984 -8.132376 6.7667766 -6.4248385 5.495292
-7.3788214 -5.9975705 5.9931426 -6.306243 -6.780087 -6.4171953 5.709745 7.3760204
7.3914347 5.640904 5.932194 6.5597563 -7.4473867 6.7170463 -7.1330733 5.91712
-7.1782904 -5.5851865 6.1428246 -6.51395 -6.774463 -6.351218 6.2688375 6.7667665
7.3189344 5.503108 5.623559 6.438513 -7.6400104 6.8288794 -6.8358064 6.1398997
-7.9585567 -6.389452 6.7121863 -6.2492213 -7.464588 -6.6582575 6.2513638 7.432456
7.184219 5.652388 6.0904427 5.998809 -7.845749 7.1015234 -7.0410557 6.5068927
-7.5913477 -6.405565 6.11897 -6.4565387 -6.5326405 -6.657157 5.808477 7.688072

layers.2.bias f4 [8]
00000000: 215f 9fbf f52f a43f ffda 8b3f fd5a a1bf
00000010: a38c a9bf f493 9fbf 428b 9dbf 13ab 9cbf
-1.2450906 1.2827135 1.0926207 -1.2605892 -1.3246044 -1.2467027 -1.2308123 -1.2239708

output.weight f4 [1, 8]
00000000: c9e4 613d 3888 33bd df99 58bd 24c9 3b3d
00000010: 309f 453d 942e 663d 9e1d 713d a1ba 633d
0.055149827 -0.04383108 -0.052881118 0.04584612 0.048247516 0.056196764 0.058866136 0.055597905
