vanilla_gan/19-02-23_23-27/generator.pt (torch_old, 5869 bytes, 7 tensors)

layers.0.weight f4 [16, 1]
0.45007116 0.41370553 -0.087829895 0.48384553 -0.7220715 0.72462565 0.893384 -0.7929397
-0.72375584 1.0448178 0.3867475 -0.36766058 -0.29346418 0.45676893 -0.92709607 0.6375597
00000000: ba6f e63e 36d1 d33e 29e0 b3bd 9aba f73e
00000010: aed9 38bf 1181 393f d0b4 643f 19fe 4abf
00000020: 1048 39bf 97bc 853f c503 c63e 023e bcbe
00000030: f040 96be 9edd e93e 2b56 6dbf 1d37 233f

layers.0.bias f4 [16]
0.24526721 0.55692196 -1.0690775 -0.73881894 -0.31646055 -0.58639914 0.045495186 0.71343255
0.8110475 0.9159814 -0.49668998 -0.20828071 0.47895908 0.43783683 -0.94634396 0.1765084
00000000: 5427 7b3e 7092 0e3f 88d7 88bf 3d23 3dbf
00000010: 1e07 a2be 411e 16bf 2959 3a3d 84a3 363f
00000020: cfa0 4f3f c27d 6a3f 264e febe 8a47 55be
00000030: 203a f53e 262c e03e 9943 72bf 9ebe 343e

layers.1.weight f4 [32, 16]
-0.021061627 0.045818344 0.13434571 0.29029235 -0.13657047 0.22577903 -0.023627516 0.12538938
-0.087775074 -0.27493352 -0.048228625 0.1673704 0.028293654 -0.057371497 0.3050988 0.045913566
0.024461353 -0.24931479 0.30873513 0.2542863 0.0197887 -0.060812663 0.13873035 -0.19963275
-0.29332268 -0.19628492 0.08703179 0.32941353 0.0354776 0.09903377 0.15697016 -0.030589776
0.24036662 0.160446 -0.124622904 0.10862823 -0.15856157 -0.33704767 -0.13647346 0.34857136
0.16819566 0.05540218 0.012579989 -0.16836195 0.32236472 0.12096249 -0.028794626 -0.06135551
0.33392298 0.19670925 0.14386335 -0.2045602 -0.11760657 0.078515686 0.21347864 0.0055684154
0.05255286 0.32123315 -0.24845517 -0.2945731 0.02213699 0.09561433 0.008965554 0.023113322
0.1163314 -0.09742865 -0.08702775 0.010927605 0.070120245 -0.17328471 -0.13234371 -0.06856871
-0.05677732 0.29646465 -0.17682019 0.072418295 -0.11542483 0.3467623 -0.008115726 -0.086453535
-0.18088618 -0.30028078 -0.04902924 0.050727453 -0.08653397 0.033577323 0.024282144 0.05054799
-0.34833992 0.12554571 -0.0217727 0.1629769 -0.28336182 -0.32632932 0.105930574 -0.3369509
-0.09223958 -0.047297593 -0.29010704 0.043306496 -0.054655816 -0.22985606 -0.01413888 0.22499861
-0.034119476 0.28323343 0.058233887 0.0149151115 -0.019485988 0.2532413 0.12271097 0.14708695
0.31574753 -0.019438002 -0.1978566 0.021645566 -0.20574081 -0.11869171 -0.12295125 0.12642139
0.15198603 0.2615913 -0.13844085 -0.22381799 -0.05045363 -0.005495694 -0.28556558 0.2655311
0.016195541 0.29510832 -0.035525363 -0.13043612 0.07596233 -0.027374847 0.3352087 0.013866334
0.2727736 0.2969231 0.10358778 -0.2876234 0.14160787 0.33788005 -0.21037464 -0.12287741
0.19951789 0.054400932 -0.31180227 0.06722591 -0.1200482 -0.30938718 0.28775415 0.24758253
0.13751172 0.14037968 -0.24804379 -0.19539313 0.1970521 0.14246553 -0.112367004 0.07437691
-0.26982802 -0.11308114 0.264451 -0.1336006 0.047143452 -0.040960714 0.000731872 -0.1723455
-0.011475398 -0.109654576 0.19019924 0.27440718 -0.20848784 0.018329788 0.1691509 -0.051987477
-0.1571504 -0.22968347 0.1507499 0.009190938 0.19675526 -0.106343426 -0.12590906 -0.3497219
-0.10346344 -0.30135265 -0.015970489 0.1138769 -0.25075305 0.07988418 0.18042783 -0.32058164
0.1363624 0.015012843 -0.2900876 0.10037521 0.010074585 -0.02557788 0.313574 0.2442815
-0.14321779 0.2718106 -0.271703 -0.08870012 0.18584815 0.29541072 -0.11338213 0.1624185
0.04436994 0.08820317 -0.14053927 -0.2820973 -0.054837056 -0.086855955 0.0045530964 -0.14486171
0.11930817 -0.09715263 -0.1203795 -0.19587918 0.13211714 0.25930223 -0.20515166 0.04676911
-0.12794116 0.13126269 0.19907174 0.091502585 -0.01858461 0.14784597 -0.24708222 -0.18446155
0.018185962 -0.19623262 0.11659359 -0.15317369 -0.17940858 -0.1640712 0.15665697 0.10799894
-0.12641248 0.14322682 0.07011775 -0.105446115 0.2583495 0.011779392 0.07188242 -0.16530514
-0.045915395 -0.16183922 0.15795356 -0.032324843 -0.2659206 -0.18804094 0.31086078 -0.23857497
00000000: 6f89 acbc 04ac 3b3d ec91 093e 33a1 943e
00000010: 21d9 0bbe 9e32 673e 7e8e c1bc 1366 003e
00000020: 6bc3 b3bd 16c4 8cbe 618b 45bd 2563 2b3e
00000030: 18c8 e73c 60fe 6abd e935 9c3e dd0f 3c3d
00000040: 2d63 c83c 604c 7fbe 8812 9e3e d031 823e
00000050: e91b a23c b316 79bd 540f 0e3e 876c 4cbe
00000060: 642e 96be eafe 48be b93d b23d e4a8 a83e
00000070: f650 113d 38d2 ca3d c9bc 203e 6997 fabc
00000080: ab22 763e f54b 243e 4b3a ffbd 7a78 de3d
00000090: f75d 22be 8391 acbe b3bf 0bbe f277 b23e
000000a0: 7c3b 2c3e 65ed 623d 4c1c 4e3c 1367 2cbe
000000b0: fd0c a53e 2fbb f73d b5e2 ebbc ea4f 7bbd
000000c0: f4f7 aa3e 266e 493e ea50 133e 3b78 51be
000000d0: b7db f0bd d5cc a03d 259a 5a3e 4177 b63b
000000e0: ab41 573d ac78 a43e 086b 7ebe 49d2 96be
000000f0: a258 b53c 72d1 c33d 42e4 123c 2658 bd3c
00000100: 283f ee3d ac88 c7bd 9b3b b2bd b309 333c
00000110: 349b 8f3d 8c71 31be 1c85 07be c06d 8cbd
00000120: 568f 68bd 37ca 973e 5a10 35be 0b50 943d
00000130: da63 ecbd d48a b13e d2f7 04bc 8d0e b1bd
00000140: 3a3a 39be 67be 99be e2d2 48bd 97c7 4f3d
00000150: b938 b1bd 6088 093d 59eb c63c 690b 4f3d
00000160: 9c59 b2be 0e8f 003e a95c b2bc 6be3 263e
00000170: cd14 91be a314 a7be 21f2 d83d d484 acbe
00000180: 1be8 bcbd 1fbb 41bd e988 94be 2762 313d
00000190: c7de 5fbd 635f 6bbe c3a6 67bc 0966 663e
000001a0: ddc0 0bbd f903 913e a886 6e3d 835e 743c
000001b0: 14a1 9fbc d8a8 813e e44f fb3d f69d 163e
000001c0: a9a9 a13e 723c 9fbc ec9a 4abe 0b52 b13c
000001d0: b8ad 52be a414 f3bd ddcd fbbd 9c74 013e
000001e0: 3aa2 1b3e 4bef 853e 70c3 0dbe 8b30 65be
000001f0: 77a8 4ebd 3915 b4bb a735 92be b1f3 873e
00000200: 83ac 843c 7018 973e 0b83 11bd 0c91 05be
00000210: 2392 9b3d 3741 e0bc 7aa0 ab3e 9f2f 633c
00000220: fba8 8b3e 4e06 983e d425 d43d 6043 93be
00000230: a701 113e 9dfe ac3e 736c 57be 27a7 fbbd
00000240: 6b4e 4c3e 83d3 5e3d 8ca4 9fbe bdad 893d
00000250: d5db f5bd ff67 9ebe 8354 933e 4686 7d3e
00000260: dfcf 0c3e b1bf 0f3e 31ff 7dbe 2315 48be
00000270: 07c8 493e 7ce2 113e ac20 e6bd ec52 983d
00000280: e626 8abe 1697 e7bd 1f66 873e 98ce 08be
00000290: 7e19 413d 6cc6 27bd 19db 3f3a 577b 30be
000002a0: 4f03 3cbc 9492 e0bd 97c3 423e 197f 8c3e
000002b0: d67d 55be 5a28 963c e535 2d3e d2f0 54bd
000002c0: 09ec 20be 2532 6bbe 2f5e 1a3e 9795 163c
000002d0: 367a 493e 95ca d9bd 4eee 00be c00e b3be
000002e0: a4e4 d3bd e54a 9abe 8bd4 82bc 4b38 e93d
000002f0: b462 80be 519a a33d 13c2 383e 4723 a4be
00000300: 96a2 0b3e 6df8 753c 5d86 94be 8591 cd3d
00000310: df0f 253c b488 d1bc c58c a03e ee24 7a3e
00000320: afa7 12be c22a 8b3e a81c 8bbe 69a8 b5bd
00000330: fa4e 3e3e 1340 973e e434 e8bd 0951 263e
00000340: 41bd 353d dda3 b43d 87e9 0fbe 0f6f 90be
00000350: d29c 60bd 89e1 b1bd 2432 953b a156 14be
00000360: d857 f43d f5f7 c6bd 8789 f6bd 8d94 48be
00000370: b749 073e 43c3 843e 4713 52be f790 3f3d
00000380: 0203 03be ba69 063e 76d9 4b3e b565 bb3d
00000390: c13e 98bc ef64 173e 1f03 7dbe 7de3 3cbe
000003a0: bafa 943c 34f1 48be 9fc8 ee3d 90d9 1cbe
000003b0: e2b6 37be 4802 28be af6a 203e 8c2e dd3d
000003c0: 4672 01be 0daa 123e e599 8f3d 22f4 d7bd
000003d0: 6346 843e 5afe 403c 1737 933d c045 29be
000003e0: c811 3cbd 2eb9 25be 94be 213e 0e67 04bd
000003f0: bf26 88be ce8d 40be 2529 9f3e ff4c 74be

layers.1.bias f4 [32]
-0.2540929 -0.048295267 0.08458441 0.19523895 0.32001564 -0.16943164 0.24561687 0.039730143
-0.05676056 0.104870506 -0.23061162 0.12738802 0.28742605 0.12346075 -0.23331584 -0.24709606
-0.041510995 -0.24583852 0.217276 0.0834505 -0.3011275 -0.21306571 0.20803541 -0.09749278
-0.061411053 -0.06823543 -0.23167379 0.083787344 -0.010616811 -0.31027842 -0.28690526 0.301193
00000000: 7718 82be 42d1 45bd 973a ad3d b8ec 473e
00000010: 17d9 a33e 7d7f 2dbe fd82 7b3e 13bc 223d
00000020: c37d 68bd 59c6 d63d 7425 6cbe 0172 023e
00000030: 8229 933e fdd8 fc3d 59ea 6ebe c006 7dbe
00000040: 6f07 2abd 18bd 7bbe 9a7d 5e3e 19e8 aa3d
00000050: 622d 9abe e62d 5abe 3c07 553e 4baa c7bd
00000060: 288a 7bbd 04bf 8bbd e53b 6dbe b398 ab3d
00000070: 22f2 2dbc d0dc 9ebe 3fe5 92be f835 9a3e

layers.2.weight f4 [16, 32]
0.20898965 0.13207217 -0.11198773 -0.112113126 -0.12100195 0.08050143 -0.21101457 -0.2550739
-0.046979997 -0.069622934 0.13125944 0.1859113 -0.18289502 -0.15902653 0.035472896 0.059949216
0.15449318 -0.06546329 -0.073460475 -0.14125694 0.23610093 0.060418587 -0.24985589 0.13144352
0.20588288 -0.023444643 -0.08261043 0.040214714 -0.14502907 0.12653832 0.13979107 -0.16418342
0.11661104 0.13616875 -0.18444683 -0.07166277 -0.0880759 0.08131054 -0.2300865 -0.107467584
-0.015656602 -0.27517036 0.19765466 0.16081241 -0.10471504 -0.1496007 0.10055443 0.06965263
0.02876021 0.22091162 -0.027289225 0.0451126 0.053483244 -0.02515152 -0.053757966 0.1650823
-0.06626269 0.13024595 0.07279703 -0.053049583 -0.08194674 0.1310566 0.018528301 0.03419272
0.24719582 0.24428868 -0.09144196 -0.26910695 0.103572555 0.013042679 -0.042508025 -0.123284705
-0.0306565 -0.22822008 0.04966439 0.115038276 -0.13213105 0.04542521 0.063191585 0.19980718
-0.035281964 0.054823175 -0.054472793 -0.05644473 0.071436726 0.094697915 -0.13929836 0.05363337
-0.003609746 -0.031998374 -0.079959415 0.049275953 -0.022189125 0.20633148 0.20678718 -0.27475005
0.1979689 0.16045429 -0.0071437573 -0.040767744 -0.10317648 0.20379907 -0.08932098 -0.24145214
-0.26111057 0.005462858 -0.008297083 -0.08219262 -0.12042328 0.015505682 -0.031893842 0.08437472
0.22717997 0.22363004 -0.21714875 -0.10868621 0.24149731 0.07090292 0.061385185 0.18815516
-0.0395033 0.21096332 0.17381386 0.17360757 -0.18836693 0.010682273 0.1516885 -0.14487435
-0.20275936 -0.15640634 0.29364958 0.2165452 -0.012753426 0.019558607 0.3195387 0.116627164
0.030266939 0.021314314 -0.056985207 -0.16595803 -0.009784567 0.19580202 0.061839957 -0.02990969
-0.07551601 -0.17204835 0.12535623 -0.034906242 -0.14467748 0.04374369 -0.037999913 0.028289309
-0.18847439 -0.06276061 -0.18758655 -0.29647422 -0.01472002 0.040251426 -0.1727549 0.2506521
-0.021956073 0.039105617 0.22151719 0.23796682 -0.09504502 -0.040913504 0.21318913 0.07193785
0.26888177 0.061619356 -0.26938686 -0.17794746 -0.05526545 0.008955758 -0.1966208 -0.23561081
0.06740106 -0.12776424 0.05343331 0.025808476 -0.022310946 -0.084533975 0.12911291 0.05877755
-0.17138937 -0.006618773 -0.079362966 -0.15022874 0.09427527 -0.20315802 -0.13012421 0.10375917
0.017752916 0.1434336 -0.21153848 0.025470506 -0.17218062 0.18642771 -0.06061552 -0.22995374
-0.07344378 -0.11768865 0.007392559 0.19922835 0.03984998 -0.28477642 0.11724235 0.08201541
0.05013885 0.2742633 -0.13043086 -0.014303025 0.14649273 0.010564204 -0.034812357 0.053674955
0.20806524 0.11973847 -0.0979983 0.014770537 -0.010350464 0.1377943 0.22038777 -0.069675125
-0.08347407 0.22474156 -0.06393374 -0.13013108 -0.18904819 0.17186558 0.04145012 -0.16948436
-0.058289923 -0.19671853 0.051110856 0.06837349 -0.094777144 0.037477214 -0.032133874 0.22596815
0.12012328 0.15235059 0.030529525 -0.10452566 0.15928678 0.16932507 -0.17379214 0.12498932
-0.024529925 -0.074719794 0.19987597 0.18287107 -0.21139503 0.10888361 0.060947075 -0.23953223
00000000: 6201 563e ed3d 073e d359 e5bd 919b e5bd
00000010: dfcf f7bd efdd a43d 3414 58be 0c99 82be
00000020: 196e 40bd 7896 8ebd e068 063e 885f 3e3e
00000030: d548 3bbe dad7 22be 074c 113d 4f8d 753d
00000040: 7633 1e3e 9e11 86bd 7272 96bd a9a5 10be
00000050: 71c4 713e 7b79 773d 39da 7fbe 2199 063e
00000060: f6d2 523e fb0e c0bc a82f a9bd 2fb8 243d
00000070: 8082 14be 4393 013e 6425 0f3e b31f 28be
00000080: c5d1 ee3d d26f 0b3e a1df 3cbe eec3 92bd
00000090: 2361 b4bd 2486 a63d cc9b 6bbe f717 dcbd
000000a0: 4642 80bc 21e3 8cbe fc65 4a3e 02ac 243e
000000b0: d774 d6bd ed30 19be 7bef cd3d 0aa6 8e3d
000000c0: 889a eb3c a836 623e a78d dfbc fdc7 383d
000000d0: 3f11 5b3d 8f0a cebc 5031 5cbd 560b 293e
000000e0: bcb4 87bd 325f 053e 9c16 953d 854a 59bd
000000f0: b1d3 a7bd b433 063e aac8 973c aa0d 0c3d
00000100: e720 7d3e d026 7a3e ec45 bbbd 63c8 89be
00000110: d91d d43d f6b0 553c e51c 2ebd b17c fcbd
00000120: 5723 fbbc 86b2 69be e36c 4b3d 3099 eb3d
00000130: 5d4d 07be c90f 3a3d 976a 813d 419a 4c3e
00000140: d283 10bd 448e 603d dd1e 5fbd 9732 67bd
00000150: 6b4d 923d fbf0 c13d 3ba4 0ebe aaae 5b3d
00000160: 7d91 6cbb ba10 03bd c3c1 a3bd 95d5 493d
00000170: f8c5 b5bc 8f48 533e 05c0 533e 0aac 8cbe
00000180: 5cb8 4a3e 214e 243e 2e16 eabb 14fc 26bd
00000190: 314e d3bd b4b0 503e ebed b6bd 3b3f 77be
000001a0: 49b0 85be c601 b33b 7df0 07bc 9b54 a8bd
000001b0: 7ba0 f6bd 8b0b 7e3c 1ea3 02bd a7cc ac3d
000001c0: dea1 683e 46ff 643e 3e5c 5ebe e096 debd
000001d0: 124b 773e 8d35 913d 086f 7b3d bfab 403e
000001e0: 36ce 21bd c506 583e 43fc 313e 2fc6 313e
000001f0: 43e3 40be b304 2f3c 3b54 1b3e f159 14be
00000200: 26a0 4fbe fc28 20be 3d59 963e 06be 5d3e
00000210: bff3 50bc 5f39 a03c 949a a33e 39da ee3d
00000220: 5ff2 f73c 5b9b ae3c 5269 69bd e7f0 29be
00000230: 734f 20bc 5380 483e e54b 7d3d 2b05 f5bc
00000240: 23a8 9abd 712d 30be 625d 003e d9f9 0ebd
00000250: 5526 14be 952c 333d cca5 1bbd fbbe e73c
00000260: 6eff 40be a288 80bd b016 40be 78cb 97be
00000270: 3d2c 71bc aede 243d a9e6 30be 7955 803e
00000280: 39dd b3bc 362d 203d 67d5 623e 93ad 733e
00000290: f7a6 c2bd eb94 27bd 404e 5a3e 2754 933d
000002a0: dfaa 893e 9464 7c3d 13ed 89be dc37 36be
000002b0: 065e 62bd 2cbb 123c f756 49be f643 71be
000002c0: 9109 8a3d a1d4 02be e3dc 5a3d 4c6c d33c
000002d0: 72c5 b6bc 2620 adbd 2d36 043e bac0 703d
000002e0: b280 2fbe 4be2 d8bb 0d89 a2bd 90d5 19be
000002f0: 6513 c13d a808 50be 483f 05be b07f d43d
00000300: 906e 913c 42e0 123e 8b9d 58be 86a7 d03c
00000310: 1e50 30be e8e6 3e3e fb47 78bd fe78 6bbe
00000320: b169 96bd bf06 f1bd 483d f23b 8402 4c3e
00000330: bc39 233d 37ce 91be c21c f03d b2f7 a73d
00000340: 655e 4d3d 3d6c 8c3e ab8f 05be 3c57 6abc
00000350: 3102 163e 7c15 2d3c 6797 0ebd 45da 5b3d
00000360: 0e0f 553e 7139 f53d 55b3 c8bd 1f00 723c
00000370: fe94 29bc f319 0d3e 55ad 613e d5b1 8ebd
00000380: 74f4 aabd a722 663e b1ef 82bd 1541 05be
00000390: d995 41be 88fd 2f3e 9ac7 293d 4f8d 2dbe
000003a0: 6ac1 6ebd 9570 49be 9e59 513d 6607 8c3d
000003b0: 851a c2bd b581 193d cf9e 03bd 3264 673e
000003c0: 3203 f63d cb01 1c3e 0e19 fa3c 8d11 d6bd
000003d0: 131c 233e 8d63 2d3e 91f6 31be 67fa ff3d
000003e0: fbf2 c8bc b106 99bd 49ac 4c3e 8e42 3b3e
000003f0: f077 58be 5ffe de3d a4a3 793d f047 75be

layers.2.bias f4 [16]
-0.07993731 -0.1177073 -0.15849438 0.003764116 0.23012191 0.097251184 -0.12721677 -0.1875161
-0.11966383 0.01441835 0.0020713678 -0.007930322 0.13003051 0.1834059 -0.02731664 -0.08297016
00000000: 2cb6 a3bd 8610 f1bd 5a4c 22be 63af 763b
00000010: 14a5 6b3e a12b c73d 1d45 02be 3804 40be
00000020: 4f12 f5bd f13a 6c3c c9bf 073b 2eee 01bc
00000030: b826 053e c2ce 3b3e 25c7 dfbc 42ec a9bd

output.weight f4 [1, 16]
-0.22815214 -0.31835103 -0.26906466 -0.39276597 0.23110807 0.2077749 -0.26457256 -0.40861222
-0.19839074 -0.29640487 -0.30521446 0.20050253 0.19797315 0.227507 -0.35767797 0.25020057
00000000: b7a0 69be e8fe a2be d8c2 89be 9f18 c9be
00000010: 98a7 6c3e f2c2 543e 0e76 87be 9f35 d1be
00000020: f126 4bbe 61c2 97be 1245 9cbe 8950 4d3e
00000030: 79b9 4a3e 98f7 683e 9121 b7be 4a1a 803e
